NRI/logs/exp2/decoder-first-with-20-epoch.pt (torch, 272379 bytes, 13 tensors)

msg_fc1.0.weight f4 [128, 2]
000000 b2 93 f9 be 5a 05 62 3e dd 84 96 3c 39 cc d6 3e
       -0.48745495 0.22072354 0.018373901 0.41952685
000010 da 52 27 3f 46 e3 8e bd 60 f4 ce 3e bf a8 ad 3c
       0.65360796 -0.06976943 0.40420818 0.021198628
000020 cc 16 8e bd 9a fb 18 bf b9 57 0e 3f fe 00 3f be
       -0.06937942 -0.59758914 0.55602604 -0.18652722
000030 e8 df 34 bf 62 95 34 bf 4f 03 18 bf e2 45 34 3e
       -0.70654154 -0.7054044 -0.5938005 0.17604783
000040 65 cf 80 3e 69 1e a1 3e 4c e4 1a 3e f3 a7 6d 3e
       0.2515823 0.31468514 0.15126151 0.23208599
000050 e5 16 03 bf af df d9 3d 53 65 4a 3d 12 5f da bc
       -0.5120681 0.106383674 0.049413037 -0.026656661
000060 a5 1e 27 3f 47 c6 c0 3e bc 72 01 3e 0c b0 50 be
       0.65281135 0.37651274 0.12641424 -0.20379657
000070 01 2b e9 3e 55 85 b0 3e 01 c8 46 be 94 63 5d 3e
       0.45540622 0.34476724 -0.19412233 0.21620017
000080 da 47 0f bf 57 2a 86 be 33 be 6d 3e 77 1f a8 3e
       -0.5596901 -0.26204178 0.23217086 0.32836506
000090 3d 01 bf be 5a 4a f3 3e ce 31 27 3f 87 3c 92 3d
       -0.37305632 0.47517663 0.6531037 0.07140451
0000a0 6c b5 52 3e b7 5c 69 bd 4e 6d d1 be a8 fd 2c bf
       0.2057702 -0.056973185 -0.40903705 -0.6757455
0000b0 6b 82 4c 3e f0 69 8b be 89 00 c5 be d7 f5 51 bd
       0.19971626 -0.2722926 -0.3847697 -0.05125984
0000c0 8e 7f 0d bf fd 4d 1b 3f 03 c3 df 3d e6 11 bf 3d
       -0.5527276 0.60665876 0.109258674 0.09329586
0000d0 23 43 42 be 8b 4c 8d 3e 84 75 20 3e be 57 0e bf
       -0.18970923 0.2759746 0.15669829 -0.55602634
0000e0 7f 2b 1b be 3e 76 ac 3e 89 f2 a6 3d 52 9e c4 3d
       -0.15153311 0.33683962 0.08151729 0.0960051
0000f0 4f 61 d6 bd c2 8a 22 3f 42 0c 02 3e c1 19 30 be
       -0.10467779 0.6349298 0.12699988 -0.17197324
000100 3d 74 eb 3e 6a ae f9 be 15 56 24 bd ef 60 cf 3e
       0.4598712 -0.4876588 -0.040121157 0.40503642
000110 5d 58 2f 3c 60 a1 14 3e 71 41 d6 3e 46 cc 54 3e
       0.01070222 0.14514685 0.41846803 0.20781049
000120 c4 79 06 3f 05 54 d5 3d 9d dd e2 be 0a 90 e7 be
       0.5252955 0.10416416 -0.44309703 -0.4522708
000130 43 77 2a bf 8f 7c 25 3f 4f 2e 33 3e 60 49 8b be
       -0.6658823 0.64643186 0.17498134 -0.27204418
000140 dc 54 52 be d8 c5 33 bf 0a 9e 78 3e db 7a 2a 3f
       -0.20540184 -0.7022376 0.24279037 0.6659371
000150 4a fe df 3e 19 ad ac 3e 4f 03 0a 3f 08 74 fe be
       0.43748695 0.33725813 0.539113 -0.496979
000160 9c 60 29 be c7 5d 24 3f ff 87 a3 bb cc 51 9f 3d
       -0.1654076 0.6420559 -0.004990577 0.077792734
000170 77 df 2a bf 83 cd 39 3d c3 1d 21 3d f9 e0 36 bd
       -0.6674723 0.045362007 0.039335024 -0.044648144
000180 c4 4b 0a bf 88 e7 27 3f 8d 9d bc 3e 7e 01 6e 3d
       -0.5402186 0.65587664 0.36838952 0.05810689
000190 89 62 4d 3e 5b 55 2f 3f 2d b2 f0 3e f9 83 bd 3e
       0.2005712 0.6848962 0.47010937 0.3701475
0001a0 15 ae 73 3e ef 7b 80 3e b6 cc d2 bd a4 68 67 3d
       0.23796876 0.25094554 -0.10292952 0.056496277
0001b0 8c 91 32 bf 85 bf 83 3e a1 54 3c 3e 07 a8 24 bd
       -0.69753337 0.25732055 0.18391658 -0.040199306
0001c0 95 76 2b 3f 52 95 1e bf 25 5e 95 bd b1 eb 24 3f
       0.66977817 -0.61946595 -0.07293347 0.64422137
0001d0 de 8a e8 3e 26 ca 26 3f c9 0f 0f 3e 40 c1 28 bf
       0.45418447 0.65152204 0.13970865 -0.65919876
0001e0 05 0f 8a be 8f 3a 1c 3d 89 8a 5e 3e c9 8d 63 be
       -0.26964584 0.038141783 0.21732534 -0.22222055
0001f0 f7 6d 91 3e ab 2e 9f 3e 38 5c b9 be 81 78 30 be
       0.2840421 0.31090292 -0.3620317 -0.17233469
000200 5c bf 12 bf 32 dd d8 3e 2e 0c ea be 92 ad 08 3f
       -0.5732324 0.4235626 -0.45712417 0.5338985
000210 75 d4 0b 3f c6 2f 1e bf 8a 0a 31 bf 4c d5 01 bc
       0.5462106 -0.61791646 -0.69156706 -0.007924389
000220 0b d0 ff 3e 3a 17 40 be 48 91 15 bf 15 bf 69 bd
       0.49963412 -0.1875886 -0.58424807 -0.057066996
000230 26 dc 63 be 92 10 2d 3e 99 b7 92 3e 38 1d a5 bd
       -0.22251949 0.16900852 0.286557 -0.08062214
000240 50 23 64 3c ec bf 07 3f 90 63 0d bd 3c eb d0 3e
       0.013924435 0.53027225 -0.03451878 0.4080447
000250 28 29 e7 3e 64 58 09 bf 62 b5 ea 3e af 4b 3b bd
       0.45148587 -0.536505 0.4584151 -0.045726474
000260 21 eb 95 3e e3 f3 e2 3e b1 db 42 be 85 38 1b 3f
       0.29280952 0.44326696 -0.19029118 0.60633117
000270 80 ec 4b 3e b3 9f bf 3e 33 83 15 3f 14 0e a7 3e
       0.19914436 0.37426528 0.5840332 0.32627928
000280 16 b1 c6 be ca 1d 81 be cc 3c 30 3e f8 ac a4 3d
       -0.3880698 -0.2521804 0.17210692 0.08040804
000290 0e d5 16 3f 9a 38 32 be 7a d2 23 3f fb 2a c9 be
       0.58918846 -0.17404404 0.63993037 -0.39290604
0002a0 f0 71 b5 3e dd a4 00 3f 65 3b 21 3e 70 32 20 3f
       0.3543849 0.5025156 0.15745313 0.6257696
0002b0 f5 7f 25 bf e2 39 c7 be 53 2a 27 bf 77 c3 a4 3e
       -0.6464837 -0.3891135 -0.65298957 0.32180378
0002c0 13 51 cc bd ee 26 34 bf ee b2 56 3e 76 c2 a5 be
       -0.09976401 -0.703719 0.20966694 -0.32374924
0002d0 90 a3 cf bd 6d 5d 31 bf 58 28 0b bf 94 34 5e 3e
       -0.10138619 -0.6928318 -0.54358435 0.21699744
0002e0 6a cd 1e 3e 9e 06 31 3f bd df 76 be 0b dc c6 3e
       0.15508047 0.6915072 -0.24108787 0.38839754
0002f0 fd 4b 32 be b5 c0 b7 3e f2 61 6b bb 4b 29 06 bf
       -0.174118 0.3588921 -0.0035916534 -0.5240676
000300 1e f2 a3 3e 32 f6 a0 3e e4 40 5a 3e 7f c9 8a bd
       0.32020658 0.31437832 0.21313816 -0.067767136
000310 e6 cd c4 be c7 29 3c 3e 4e 28 1f bf bd de 1d 3f
       -0.38438338 0.18375312 -0.62170875 0.61667997
000320 bb 77 96 bd b0 01 5b 3e ad bc c1 bd 0e 90 ef be
       -0.073470555 0.21387362 -0.09459815 -0.46789593
000330 71 2c b9 3e 29 8f e2 be 13 e6 e4 3e 77 be 31 be
       0.3616672 -0.44249848 0.44706783 -0.17357813
000340 16 86 30 bf d4 dc d4 be 6a 99 a0 bd 12 80 21 3f
       -0.689546 -0.41574728 -0.078417614 0.63086045
000350 50 26 09 3e a9 49 93 3e 09 a1 ab be 8d 56 6b 3d
       0.13393521 0.28767136 -0.33521298 0.057455588
000360 18 94 be 3e 22 eb 4b 3e 3f 28 21 3f 84 e3 00 bf
       0.37222362 0.19913915 0.62952036 -0.5034716
000370 73 00 9a be fe 0c 31 bf f4 e6 86 be 37 7e b5 3e
       -0.30078468 -0.6916045 -0.26348078 0.35447857
000380 bb 19 03 bf 05 50 06 bf d9 45 47 be 3f 3d b0 3e
       -0.51211137 -0.5246585 -0.19460239 0.34421727
000390 a9 f7 81 be 78 fb ca 3e 52 18 53 3c 19 85 01 bf
       -0.25384262 0.3964498 0.012884216 -0.50593716
0003a0 d7 d6 c2 3c f6 e4 4c 3c 34 c1 b8 3e c3 c3 06 3f
       0.023784084 0.01250576 0.36084902 0.5264246
0003b0 11 0d 19 3f 49 35 25 bf 99 c9 0a 3f 81 2b 07 bf
       0.5978556 -0.6453443 0.54213864 -0.52800757
0003c0 ae 97 af bd 19 bd 2b be 34 ee 57 be 46 26 b1 3e
       -0.085738525 -0.16771354 -0.21086961 0.34599513
0003d0 25 f6 16 3d 9a 72 b7 be dd ab cd be 84 5e f2 3d
       0.036855835 -0.35829622 -0.40170184 0.11834434
0003e0 cc fe bc be 2b a8 18 bf 71 9f 2d 3c 23 87 f2 be
       -0.36913145 -0.59631604 0.010597096 -0.47368726
0003f0 e2 7a 2b bf b8 bd ad 3e ad 9a 2b 3e ca 65 0d bf
       -0.6698438 0.33933806 0.16758223 -0.5523344

msg_fc1.0.bias f4 [128]
000000 2a 43 1f 3f 27 12 a4 3d 52 52 b4 be 63 9d 47 3e
       0.6221186 0.08011275 -0.35219055 0.19493632
000010 8b a4 08 3f 2d 91 3b be d9 c2 d4 3d 0b 8b 48 be
       0.5337607 -0.18317099 0.10388727 -0.1958429
000020 9c be c6 3e 59 45 07 bf b1 35 bd be 80 1a 24 3e
       0.38817298 -0.5284019 -0.36955026 0.16025734
000030 d5 7d f0 be 8a 4c 2b bf 64 93 07 be a6 31 15 3f
       -0.46971002 -0.66913664 -0.13239819 0.5827888
000040 cf a3 06 3f dd c2 da be b6 bd 0f 3f 24 a6 7d be
       0.525937 -0.42726794 0.5614885 -0.24770409
000050 0a fb 0c be 47 f9 6c 3e 8d 41 c3 3e 6d f5 b4 3d
       -0.13767639 0.23141967 0.3813595 0.08835874
000060 2e 1f 5d 3e 19 fb bb 3e 78 5c 30 3f 57 ec a2 3e
       0.21593925 0.3671501 0.68891096 0.31820938
000070 96 54 ee be 26 31 0c 3d ed 01 19 bf f5 bc ec be
       -0.4654891 0.03422656 -0.59768564 -0.46237913
000080 05 e0 1a bf ec 89 57 3d 14 11 17 3e 08 c4 10 3f
       -0.60498077 0.052621767 0.14752609 0.5654912
000090 f6 76 1b 3f 64 c7 80 be 68 83 78 bc b8 66 21 3c
       0.60728395 -0.25152123 -0.015168048 0.00985115
0000a0 45 db ab 3e 29 8c 80 3d 85 e8 ee 3d a9 83 0e 3f
       0.33565727 0.062767334 0.11665443 0.5566965
0000b0 e7 5e 28 bf e8 f3 33 3f f4 17 b6 3d 08 8b 1d bf
       -0.6576981 0.70294046 0.088912874 -0.6154027
0000c0 80 4e ee be b7 1a a1 3e 9b 32 05 3c 0d 59 1e be
       -0.46544266 0.31465694 0.008129741 -0.15463658
0000d0 9f 17 18 3f 22 31 6a be 40 a4 b1 be 59 a8 b2 3e
       0.5941104 -0.22870305 -0.34695625 0.34894064
0000e0 09 35 e7 be 72 c1 11 be 07 97 0f 3e b8 74 2d 3f
       -0.4515765 -0.1423395 0.14022456 0.67756224
0000f0 62 82 33 bd 48 8f ef 3d 01 68 e7 be 7c 85 ce 3e
       -0.043825515 0.116972506 -0.45196536 0.40336215
000100 b1 19 8d 3e 93 a7 5f 3e b1 b6 2f bd 2a 0d d1 3a
       0.27558663 0.21841268 -0.042898837 0.0015949358
000110 78 90 af 3e 0c 2b 0a 3f f9 7f ad bd 6c 4d 25 bd
       0.34289908 0.53971934 -0.084716745 -0.04035704
000120 4b 37 3a be 6c 43 a9 3e b5 17 c6 be bf 60 c6 3e
       -0.18185155 0.3305925 -0.38689962 0.38745686
000130 1f 8c b0 3d df e2 20 3f ec b7 e7 3e ce d5 1a bf
       0.08620476 0.6284618 0.4525751 -0.6048249
000140 3d 38 fb 3e 61 e1 ae 3e e0 8b 59 3e 40 e9 27 3f
       0.49066344 0.34156325 0.21244764 0.65590286
000150 75 4c 0b 3f 55 f4 aa 3e 65 ba 8a 3d c8 7c fd be
       0.5441354 0.33389536 0.06773833 -0.49509263
000160 b5 21 c9 3e 2f b8 29 3e 74 44 32 bf d7 f8 4d be
       0.3928353 0.16574167 -0.696357 -0.20114456
000170 00 c0 84 be 11 dc 26 3f 4e 44 cd be bb 39 24 be
       -0.25927734 0.65179545 -0.40091175 -0.16037647
000180 9b 51 11 bf 11 62 39 be 42 42 03 bc c1 58 fe bc
       -0.56765145 -0.18103816 -0.008011403 -0.03104818
000190 4b 71 06 3f c5 a8 83 bd 72 6a 6e 3e f3 14 d9 3e
       0.5251662 -0.064286746 0.23282793 0.42398795
0001a0 50 12 05 3f d1 62 17 3f 24 96 eb 3d b8 c3 0a bf
       0.5198107 0.59135157 0.115032464 -0.54204893
0001b0 f9 8d 45 3d e4 fa 00 3f c0 99 99 3e 0e c6 fb bd
       0.0482311 0.5038283 0.30000114 -0.12293635
0001c0 39 f4 50 bd 3d 2d f9 bd 89 78 34 3e 05 30 4b be
       -0.05101416 -0.12166832 0.17624106 -0.19842537
0001d0 8f 5f da 3e e5 d7 1d 3f 21 50 88 bd a5 53 87 3e
       0.4265103 0.61657554 -0.066559084 0.26431003
0001e0 ec 1a 27 3f cd 62 4d be 2b e8 d2 3e 28 d2 8b be
       0.65275455 -0.20057221 0.41192755 -0.27308774
0001f0 e7 75 b2 3e 53 b1 4e be 66 ee 23 3e da 3e 92 be
       0.34855577 -0.20184831 0.1600891 -0.28563577

msg_fc1.1.weight f4 [128, 2]
000000 81 9b 16 3f c9 e1 db be 43 68 98 3e 87 5f 2f be
       0.5883103 -0.42945698 0.29767045 -0.17126285
000010 04 7a a0 be 78 ce 22 bf ff b7 4a 3d 70 ca 33 bf
       -0.3134309 -0.63596296 0.04949188 -0.7023077
000020 f4 e7 8e bc b0 0f 05 be dc 25 d3 3d 0c d9 bf 3e
       -0.017444588 -0.12994266 0.103099555 0.3747028
000030 98 d0 41 be a8 2c 14 bf 39 39 7d 3e c8 0e bd 3e
       -0.18927228 -0.5788064 0.2472886 0.3692534
000040 26 cc 0b 3e f1 ca 94 3e 4e 91 62 be fd 9d 3a 3d
       0.13652095 0.29061082 -0.22125742 0.045560826
000050 7f 9e 17 3f 51 38 5b be 6b 13 4a bd c1 a1 e3 be
       0.5922622 -0.21408202 -0.049334925 -0.44459346
000060 c9 01 9b bd 29 07 ad be 7f d3 93 be fe 1a 26 bd
       -0.075687 -0.33794525 -0.28872296 -0.040553086
000070 9e 1b 07 3f b3 62 ff be c3 64 eb 3e c4 01 99 bc
       0.52776515 -0.4987999 0.45975313 -0.0186776
000080 cd 5d 1b 3e 42 dc 1c 3f 59 4c f9 3d 5a ff 14 3d
       0.15172501 0.61273587 0.12172765 0.036376335
000090 70 5a 0b bf 53 63 d7 be 9e 3c 18 bf df 2e 9b be
       -0.5443487 -0.42067966 -0.59467494 -0.30309197
0000a0 b9 b6 26 bf 56 f4 01 3f 29 e6 10 bf 52 6e 15 bf
       -0.6512256 0.5076345 -0.56601197 -0.5837146
0000b0 06 e9 59 be 16 58 45 bd 9e ff f9 3d 18 8e 6c 3e
       -0.21280298 -0.04817971 0.12206958 0.2310108
0000c0 77 94 77 3a e2 f1 97 3e c8 e4 d5 3d 39 58 44 3e
       0.0009444425 0.2967673 0.10444027 0.1917428
0000d0 5a 11 02 bf 30 37 4c 3e 18 cf c5 3e 96 ec c9 3e
       -0.50807726 0.19942927 0.38634562 0.39438313
0000e0 7c 44 50 3e 9b 01 b9 3d 68 05 33 bf 97 76 fb be
       0.20338625 0.09033509 -0.69930124 -0.49113914
0000f0 a6 bc da 3e ef b5 77 3e c4 e5 08 be 4e 12 2d bf
       0.42722052 0.24190496 -0.13368899 -0.67606056
000100 4c 6f 18 3f 53 15 c1 be 9a 24 1a 3f e2 b2 13 3f
       0.59544826 -0.37711582 0.602121 0.5769483
000110 32 15 33 bf ad df fa bc bd 32 c3 3e cb 6a 25 3e
       -0.69954216 -0.030624235 0.38124648 0.1615402
000120 a2 64 29 3f da 93 0e 3f 60 7a 87 be 4b 6e 8b 3e
       0.6616918 0.55694354 -0.26460552 0.27232584
000130 28 0b 0a 3f 67 8a 5f bd f4 b4 dc 3e 59 b0 ad bd
       0.53923273 -0.05457535 0.43106806 -0.08480901
000140 61 4e 66 3e 08 62 a7 3d f5 cc c3 3e c9 1c c4 bc
       0.22490837 0.08172995 0.38242307 -0.023939507
000150 bb 8c 00 3f cd ce 62 3e 28 8a c3 be 6b 85 ce be
       0.5021474 0.221492 -0.38191342 -0.40336165
000160 76 ef 26 bf 2f fe 07 bf 5f 78 26 bf 60 10 82 be
       -0.6520914 -0.5312223 -0.6502742 -0.25403118
000170 33 46 69 be 0b 0b d7 be 2c c4 d1 be dc a4 ab be
       -0.22780685 -0.42000613 -0.4096998 -0.33524215
000180 40 39 b4 bd 14 65 1c bf 87 1b b8 be 8a cc 14 bf
       -0.08799982 -0.6109173 -0.35958502 -0.581246
000190 5c e3 0f bf 9c ce 38 be ae 45 b4 3e 8a f8 fb be
       -0.562063 -0.18047565 0.3520941 -0.49213058
0001a0 dd b7 0b bf e0 4f 31 bf d3 78 ba be 46 47 e8 be
       -0.5457743 -0.69262505 -0.36420307 -0.45366877
0001b0 b0 6b 84 be 8b 65 a1 3e 4a d2 1f 3f 8d 1b 6e bd
       -0.2586341 0.31522784 0.6243025 -0.058131743
0001c0 c8 66 0b 3f 33 96 5d be b7 b7 12 3f 72 1f 22 3f
       0.54453707 -0.21639328 0.57311577 0.6332923
0001d0 1e ad 22 3e b7 d7 de 3e b9 76 bc bd 71 23 e9 be
       0.15886351 0.43523952 -0.09202332 -0.45534852
0001e0 a0 8e 14 bf 94 4b 86 3e e6 08 24 3f a6 d2 93 be
       -0.5803013 0.26229537 0.6407608 -0.2887165
0001f0 fc d7 ce be 47 da dc 3e 58 40 07 bf 6a c8 12 3f
       -0.40399158 0.43135282 -0.52832556 0.5733706
000200 10 fa ef 3c cc fb 9b 3e 9d 77 11 bf cd 04 33 3f
       0.029294044 0.30465543 -0.5682314 0.699292
000210 3a 00 c0 3e 17 87 46 be ac cb ab be 92 76 26 bf
       0.37500173 -0.1938747 -0.33553827 -0.65024674
000220 cc 67 2e 3f b8 a5 8b 3e da 41 6c 3e 8f 91 0e bf
       0.6812713 0.2727487 0.23071995 -0.55690855
000230 60 f1 41 be 9e af 1c bf f1 f6 75 be 4b ec 0c 3e
       -0.18939734 -0.6120547 -0.24019982 0.13762014
000240 4e 60 8a 3e 41 7b b1 bd c7 a8 64 3e c8 db 3f be
       0.270266 -0.08666087 0.22330008 -0.18736184
000250 71 10 58 3d 27 6a 14 bf 2d 29 d3 be b7 b1 bf be
       0.052750055 -0.57974476 -0.41242352 -0.37440273
000260 1f d2 50 3e ba 17 1c 3f c6 0d da be 30 aa 13 3f
       0.20392655 0.60973704 -0.42588633 0.5768156
000270 8e f2 0e bf 11 30 ef be 26 c9 2a 3f 52 1d 2d bf
       -0.5583886 -0.4671636 0.6671318 -0.67622864
000280 c0 61 8b be 57 e2 ac 3e ea df 99 3e 25 2c 24 bf
       -0.27223015 0.33766434 0.30053645 -0.6412986
000290 c0 77 00 bf e5 da 14 3f 6f ad b0 be 04 f8 27 3f
       -0.50182724 0.58146507 -0.3450732 0.65612817
0002a0 0a 54 a2 3e 06 b0 23 bf 0d 6c 22 bd c0 4e 96 3e
       0.31704742 -0.63940465 -0.039653827 0.29356956
0002b0 5d 58 08 3f 84 db e8 3e 73 55 f4 be 47 30 97 3e
       0.5325983 0.45479977 -0.47721443 0.2952902
0002c0 e5 59 81 be 6f 3f 13 3d 04 1e 36 3f 78 07 92 3e
       -0.25263897 0.035949167 0.7113955 0.28521323
0002d0 62 f5 f9 be 24 70 c4 3d df 23 00 bf aa 2f f6 3e
       -0.48820025 0.095917016 -0.50054735 0.4808324
0002e0 58 4e 55 be 7d 56 9b be 85 f1 0f 3e f8 8b 6d 3e
       -0.20830667 -0.30339423 0.14056976 0.23197925
0002f0 f0 d8 b7 3c 72 74 b5 3d 5a 66 07 3f a3 75 de be
       0.022442311 0.08860101 0.5289055 -0.43449125
000300 18 d8 df 3d b8 73 ab 3e 0e d9 9c bd 3d 4d ea 3e
       0.109298885 0.33486724 -0.076585874 0.45762053
000310 ec 13 5d 3e 31 3d 29 be 2b 4b 34 be 75 60 11 3f
       0.21589631 -0.16527249 -0.176068 0.56787807
000320 ee 34 2e 3f 6b e3 f7 be dd 42 33 bf b3 74 45 be
       0.68049514 -0.48415694 -0.700239 -0.19282798
000330 90 b0 cb be 94 5c c2 be 89 f0 87 3e f9 fd 1f 3f
       -0.39783144 -0.37961257 0.265507 0.62496907
000340 27 f7 ff 3e 54 f5 c5 3d a5 c8 26 bf bb 46 43 3e
       0.4999325 0.09665933 -0.6514991 0.1906995
000350 e0 48 09 be e8 8b 29 3e 93 3b 08 3f 07 1f 2c 3f
       -0.13406706 0.16557276 0.53215903 0.67234844
000360 70 6a 18 3f 8f 89 ce 3d 05 60 34 3f fd c0 01 3f
       0.5953741 0.10084831 0.70459014 0.506851
000370 aa 96 32 be 3a 4d 99 bd 33 0a 1c 3f e2 d9 29 3c
       -0.17440286 -0.07485433 0.6095306 0.010366889
000380 80 a6 e8 bc ca 07 39 3e 22 8c 22 3e 03 e1 d8 bd
       -0.028399706 0.18069378 0.15873769 -0.105897926
000390 60 cf 91 3e 38 59 20 3f ae f8 0b 3f 18 b4 0f bf
       0.28478527 0.62636137 0.5467633 -0.56134176
0003a0 95 95 95 3e a2 79 ec 3e 23 e0 22 bf 38 c8 2d bf
       0.29215685 0.46186548 -0.63623255 -0.67883635
0003b0 77 70 f0 be cd cc 54 be 80 85 35 3f 34 0a 2b 3f
       -0.46960804 -0.2078125 0.7090683 0.66812444
0003c0 28 e8 89 3e 9b 81 19 3f 4e ef cc be 67 e3 0b be
       0.26934934 0.5996339 -0.40026325 -0.13660966
0003d0 47 df 19 bf 61 6e bd be 37 81 f2 bd 1e f9 1f 3f
       -0.6010632 -0.36998275 -0.11841052 0.624895
0003e0 0a 1e a6 be 04 bb 1f bf d4 a3 e3 3e 51 44 ec 3b
       -0.32444793 -0.6239474 0.44460928 0.0072102924
0003f0 c7 a9 91 be 0b 83 d5 be e2 14 74 be 1b 95 9c bd
       -0.28449842 -0.4170154 -0.23836091 -0.07645627

msg_fc1.1.bias f4 [128]
000000 2b a7 1f bf 57 ba 1e 3f e9 8f cd 3e a3 44 7c bd
       -0.62364453 0.6200308 0.40148857 -0.061588895
000010 88 a3 ae 3d d3 20 0e 3f 03 10 d2 3d 02 a0 2f bf
       0.08527285 0.55518836 0.1025696 -0.6860353
000020 7e 15 fc be 5a fc 29 bf 1c 25 72 be bf 38 2e 3f
       -0.49235147 -0.6640068 -0.23646969 0.6805534
000030 7e 10 bc be 88 66 6f be c4 73 01 3e d2 5f 08 bf
       -0.36731333 -0.23378956 0.12641817 -0.5327121
000040 30 8f 5d 3e 87 f3 76 be 55 26 e6 bd cc 06 9d bd
       0.21636653 -0.24116336 -0.1123778 -0.07667312
000050 c4 81 1f 3f cc 9f 12 bf 11 88 8e 3e 60 84 a8 bd
       0.6230738 -0.5727508 0.27838185 -0.082283735
000060 24 f0 40 3e a3 22 f7 bd 06 f9 c4 3e b0 66 1e 3e
       0.18841606 -0.12067153 0.3847124 0.1546886
000070 ed 37 a2 3e aa d7 d0 bc 9f ef cc be cb f3 33 3f
       0.31683293 -0.025493462 -0.40026566 0.70293874
000080 59 d6 97 3e 1f f8 55 3d f3 06 05 3f ee 87 07 bf
       0.29655722 0.05223858 0.5196373 -0.5294179
000090 d2 7e 79 bd d6 46 f1 bd ca c7 8b 3e 41 99 25 3f
       -0.06091196 -0.11781089 0.27300864 0.6468697
0000a0 05 91 c9 3e 3e b0 3e 3e 71 6b 08 bf d0 90 b7 3d
       0.39368454 0.18621919 -0.5328894 0.08963168
0000b0 b6 37 56 bd 79 b7 10 bf cb 96 11 3f 10 f7 ab bd
       -0.052299224 -0.5652996 0.56870717 -0.08396733
0000c0 0b ab 34 3f 82 f4 73 be f5 62 02 3f 48 0a e9 3d
       0.7057349 -0.23823741 0.50932246 0.11378914
0000d0 4a 95 eb 3e bb eb 82 bd fc a3 a3 be 96 46 78 be
       0.46012336 -0.06392618 -0.31961048 -0.24245676
0000e0 d3 8a 19 bc ac 5a a5 bd c3 69 88 3e 76 c6 2b 3f
       -0.009371477 -0.08073935 0.2664319 0.670997
0000f0 d5 bd 31 bf 0a 67 42 3c 17 2a 2a bf 68 e5 a4 3d
       -0.69430286 0.011865387 -0.66470474 0.08051568
000100 2f d3 4b 3e e3 b4 87 bd 09 38 5f 3e 06 80 b5 3e
       0.19904779 -0.06626298 0.2179872 0.35449237
000110 e6 b5 ad bd cf fd 69 3d c9 ec 1a bf 5a 82 2d be
       -0.0848196 0.057126816 -0.60517555 -0.16944256
000120 7a 68 83 3e 2b 79 80 3e 1d 3a e8 be 8a 99 01 be
       0.25665647 0.25092444 -0.45356837 -0.12656227
000130 1a c4 35 3c 7e c5 48 be b1 bd b2 3e ca aa 1d 3f
       0.011094118 -0.19606587 0.34910348 0.6158873
000140 9d fe 1c 3f 24 db 38 be 9c 3d 19 3e 27 39 2c bf
       0.6132601 -0.18052346 0.14964908 -0.6727471
000150 d4 a6 d8 3e 92 dd cf bd ee d6 f5 be 04 23 2c bd
       0.4231478 -0.10149683 -0.4801554 -0.04202558
000160 68 db 95 bd b7 a7 9f 3e 04 8d 8f be 88 92 35 3e
       -0.07317239 0.31182644 -0.28037274 0.17731678
000170 e7 53 a8 be dc 46 91 be 0d a7 bf 3e b6 de f3 3d
       -0.32876512 -0.28374374 0.37432137 0.11907713
000180 26 20 76 be 50 28 1f be 6b df 29 bf f0 3c 7a be
       -0.24035701 -0.15542722 -0.66356534 -0.24437308
000190 5b da 2d bf 0b 81 11 be a0 a3 43 be 74 5b b9 bc
       -0.6791131 -0.14209382 -0.19105387 -0.022626616
0001a0 74 45 0c 3e 26 d4 b0 be 5a 2b 5d be b9 a3 81 3e
       0.1369837 -0.34536856 -0.21598569 0.25320223
0001b0 65 b9 df bc c9 7e ee 3e 36 50 aa be 6c 91 6c bd
       -0.027310083 0.46581104 -0.3326432 -0.057755873
0001c0 de cc f9 3c 46 c5 d7 be 14 00 85 be 6b 31 07 3f
       0.030493196 -0.42142695 -0.25976622 0.5280978
0001d0 c9 af 0f 3f 04 bf 6f be 79 f9 1f 3f be 5c c0 be
       0.561276 -0.2341271 0.6249004 -0.37570757
0001e0 79 f6 80 3e 76 1f 2b 3f 62 7c 13 3f e9 3a 04 be
       0.25188044 0.6684488 0.5761167 -0.12913097
0001f0 ea 4a ed 3e 58 4b e7 3e 6a 86 73 be fa f4 09 3c
       0.46346217 0.4517467 -0.23781744 0.008420223

msg_fc2.0.weight f4 [128, 128]
000000 4c 07 75 3d 81 28 db bb d4 17 e2 bc db 78 6a 3d
       0.059821412 -0.006688178 -0.027599253 0.057244163
000010 6e 29 31 3d 2e 1d 4c 3d 13 57 b3 3d b4 91 79 3d
       0.0432524 0.049832515 0.087568425 0.06092997
000020 a9 cb 58 bc cd c7 44 bd 0d ca 73 bd 59 6d 9f bd
       -0.01323215 -0.048042107 -0.059518863 -0.07784528
000030 00 85 6c 3d 55 2c d1 bc d5 c6 85 3d b7 b2 a5 bc
       0.057744026 -0.025533834 0.06532065 -0.02022682
000040 de 5d a0 bd ba 96 1d bd b9 4b 7d bc 96 ee ab bd
       -0.07830404 -0.038473822 -0.015459948 -0.08395116
000050 fc 07 81 3c 90 78 11 bd 7d 3c 99 bd 94 a9 38 3c
       0.015750878 -0.035515368 -0.0748224 0.011270899
000060 ef 2e 48 bd 62 29 62 bd c2 ff 81 bc 8f 11 b0 bd
       -0.048872884 -0.055215247 -0.015869025 -0.08597099
000070 38 3b 6c 3d 90 e3 93 bd d8 7c ac bd 25 b0 1a 3c
       0.057673663 -0.072211385 -0.084222496 0.00944141
000080 53 52 a9 3d c8 69 32 bd 1c 24 ab 3d 8e 9b bf bb
       0.08267655 -0.043557912 0.08356497 -0.005847401
000090 f9 c8 8f bb 8d ed 40 3c 09 c7 05 3c 1c cd b3 3d
       -0.0043879715 0.0117753865 0.008165129 0.08779356
0000a0 bf 97 27 bd f1 0b a2 bc 1e f0 af bc 35 94 81 bd
       -0.0409162 -0.019781085 -0.021476801 -0.063270964
0000b0 d2 9b 50 3d 86 85 56 bd 2a 61 ae bd e7 ca 64 bd
       0.05092985 -0.05237343 -0.08514626 -0.055857565
0000c0 80 8d 92 bd 86 a4 d0 bc 0c 74 97 bd 2d 14 ae 3d
       -0.07155895 -0.025469076 -0.07395181 0.08499942
0000d0 53 00 54 3d 4a 34 e6 bc 59 6e 3a bb 4e 4b a9 bc
       0.05175812 -0.028101105 -0.002844712 -0.02066579
0000e0 72 83 26 3d 8e 7a c5 3c d7 64 93 bd da c1 9d 3c
       0.0406527 0.02410629 -0.07196968 0.019257475
0000f0 09 72 84 bb 56 65 5b bd 69 1a 0a 3d 8a 35 b1 3d
       -0.0040419144 -0.05356344 0.033716593 0.0865279
000100 aa 02 96 3d cf d6 b4 3b d6 1f b2 bd 4f 46 98 bd
       0.07324727 0.0055187712 -0.086974785 -0.07435285
000110 19 d4 7f bc 1f ad 98 3d d8 ab a9 bc 20 0b b7 bc
       -0.015614533 0.07454895 -0.020711824 -0.022344172
000120 56 51 b1 bd 11 5c 48 bd c6 63 f3 bc 5e 8b b9 bb
       -0.08658092 -0.048915926 -0.029710662 -0.005662366
000130 da ea 32 bd bd 16 ca 3c 72 43 3a bd 61 0c 60 bd
       -0.043681003 0.024669046 -0.045474477 -0.054699305
000140 4c 60 85 bd 88 89 87 bc 20 11 5b 3d e1 ce 23 bc
       -0.06512508 -0.016545072 0.05348313 -0.009998054
000150 97 fa 66 bd 38 05 9b 3d 1f 40 34 3d 09 3b 63 3d
       -0.056391325 0.07569355 0.044006463 0.055476222
000160 f0 bf b1 bd ae 02 75 3d e9 0b 07 3c 02 fc 2a 3d
       -0.08679187 0.05981701 0.008242586 0.04174424
000170 a0 f0 a4 bd 5b 9a 03 bd c1 f2 90 bc 07 7d 50 3d
       -0.08053708 -0.032129627 -0.01769388 0.050900485
000180 10 e8 37 bd 92 32 28 bd 78 09 90 bd c6 47 b0 bd
       -0.044899046 -0.041063853 -0.07033056 -0.0860744
000190 79 15 b6 3c 69 5e 7a 3d 60 ff ad bc 1b bd 03 3c
       0.022227036 0.061125193 -0.021239936 0.008040692
0001a0 6f 59 25 bd 25 8a 8c bc db b7 6e bd 3a 2a c6 bb
       -0.040368494 -0.017155716 -0.058280807 -0.0060475143
0001b0 2f 7a d5 bc 21 84 89 bc 70 42 54 bd f3 a6 64 bd
       -0.026059238 -0.016786637 -0.051821172 -0.055823278
0001c0 5d f9 79 bd be f4 ab 3d e3 fd 00 39 ae a2 bd 3c
       -0.061028827 0.0839629 0.00012301611 0.02314886
0001d0 36 7f ab 3d 37 e9 13 bc 07 3c 3f bd 7c 1c 2e 3d
       0.08373873 -0.009027771 -0.046688106 0.042507634
0001e0 a0 a5 2d bd 82 73 e2 bc 48 f7 08 3d d2 c0 fc 3c
       -0.04239428 -0.027642969 0.03343895 0.030853663
0001f0 36 7e 96 bd 4f bf ae 3d 86 c4 b4 3d 42 be 3f bd
       -0.073482916 0.08532583 0.08826546 -0.046812303
000200 cb a8 1f bd 9f 26 ba 3c ed 04 b3 3d ff 6a ce bc
       -0.038979333 0.022723494 0.08741174 -0.025197504
000210 d2 1a cf 3c 87 0f 8a bd 13 dd d8 3c d9 14 ee 3c
       0.025281344 -0.06741243 0.026472604 0.029062675
000220 3f 71 ec bc 5c 72 a3 bc 15 b8 19 bd 19 8f 99 3d
       -0.028862594 -0.019951992 -0.03752907 0.07497997
000230 8a 15 49 3d aa ee 8c bc 0c 87 3d 3d 30 43 4e 3d
       0.049092807 -0.017203648 0.04627137 0.050357044
000240 66 20 b0 3c a2 d4 99 bc b7 18 1c bd 5e 58 aa bd
       0.021499824 -0.018778149 -0.038109507 -0.08317636
000250 b7 79 c5 bc 01 8b 13 bd 00 9e 23 bc 9a e0 4f bd
       -0.02410589 -0.036021236 -0.009986401 -0.050751306
000260 9b db 30 3d 2b f3 a5 3d 18 05 a2 bd f2 fb a4 3d
       0.043178182 0.08103021 -0.07911128 0.08055867
000270 bc 24 dd bc c2 ee 07 bd c8 fa 72 bd af 85 18 bd
       -0.026995055 -0.03318668 -0.059321195 -0.037236866
000280 25 ee 9b bc 9b 16 9c 3d 97 56 5a bd 81 a2 6b 3d
       -0.019034455 0.07621499 -0.053305235 0.057528023
000290 7b 02 45 bd d2 e0 21 bd 6a 5b e8 3b 95 0f 2e bd
       -0.04809807 -0.039521046 0.0070909755 -0.04249533
0002a0 c7 d5 9b bd e3 a3 d8 3c 8e d8 82 3c f4 eb 82 3d
       -0.07609134 0.026445335 0.015972402 0.06392661
0002b0 d5 12 a8 bd 44 cc 52 3c 4b c6 4b bd 05 84 17 bd
       -0.08206717 0.0128660835 -0.049749654 -0.036991138
0002c0 22 49 ab bd f4 1d a0 bd 66 f9 35 bd 70 b2 8a bd
       -0.08363558 -0.07818213 -0.044427298 -0.067723155
0002d0 e5 cd 64 39 ee 67 55 bd d8 f3 82 3c e7 35 18 3d
       0.00021820476 -0.05210107 0.015985414 0.03716078
0002e0 6a f9 e2 bc 1e 02 e8 3c 15 e4 ad bc 2e 7c 1b bd
       -0.02770682 0.028321322 -0.021226922 -0.037960224
0002f0 6c 85 90 3d cd 99 12 3d c0 82 6b ba 64 c6 93 bd
       0.07056698 0.035791207 -0.0008984022 -0.072155744
000300 69 9d 91 3d b3 d9 ec ba 1b 02 5c bd d9 d0 07 3d
       0.07110102 -0.001807025 -0.053712945 0.033158157
000310 9f b2 61 bd 6a 3d 8f bd 33 2f f0 bc b4 98 8d bc
       -0.055101987 -0.06994136 -0.029319381 -0.017284729
000320 30 38 10 3d 01 28 14 3d 10 51 9e bd bf ee 03 bd
       0.035209835 0.036170963 -0.07730305 -0.032210108
000330 86 c7 ff 3c fe 22 8d bc 75 91 54 bd 2c 70 ff bb
       0.03122307 -0.0172286 -0.05189653 -0.0077953544
000340 6f 1e 3c bc 49 68 18 bd 74 48 c6 3b 58 81 b7 3a
       -0.011481865 -0.03720883 0.0060511176 0.001400034
000350 5f b3 2d 3d a0 71 e3 bc 92 9c 0d bc 15 78 27 3d
       0.04240739 -0.027764142 -0.008643286 0.040886004
000360 c1 ef 67 3c 03 73 91 bd 0a b9 e8 bc 2c a5 64 bd
       0.014156283 -0.07102015 -0.028408546 -0.055821583
000370 f5 6d c1 3c 37 d1 78 bd aa a7 5a bd 1a 2c 16 3d
       0.023612002 -0.060746398 -0.053382553 0.036663152
000380 64 b3 bc bc fa d4 1f 3d 21 2f 7f bd ab d9 33 3d
       -0.023034759 0.03902147 -0.062300805 0.043908756
000390 8c c8 25 bd 18 a5 16 3d 9d 86 96 3d 32 06 ad bd
       -0.04047446 0.03677854 0.07349894 -0.08448447
0003a0 b6 21 41 3d 41 77 7d bd e1 b8 88 3c 83 21 90 bd
       0.04715129 -0.061881308 0.01668972 -0.07037642
0003b0 b2 25 2f 3d b4 f7 94 bd fc 53 85 3d 4e ce 51 3d
       0.04276056 -0.07273808 0.065101594 0.051222138
0003c0 92 d3 92 bd 8f 6a bc 3c 54 f4 5b 38 e6 34 6c 3c
       -0.0716926 0.02300003 5.2441217e-05 0.014416909
0003d0 93 d3 36 bb 51 47 22 bc 47 85 59 bc bf eb 97 bd
       -0.0027897104 -0.0099046985 -0.013276405 -0.07418012
0003e0 23 f2 83 bd 66 df 05 3d b3 e6 3e bd f7 73 ce 3c
       -0.06442668 0.032683752 -0.04660673 0.02520178
0003f0 1b 6c 0e bc 89 1f 2e bd f1 e2 2c bd 91 fc b1 bd
       -0.008692767 -0.042510543 -0.042208616 -0.08690751

msg_fc2.0.bias f4 [128]
000000 19 a7 4e bd cf ad d4 3a c0 35 90 bc 98 f8 cb 3c
       -0.050452325 0.0016226115 -0.017603755 0.024898812
000010 ba 86 44 3d 85 0e 0c bc 78 ed 26 bb 6c b0 22 3b
       0.047980048 -0.008548384 -0.0025471132 0.0024824394
000020 c2 82 98 3c cf d6 b4 3d ce 72 42 bd c9 18 9b 3d
       0.018617038 0.08830034 -0.047472768 0.07573087
000030 18 eb 83 bd 12 f7 57 3d a7 4d bb 3c 1f 45 ad 3d
       -0.06441325 0.05272586 0.022864176 0.084604494
000040 29 e6 b3 bd d6 23 0b ba 44 e2 2a 3d 78 8c 47 bd
       -0.08784134 -0.0005307769 0.04171969 -0.048717946
000050 57 35 32 bd 68 c2 7d bd 35 51 02 3d a7 dc 9d 3d
       -0.0435079 -0.06195298 0.031815726 0.07708102
000060 ef 71 80 3d 50 89 9a bd 1a dc ea 3c 48 e3 b1 3c
       0.06271731 -0.075457215 0.028669406 0.021714821
000070 2b de b4 3d cc 31 3d bd b1 80 88 bc 3f 83 0f 3d
       0.08831438 -0.046190068 -0.016662927 0.035037275
000080 4b 72 c1 3c c6 56 ad 3c 76 ca b9 bc c3 39 94 3b
       0.02361407 0.02115954 -0.022679549 0.0045234873
000090 69 c8 5f 3d cc 3d dc bc f5 f1 93 3c 9a fc 84 bd
       0.054634485 -0.026884936 0.01805971 -0.064934924
0000a0 27 4d 11 bd fb f6 a1 3d 9c 6a 75 bd 7d ed 66 bd
       -0.03547397 0.07908436 -0.059916124 -0.05637883
0000b0 e6 6b a7 bd a2 33 3a 3d e2 88 01 bd a9 eb d1 bc
       -0.08174877 0.045459397 -0.031624682 -0.025625067
0000c0 e4 b7 8b bd 3d 49 ca 3c 87 d3 83 3d 6b 29 ab 3d
       -0.06822184 0.024693126 0.0643683 0.08357509
0000d0 95 03 df 3c 3c 7b 1c 3b a7 9f 9b bd 28 ad 90 3d
       0.027223388 0.0023877164 -0.07598811 0.07064277
0000e0 ac b8 1a bd 8a 5c 78 bd 26 a6 b8 bd ee 26 9e bd
       -0.037773773 -0.060635127 -0.09016065 -0.07722269
0000f0 1e 35 94 3d 93 e7 8f 3b fe 2a 26 3d 15 f6 31 bd
       0.07236694 0.0043916195 0.040568344 -0.043447573
000100 d0 69 eb ba ed 31 1d bd be 23 71 3d 8f ad ad bd
       -0.0017960612 -0.03837769 0.058871977 -0.08480369
000110 1d 85 16 3d 77 cf 57 bd b9 a0 65 bb b2 d7 9d bc
       0.03674804 -0.05268809 -0.0035038425 -0.01926789
000120 40 81 61 bd 75 02 06 3d 6f a0 92 bd 25 0a a0 3d
       -0.055054903 0.032717187 -0.071595065 0.07814435
000130 41 ba 17 bd 1e ac 97 bd 78 b2 9c bd 12 92 f7 3c
       -0.03704286 -0.074058756 -0.07651228 0.030221019
000140 a7 c4 ef bc d9 c3 9b bd d9 e2 64 3d 4b bd 84 3d
       -0.029268576 -0.07605714 0.0558804 0.06481417
000150 f2 97 c7 3c 2f 8b 94 bc 70 2d 8f bd 4d f7 ab 3d
       0.024364445 -0.018132774 -0.069910884 0.08396778
000160 3f af 92 bd 5f 58 a8 ba 38 a2 58 3d a1 79 8c 3d
       -0.07162332 -0.001284372 0.05288908 0.068591364
000170 ca fb 41 3d 8f 77 91 3d d6 f5 12 3d 77 c7 49 3d
       0.047359265 0.07102882 0.03587898 0.04926249
000180 8f 24 f2 bc b4 71 92 3d d0 5e d3 3c f7 7c 8c 3d
       -0.029558448 0.071505934 0.025802046 0.06859773
000190 1b b4 ab 3d 44 37 83 bd 0e 5f 3b bc a3 51 4f bd
       0.08383962 -0.064070255 -0.011436237 -0.050614964
0001a0 6e 11 99 3d 06 ed 29 bd b2 c9 10 3d 63 60 fd bb
       0.074740276 -0.04148581 0.0353486 -0.0077324375
0001b0 ea b8 b8 38 39 c5 c9 bc b7 57 41 3d 91 63 a1 bd
       8.808247e-05 -0.024630176 0.047202792 -0.07880319
0001c0 8b a5 20 3d ee 32 80 bd fc 88 bc 3c e4 b6 00 bd
       0.039220374 -0.06259714 0.023014538 -0.031424418
0001d0 e1 5a 25 bd 5e 7c 3a bd 76 c2 a9 bc 5f 50 b1 bd
       -0.040369872 -0.045528762 -0.020722609 -0.08657908
0001e0 b6 bf 34 3d 76 c1 81 3d 76 92 18 3d 7e 5c 92 3c
       0.044128142 0.06335728 0.03724905 0.01786637
0001f0 69 17 90 3c 83 c6 0b bd cb 15 8f bd 4f f9 81 bd
       0.017589288 -0.034124862 -0.069865786 -0.0634638

msg_fc2.1.weight f4 [128, 128]
000000 f4 10 a4 3c 77 e5 16 3d d0 80 97 bd 5e 45 06 3c
       0.020027615 0.03683993 -0.07397616 0.008195249
000010 99 38 03 bc 47 2f a9 bd 07 41 b1 3d 91 41 10 bd
       -0.008009099 -0.082609706 0.08654981 -0.03521878
000020 ae 4a 4a 3d 1c 40 9e bd 55 69 35 3d fd 2d 8d bd
       0.049387626 -0.07727072 0.044289906 -0.06893537
000030 65 0f 16 bd fa b2 b1 3d fe 82 9a 3d ba 45 a3 bc
       -0.036635775 0.08676715 0.07544516 -0.01993071
000040 4e 20 8f 3d 40 f8 70 bd fa 01 f8 3c 92 2b 63 b8
       0.069885835 -0.0588305 0.03027438 -5.4161595e-05
000050 c9 bf 33 3d c0 52 b0 bc 6f 63 68 bd e3 5e 8a 3c
       0.043884072 -0.021523833 -0.056735452 0.016890949
000060 c1 c5 d0 bc c1 9b 33 3c 9c 39 a5 bc 72 46 f1 3c
       -0.025484921 0.010962428 -0.020169072 0.029452536
000070 5f 0d d9 3b b5 48 b7 3d 80 c6 50 bd 20 ec a6 3c
       0.0066239084 0.08949415 -0.050970554 0.020376265
000080 df 86 b5 3d 2d cc c1 bb ee 11 a0 bd f3 c0 bc bc
       0.08863615 -0.005914232 -0.0781592 -0.023041224
000090 6d 45 91 bd e3 7c 86 3d ed ba 76 3d 5d cc 23 3d
       -0.0709332 0.06566789 0.06023686 0.039989818
0000a0 ff a7 2a bd d0 74 24 bd e4 cc 61 3c 6c dc 16 3d
       -0.04166412 -0.040150464 0.01378176 0.036831304
0000b0 0f 66 11 bd f2 08 e6 bc 03 ac 93 3d be 1c 7f 3c
       -0.03549772 -0.028080437 0.07210543 0.0155708175
0000c0 2b 1b 02 bd 8c e5 80 3d 6f 19 b0 3d b7 71 9f bd
       -0.03176419 0.062937826 0.08598601 -0.07785361
0000d0 5e c2 ba 3d 38 b0 7b bd 09 cc 93 bd f2 e2 bf 3d
       0.09119104 -0.061447352 -0.07216651 0.09369458
0000e0 b4 40 de 3c 2b e7 8c bc 4a 1f 30 bd 50 f6 8d bb
       0.027130462 -0.017200073 -0.04299859 -0.0043323413
0000f0 46 ab fe bb d8 90 48 bd 64 b5 04 3c 46 0a 4c 3d
       -0.007771882 -0.04896626 0.0080998875 0.049814485
000100 b2 be db bc d3 8c 93 bc 74 6e a1 3c da 02 09 bd
       -0.026824329 -0.018011486 0.019705988 -0.033449985
000110 f6 07 71 bd b5 51 3c bd 5c 32 85 3d d1 4c 13 bd
       -0.058845483 -0.04597636 0.06503746 -0.03596193
000120 f5 e6 a5 bd 6f 9b 32 3c ed de 5a 3d 3d 04 11 3d
       -0.08100692 0.010901316 0.053435255 0.035404433
000130 a9 4b 34 bd 30 7c 8d 3d 27 c0 2a 3d 0c d7 a5 3b
       -0.044017468 0.069084525 0.041687157 0.005061036
000140 f9 75 a7 3d 0e 08 f1 bc 55 ab 0c bc 1f 33 65 bd
       0.081767984 -0.029422786 -0.008585771 -0.055956956
000150 ed 49 5a 3d e8 fc 83 3d 05 a4 1b 3d 62 a5 24 bc
       0.053293157 0.064447224 0.037998218 -0.010049196
000160 6c 3c b6 3c 0a d4 01 bd 39 63 00 bd bd db 20 3d
       0.022245608 -0.031696357 -0.031344626 0.03927206
000170 45 29 39 3b 45 13 62 3d 49 a1 77 bb c4 7a 46 bc
       0.0028253358 0.055194158 -0.0037785342 -0.012114231
000180 89 9b 18 3d 28 8b af 3d 69 88 34 bc 21 19 98 bd
       0.037257705 0.08571464 -0.011018851 -0.07426668
000190 7e 14 2a bd 1b 5e 56 3d 0b ea 5e bd 97 9d 09 3d
       -0.04152345 0.05233584 -0.05442242 0.033597555
0001a0 7c 46 f5 3a ac c3 45 bc 08 d1 84 bb e8 67 ed bc
       0.0018713023 -0.012070578 -0.004053239 -0.02898021
0001b0 a6 58 29 bd bb 8f f4 bb b1 cc a1 bd 37 9e 8d 3c
       -0.041344307 -0.007463423 -0.0790037 0.017287357
0001c0 4b c3 20 3d 97 6d 85 3d 1a ec 39 3d 0d db 2b 3d
       0.039248746 0.06515043 0.04539118 0.04195695
0001d0 b4 37 6e bb d4 b2 53 bd 62 c8 1c 3d 3f 41 f5 3c
       -0.003634912 -0.051684216 0.038277037 0.029938338
0001e0 07 1b a9 3d ef 88 0b 3d 11 23 dd bc 72 f3 9b 3c
       0.08257108 0.034066137 -0.02699426 0.019036982
0001f0 5a 01 ed bc fd f2 9d 3d 27 5b 65 3d d3 a6 1c 3d
       -0.028931309 0.07712362 0.055995133 0.038245033
000200 4e c2 98 bd 21 87 98 bd f6 39 0d bd 8f ac 66 3c
       -0.07458936 -0.07447649 -0.034479104 0.014079227
000210 22 8d 0d bd 25 3e d8 bc 7b 11 8a 3d 9f a6 00 3d
       -0.034558423 -0.02639682 0.067416154 0.031408902
000220 06 01 9b bb 77 4b 61 3c 6f 24 20 bd 75 38 9b 3c
       -0.0047303466 0.013750902 -0.039097246 0.01894782
000230 63 10 7d 3d 4c 3e 73 3d f7 d8 ae 3d 11 93 af 3d
       0.061783206 0.059385583 0.085374765 0.085729726
000240 65 1a b6 3d d3 35 85 3d bb 4a f9 bc 4e 18 23 3d
       0.08891753 0.06504407 -0.030431142 0.0398181
000250 4b 44 5d bd 7c e3 0a 3d 76 f9 a4 3d eb d3 85 3d
       -0.054020207 0.033908352 0.080553934 0.06534561
000260 ed c2 21 bd 6b 35 ab 3c 37 33 6b bd 62 10 1c 3d
       -0.039492536 0.020899495 -0.05742189 0.03810156
000270 44 e8 ab 3d 29 50 5a bd cb c3 8e 3c af 9f ba bd
       0.083939105 -0.053299103 0.017427346 -0.091124885
000280 c9 cb 96 3d b2 56 5f 3d fc e0 86 bd e7 bc 21 bd
       0.07363088 0.05452604 -0.06585881 -0.039486792
000290 93 91 19 bd d6 ff 8a 3d fc 2b b2 3c b8 ed 2e bc
       -0.037492346 0.06787078 0.021749489 -0.010676794
0002a0 03 56 09 bd 25 07 88 3b 20 9c 9f 3c 43 3e e7 bc
       -0.033529293 0.0041512423 0.019483626 -0.02822793
0002b0 83 b8 69 3d c3 cf 5a 3d 8c b3 00 3d 51 76 d2 3c
       0.05706073 0.053420793 0.03142123 0.025691183
0002c0 c1 d2 40 3c 04 c8 a9 bd 3a cb 40 bd b8 f8 cb bc
       0.011768998 -0.08290103 -0.047068812 -0.024898872
0002d0 8d 83 22 3d 63 d2 89 bd 14 ce 48 bd a4 ee ef 3c
       0.039676238 -0.06729581 -0.049024656 0.029288597
0002e0 b8 43 af 3c a4 db 8a 3d c1 e3 54 3d cd a6 9d 3d
       0.021394596 0.067801744 0.051975016 0.0769783
0002f0 a6 94 2d 3d f7 8c 0a bc db 35 ef bc 29 3c 1d 3a
       0.04237809 -0.00845646 -0.029200485 0.0005998039
000300 d9 fb b3 3d 26 93 4b bd 5d 79 0a 3d 4c a4 d9 3b
       0.087882705 -0.04970088 0.033807147 0.0066419
000310 80 3e 9e 3d f3 14 85 bd fe cf f8 bc c2 30 66 bd
       0.07726765 -0.06498136 -0.030372616 -0.056198843
000320 d0 96 83 3d c0 9e 90 3d 49 41 29 3d d5 da 8b 3d
       0.064252496 0.07061529 0.041322026 0.06828848
000330 92 b5 84 3d c2 6e 63 3d f2 01 ab 3b e1 3b d8 3c
       0.06479944 0.05552555 0.0052187378 0.02639574
000340 74 68 91 bd 50 c2 2c bb e8 77 92 3d b2 a3 af bd
       -0.07100001 -0.0026360936 0.071517766 -0.08576144
000350 db cd 0b bc 9b c2 eb 3c 59 81 78 3c b4 8a 74 3d
       -0.0085329665 0.028779319 0.015167558 0.05970259
000360 45 7c b6 3b bc a4 64 bd 91 15 05 bd 4b e2 68 bd
       0.0055690133 -0.055821165 -0.03249127 -0.056856435
000370 85 5a 61 3d 13 e9 7c 3d ff 07 09 3c 4a 41 4c bc
       0.055017967 0.061745714 0.008363723 -0.012466738
000380 c2 b2 83 3d ab 49 ec ba e6 e5 e9 bb 13 94 31 bc
       0.0643058 -0.0018027326 -0.0071380017 -0.010838526
000390 fe 57 49 bc 17 c6 ac 3c 49 ac e9 bb 47 7b b4 bc
       -0.012289045 0.02109055 -0.0071311337 -0.02203144
0003a0 65 c2 0b bd 4f b7 04 bc 8f c9 80 bd b1 9e 2b 3d
       -0.034120936 -0.008100345 -0.06288444 0.041899387
0003b0 ae 95 d3 3c 35 1c b2 3b 58 3e 86 bc e3 ce ad bd
       0.025828209 0.0054354914 -0.01638715 -0.08486726
0003c0 2f 52 8a 3c c6 62 ef bc 14 ce b9 3d 2d 3d 3b bd
       0.016884891 -0.029221904 0.090725094 -0.04571264
0003d0 85 ca e2 bc 8f 73 ac 3b b8 a0 96 bc 5a 1a 55 bc
       -0.02768446 0.005262799 -0.018387184 -0.013006771
0003e0 d0 0d 8c bd 5c be 02 bc 07 69 d1 bc 4a 0e 73 3d
       -0.06838572 -0.0079799555 -0.025562776 0.0593398
0003f0 73 01 84 3c ac cd 31 bd 25 de 08 bd f6 3f 7f 3b
       0.016113972 -0.043409035 -0.03341498 0.0038948036

msg_fc2.1.bias f4 [128]
000000 e1 25 89 bc 2a 0b 9f bd 54 7b 66 bd d8 7d 8d 3c
       -0.016741695 -0.07765801 -0.05626996 0.017271921
000010 50 3b 0e 3c e6 17 ba bd 5a d6 f2 bb 26 99 29 3c
       0.008681133 -0.090865895 -0.0074108066 0.010351455
000020 3a dc 96 bc 59 ec 31 3d 37 38 78 3d af 94 1b 3c
       -0.01841556 0.04343829 0.060600486 0.009495898
000030 b6 a9 7c 3d 0e 22 87 bd 11 fd d9 bc ce 6e 3a bc
       0.061685286 -0.06598292 -0.02660993 -0.011378957
000040 83 e7 24 3d 3d 40 7e 3c c3 7d 3a 3d 6a 74 89 3d
       0.04025985 0.015518245 0.045530092 0.06711657
000050 e1 ac 82 bc 1f cd 6a 3d dd 55 85 bc c9 b2 70 3d
       -0.015951576 0.057324525 -0.016276294 0.058764253
000060 81 d9 b6 bd 01 26 85 bd 3c ad 25 3d 08 23 55 3c
       -0.08928204 -0.06501389 0.040448412 0.01300884
000070 a2 14 75 bd 74 02 42 3d 93 af 60 3d 5c 0f 48 3c
       -0.05983413 0.04736562 0.05485494 0.012210693
000080 9c 76 97 3d 06 6b 1c 3c ac 61 6a bd 0e 7a 2d 3d
       0.0739567 0.009547001 -0.057222053 0.04235273
000090 da ab b0 bd 68 2c 05 3d 52 36 26 bc c5 51 31 bc
       -0.08626528 0.032513052 -0.010144787 -0.010822718
0000a0 b5 d0 88 3c 43 83 b6 bc a8 4c 94 bd 11 1d b2 3d
       0.016701082 -0.022279387 -0.072411835 0.0869695
0000b0 ac fb 8f bd 69 d0 50 bd 9e 80 40 3b 9d 4c 35 3c
       -0.070304245 -0.050980005 0.0029373537 0.011065629
0000c0 17 45 0f bd 20 9f 2d bd 31 41 5b 3a 03 c8 18 bc
       -0.034978 -0.04238808 0.0008363901 -0.00932503
0000d0 82 ce db bc 1f 70 1f 3c 68 70 17 bc 4e 98 54 bd
       -0.026831869 0.009731322 -0.009243108 -0.05190306
0000e0 96 67 55 bd fb de 9e 3d 44 91 aa bc 0f b6 c9 bc
       -0.05210074 0.07757374 -0.020821221 -0.024622945
0000f0 dc 44 21 bd c1 3e fc 3c 12 b3 6e 3c ca 0a 1c bd
       -0.03937231 0.030791642 0.014569061 -0.038096227
000100 fd 84 a6 3d bf c3 87 3a 37 93 85 3d b5 d3 0c bb
       0.08130834 0.001035802 0.0652222 -0.0021488492
000110 5e 02 5a bd 63 4c 10 3d 60 c4 0d bd 08 d4 ba bb
       -0.053224914 0.035229098 -0.034611106 -0.0057015456
000120 42 2b 8c 3c dc af 96 bd 3c 32 5f 3d d9 85 0a 3d
       0.01711047 -0.07357761 0.054491267 0.033819053
000130 6b e6 89 3d 02 3d a6 3d 63 b6 55 3c d7 dc a3 bc
       0.06733402 0.08117105 0.013043973 -0.020002766
000140 d2 b3 83 3d 48 6a 05 3c 63 c8 86 3d 08 c6 b9 3b
       0.064307824 0.008143015 0.065811895 0.005669359
000150 e4 58 8d bd 13 ba 15 3d a4 0f 5f 3c 50 ae 8d 3c
       -0.0690172 0.036554407 0.013614569 0.017295033
000160 5f e3 82 3d e8 e9 61 3d e2 7f 39 bc 06 ab 31 bd
       0.06391024 0.05515471 -0.011321994 -0.04337599
000170 18 b3 1c 3d a7 86 19 bd 08 b4 12 bd 0c 8f e5 3c
       0.038256735 -0.03748193 -0.035816222 0.028022312
000180 5b b4 ac 3d ef 75 a1 bd 32 b8 6e bd 4e 11 13 3d
       0.084328376 -0.07883822 -0.05828113 0.035905175
000190 d9 d5 4c 3a 21 ae 8b bd 46 05 6c 3c 81 f1 fa 3b
       0.0007813848 -0.06820322 0.014405554 0.007658184
0001a0 84 e5 a1 bc ad 02 e6 bb c8 c3 52 3d 6a af a1 3d
       -0.019762762 -0.007019362 0.051456243 0.07894786
0001b0 ec 11 1f 3d d0 fa 51 bd 65 dc 3f bd cc 6b 4f 3d
       0.03883545 -0.051264584 -0.046841044 0.050639912
0001c0 b2 b5 7b bc da 74 50 bd ac 5a 0f bd 05 37 9c bd
       -0.015363144 -0.05089269 -0.03499858 -0.07627682
0001d0 59 da 8e 3d 6b a5 1e bd 78 a9 9f 3d 59 b9 95 3d
       0.0697524 -0.038731974 0.077959955 0.07310743
0001e0 44 16 c7 bb c4 11 77 3d f9 75 54 bc 4c d6 a4 3c
       -0.0060756523 0.060319677 -0.01296758 0.020121716
0001f0 80 97 13 3d e7 8a 2d 3c 45 af 97 bd 87 97 a7 bd
       0.036033154 0.010592199 -0.07406477 -0.081831984

out_fc1.weight f4 [128, 129]
000000 39 4b 64 bc 50 6c cb bc a7 59 8f bd 42 83 6c bd
       -0.01393395 -0.02483192 -0.06999522 -0.057742365
000010 1f 45 a7 3c 98 d0 88 3d b3 6d 6f bd 52 9e 7a 3c
       0.020418702 0.06680411 -0.058454227 0.015296536
000020 7a ec b2 3b 0a 72 f1 3c 85 7e 19 3a 36 64 14 3d
       0.005460319 0.029473323 0.00058553397 0.03622838
000030 0a bd 68 3d 65 c5 8c 3d df cf 26 3d 05 b8 97 bd
       0.056820907 0.068735875 0.040725585 -0.07408146
000040 f4 9e d9 3b a5 7d 75 bc d8 df ac 3d bf 1b a8 bd
       0.006641263 -0.014983569 0.08441132 -0.08208417
000050 92 21 aa bd 74 2e 13 3d d2 93 a9 3d 91 f2 82 3d
       -0.08307184 0.035932973 0.082801476 0.06393922
000060 44 7f 52 3d 00 6c a0 3d 4b 39 06 bd b0 33 42 bd
       0.0513909 0.07833099 -0.032769483 -0.047412574
000070 cf 57 8a bc 7c fc a5 3d a6 20 4e bc 8e c7 89 3d
       -0.016887574 0.08104798 -0.012581026 0.06727515
000080 ea 6f 04 bd c5 e4 71 3d de c9 a2 3d b5 b7 02 bd
       -0.032333292 0.059056062 0.07948659 -0.031913478
000090 cf 0b 9f bd 3d 2d 1e bd 46 10 0b 3d 70 bf bc bd
       -0.07765924 -0.03861736 0.033951066 -0.09216201
0000a0 d2 b2 af 3d e6 24 a7 bd fc 12 69 bd a8 2c 75 bd
       0.08579029 -0.08161335 -0.05690287 -0.05985704
0000b0 fe 4c c0 3a e3 b7 87 3d 88 59 69 bc b3 8b 01 3d
       0.0014671383 0.066268705 -0.014242537 0.03162737
0000c0 04 c8 46 bd df 82 2f 3d fd a9 01 3d 6e 2e 57 bd
       -0.048530594 0.042849418 0.031656254 -0.052534513
0000d0 98 d7 9f bd 0a d3 2e 3d 11 eb 8f 3d cc 30 48 3d
       -0.07804793 0.04268173 0.07027257 0.04887466
0000e0 da cc 58 3d 5f 09 b0 3b 2e e9 32 3c ab 46 29 3c
       0.052929737 0.005372211 0.010919852 0.01033179
0000f0 e4 7f 94 bd 3e 15 91 3c d4 09 34 3d b6 12 60 bd
       -0.07250956 0.017710324 0.043954685 -0.054705344
000100 7b 88 56 3d 81 ef a2 bd 27 a1 62 3d d6 d1 a5 bd
       0.05237625 -0.07955838 0.055329468 -0.08096664
000110 fe 22 29 bd b8 4b 92 bd 99 61 69 3d 84 31 95 bd
       -0.041293137 -0.071433485 0.056977842 -0.07284835
000120 d1 88 85 3c 49 90 a9 bd f3 06 67 bc 78 47 fb 3c
       0.01630059 -0.08279473 -0.014100778 0.030673727
000130 59 a9 89 3c 72 34 36 bd ad 36 c1 bb 45 78 2a 3d
       0.016804384 -0.04448361 -0.0058964104 0.041618604
000140 1e 17 08 bc ee 9b 6a 3d 13 ea 06 3c 95 bc a5 bd
       -0.008306293 0.057277612 0.008234519 -0.0809261
000150 1b fe fe 3a 7d ff 8e 3c 82 2d 9a bd 9c 0f 90 3d
       0.0019454391 0.01745581 -0.07528211 0.07034227
000160 49 77 7f bd f1 a1 41 3c c1 dc 88 3d 4f c5 2d bd
       -0.06236962 0.011818395 0.066827305 -0.042424496
000170 4e 63 74 3d 76 57 00 bd 53 6b 3e 3d bc e4 16 bd
       0.059665017 -0.03133341 0.04648907 -0.03683923
000180 eb 2a 9e bc 18 c1 f2 bc fd 47 1a 3d 29 b4 40 3d
       -0.019307574 -0.02963309 0.03766631 0.047046814
000190 f1 73 1a 3d 9c 4c 90 bd 8f 05 8b bc 23 4f 1a 3c
       0.037708227 -0.07045862 -0.016970424 0.009418282
0001a0 b4 ec 85 3d b2 bf 55 3d 72 c3 e0 3b cc 40 b5 3d
       0.06539288 0.052184768 0.0068592364 0.0885025
0001b0 9b 7a 9c bc a9 0c 6d bc 9f 36 99 3c 9c 28 e0 3c
       -0.019101432 -0.01446835 0.018702803 0.027363114
0001c0 0f 22 54 bc 51 60 bc 3c 58 62 12 bd 07 7f d5 3c
       -0.012947573 0.022995146 -0.03573832 0.026061548
0001d0 4a 9f 5f 3c d4 66 96 bd 98 5f d9 bc c7 3c 26 3c
       0.013648817 -0.07343832 -0.02653484 0.010146326
0001e0 d4 bc 25 3b bd 8f af 3d 05 c1 a4 bd c8 93 9b 3d
       0.0025289552 0.08572338 -0.08044628 0.075965464
0001f0 7b d4 86 bd 1a 71 40 bd 94 9d 82 3d 2c 47 0a bd
       -0.06583496 -0.046982862 0.06377712 -0.03375928
000200 8a e8 c1 bb a3 5c af bc c5 4e 39 bd 1f 23 86 3d
       -0.0059176134 -0.021406477 -0.045241136 0.065496676
000210 5c ac c7 bc 03 d4 1f 3d 5d 8a f2 3c b9 83 dc ba
       -0.02437418 0.03902055 0.029606992 -0.0016823924
000220 bb f2 a5 bd 97 3e 97 bd d7 9f b7 bd b7 d0 74 bc
       -0.08102938 -0.07384985 -0.08966034 -0.01494234
000230 f8 6a ce bc 58 3c a4 3d 33 b7 9d 3c a4 21 2a 3d
       -0.025197491 0.08019322 0.019252395 0.04153599
000240 71 4e 22 3d 84 27 98 bc ce 4e ed bc be c2 8c 3d
       0.03962559 -0.01857353 -0.028968241 0.068730816
000250 4d 0f a5 bd d6 b1 d6 bc 7e f3 3a bd 6a 5c 40 3d
       -0.08059559 -0.026207846 -0.04564237 0.046963133
000260 90 d6 b3 bd c8 b4 1a bd eb ee aa 3d b6 d7 b1 bc
       -0.08781159 -0.037770063 0.08346351 -0.021709304
000270 bf f3 87 bd d3 89 0f bc f5 a0 ae 3c 1b bf 12 bc
       -0.06638288 -0.008760887 0.021316985 -0.008956696
000280 45 82 5c 3c 47 61 52 3d 0a db f2 bc e2 44 34 bd
       0.013458793 0.051362302 -0.029645462 -0.044011004
000290 38 01 64 3d b1 c7 b2 bc 06 63 29 3d 40 55 8b 3d
       0.055665225 -0.021823736 0.0413542 0.068033695
0002a0 2e e7 df 3c 2c ea 98 bd 8a ea 8a 3d 23 80 dd 3c
       0.027331915 -0.0746654 0.06783016 0.02703864
0002b0 4b bd 28 3d fd d2 95 bc 28 71 2d bb 42 12 8a 3d
       0.04119615 -0.018289084 -0.0026465151 0.06741764
0002c0 47 9e a1 bd 25 15 63 3d 79 c8 b0 bd 16 31 a8 bc
       -0.07891517 0.055440087 -0.08631987 -0.020531218
0002d0 97 8a 9b bc 73 3b a7 3d d4 fd 79 bd 30 ad 69 3d
       -0.018986983 0.08165636 -0.061033085 0.05704993
0002e0 04 1c a4 b9 e6 9a 85 bd 6f f6 41 bd 68 2a 1d 3c
       -0.0003130139 -0.06523685 -0.047354158 0.00959263
0002f0 15 39 86 3d ba ff 17 3d 52 6d 5a 3a 8f 89 ba 3c
       0.06553856 0.037109114 0.000833233 0.022770671
000300 67 cc 7a 3d 71 31 5d 3d 82 2a 3d 3d ec 15 8b bb
       0.06123009 0.05400223 0.046183117 -0.0042445567
000310 d0 20 b3 bd 2e 58 9e bd bc df 7e 3d ce 95 73 3d
       -0.08746493 -0.07731663 0.06222509 0.059469037
000320 6b 01 7e 3d b6 38 5d bd 36 a6 1c bd f9 2d 07 bc
       0.06201307 -0.054009162 -0.03824445 -0.008250707
000330 90 db 7b 3c 74 d1 82 bd 7f 3a 13 3d 5d 8f 54 bd
       0.015372172 -0.06387606 0.035944458 -0.051894534
000340 5e 96 96 3d 2c 92 35 3c f5 dd 42 3d 1d ac a5 bd
       0.07352899 0.011082213 0.047574956 -0.08089469
000350 89 7e 50 bd 54 fa 5f 3d 05 63 0b 3d 4e 83 84 3b
       -0.050901923 0.05468209 0.03402998 0.004043973
000360 7a 29 c0 bc 45 4d 67 bd 28 82 ad 3d ee ff 98 bd
       -0.023457278 -0.056470174 0.08472091 -0.0747069
000370 39 4d 71 3c a3 68 84 3d 21 6d f2 3b ad 23 29 bd
       0.014727884 0.0646527 0.007398263 -0.04129379
000380 06 e2 b2 3c eb 73 7f 3c 88 83 9b 3d 0b 15 03 3d
       0.021836292 0.015591602 0.07593447 0.03200249
000390 05 24 83 3d ef 43 f7 bc bd a4 aa 3d 49 cd 46 bd
       0.064033546 -0.03018376 0.083322026 -0.04853562
0003a0 79 ba 0d bd 5c b4 63 3c a8 0c 92 3b a9 51 a0 bd
       -0.034601662 0.0138979815 0.004457075 -0.078280754
0003b0 04 cf a4 bc 79 7c 0d 3b cf 6f 31 3d a7 64 54 3d
       -0.020118244 0.0021589084 0.04331952 0.051853802
0003c0 fd e2 a9 3d 3e bc d7 3c 13 2f 0d 3c 22 6a 7c 3d
       0.08295248 0.026334878 0.00861718 0.061624654
0003d0 f6 39 11 3d da 70 b3 bd 83 31 c6 bc 16 a0 8a bd
       0.035455666 -0.08761759 -0.02419353 -0.06768815
0003e0 4a 39 e4 3c c5 1c 88 bd 73 99 49 bd 87 2b 5a bd
       0.027859349 -0.06646112 -0.049218606 -0.053264167
0003f0 4e 74 9a 3c 4b d5 55 bd db 20 e6 bc f1 da 96 3d
       0.018854287 -0.052205365 -0.028091839 0.073659785
