NRI/logs/exp2/decoder-with-step-10.pt (torch, 272379 bytes, 13 tensors)

msg_fc1.0.weight f4 [128, 2]
000000 12 34 07 bf a5 82 3e 3e cd 19 ae bc 3d b6 c0 3e
       -0.5281383 0.18604524 -0.021252537 0.37639037
000010 ff 06 2a 3f 3f 53 a1 bd 0d aa fd 3e c7 ca c3 bc
       0.66416925 -0.07877206 0.495438 -0.023900403
000020 32 d9 68 bd 3f e8 03 bf 38 af 17 3f 31 ba 29 be
       -0.05684776 -0.51526254 0.5925174 -0.16574933
000030 0e 91 39 bf e8 6b 25 bf 0f 4a 14 bf bc 8c 44 3e
       -0.7248696 -0.64617777 -0.57925504 0.19194311
000040 5c c3 74 3e cd 46 87 3e f7 3c f7 3d 8b 80 83 3e
       0.23902649 0.26421204 0.12072175 0.25684008
000050 f8 5f fc be cf 46 97 3d a7 f2 86 3c ca 66 19 bd
       -0.49291968 0.073865525 0.016473128 -0.037451543
000060 f2 c8 30 3f cc 5a aa 3e 30 56 df bd 3f 8b 51 be
       0.6905662 0.33272398 -0.10905111 -0.20463274
000070 d6 bc 0b 3f 81 10 a8 3e fc 8f 63 be 11 99 3f 3e
       0.54585016 0.3282509 -0.22222894 0.18710734
000080 ed d2 16 bf 00 7c 6f be d6 62 b5 3e 93 45 b6 3e
       -0.589156 -0.23387146 0.35426968 0.35599956
000090 29 48 ae be 3b 25 ea 3e 2e 20 3d 3f 44 a1 a7 3d
       -0.3403943 0.4573153 0.7387723 0.08185056
0000a0 8b ca 70 3e bd 42 1c bd 9f 84 f8 be 71 8f 1c bf
       0.23514764 -0.038149584 -0.48538682 -0.61156374
0000b0 29 6f 6b 3e 8d 4f 81 be 5b c9 c5 be 25 47 60 bd
       0.22991623 -0.25256005 -0.38630185 -0.05475535
0000c0 6c e8 12 bf 41 d8 10 3f 30 96 3e 3d fb 9a b4 3d
       -0.573859 0.5657998 0.04652995 0.08818623
0000d0 db aa 68 be 8d 00 74 3e ac 3b 60 3e c4 18 fb be
       -0.22721426 0.23828335 0.21897763 -0.49042332
0000e0 b9 9b 60 be e7 60 97 3e 8d 3a b8 3d b4 6c 7a 3d
       -0.21934403 0.29566118 0.08995543 0.061138824
0000f0 7b 47 fa bd c0 be 0f 3f 4a 21 02 bd 8b 6d 22 be
       -0.12220665 0.56150436 -0.03177003 -0.158621
000100 11 4f 0a 3f df 10 eb be 36 29 83 bd f3 00 ba 3e
       0.54026896 -0.4591131 -0.06404345 0.3632885
000110 b4 ca f9 3c 48 b5 ff 3d 98 07 04 3f f1 59 26 3e
       0.030492164 0.124857485 0.5157409 0.16245247
000120 da 75 0b 3f 60 56 02 3c 93 79 e8 be 02 85 cd be
       0.544767 0.007955164 -0.45405254 -0.4014054
000130 5f 44 33 bf 79 ec 15 3f 11 4d 52 3e ab 48 81 be
       -0.700262 0.58563954 0.20537211 -0.25250754
000140 43 07 45 be 8f d3 1e bf d9 bb 64 3e e5 e7 22 3f
       -0.19241051 -0.6204156 0.22337283 0.6363509
000150 a4 b5 21 3f dc b4 a7 3e 6f 6f 14 3f f0 41 f3 be
       0.63167787 0.32755172 0.57982534 -0.47511244
000160 92 3a 38 be 46 4f 22 3f 61 a8 00 3d c7 45 6d 3d
       -0.17991093 0.6340221 0.03141058 0.057927873
000170 2a 2f 2f bf 36 fd 37 3c d3 02 0b 3d e1 54 27 bd
       -0.6843134 0.011229804 0.03393824 -0.04085243
000180 ec 30 0c bf c1 8e 21 3f 38 56 fe 3e a7 e3 70 3d
       -0.5476215 0.6310845 0.49675155 0.058810856
000190 46 ff 7a 3e f2 73 19 3f 7f 04 08 3f e9 11 b1 3e
       0.24511442 0.59942544 0.5313186 0.34583977
0001a0 0c 25 48 3e 6a 6a 61 3e e4 5d 35 be db 93 c4 3c
       0.19545382 0.2201325 -0.17711598 0.023996284
0001b0 4e f6 2d bf b8 fb 49 3e 66 7b 28 3e e1 eb 2e bd
       -0.67953956 0.1972493 0.16453323 -0.04270542
0001c0 a9 dd 29 3f c5 7e 11 bf d1 50 e4 bd d1 9e 1c 3f
       0.6635385 -0.5683406 -0.11148227 0.61179835
0001d0 81 9e dc 3e cc 5a 18 3f 36 18 76 3e e7 b2 14 bf
       0.4308968 0.59513545 0.24032673 -0.58085483
0001e0 af cb 8b be 05 2c 82 3c f9 35 a5 3e 7b 1b 36 be
       -0.27303836 0.01589013 0.3226774 -0.1778392
0001f0 74 20 90 3e b5 9d af 3e 46 7f ab be 4a 81 16 be
       0.2814976 0.34300008 -0.3349554 -0.14697757
000200 aa 2d 15 bf ca c5 c0 3e 88 88 e6 be c2 05 00 3f
       -0.582728 0.376509 -0.4502604 0.50008786
000210 73 a9 1f 3f 30 7a 0f bf e1 8f 2c bf c1 88 72 bb
       0.62367934 -0.5604582 -0.6740704 -0.0037007781
000220 99 d4 0b 3f f3 a5 38 be 7b 5a 16 bf 08 6f f5 3b
       0.54621273 -0.18032055 -0.5873181 0.0074900426
000230 d1 41 4f be 79 a0 00 3e 5a 62 a9 3e 2c 68 a9 bd
       -0.2023995 0.12561215 0.3308285 -0.08271822
000240 af 95 2e 3d 9c 15 d9 3e 76 40 e9 3b 0f 94 ad 3e
       0.04262322 0.423993 0.00711828 0.33902022
000250 a8 36 fd 3e a1 38 08 bf f1 59 0b 3f f6 a3 32 bd
       0.49455762 -0.5321141 0.54434115 -0.043613397
000260 35 5c ba 3e 1e 63 cf 3e 6f 51 30 be 97 16 04 3f
       0.36398473 0.40505308 -0.17218564 0.5159697
000270 b5 dc 70 3e cd 70 9b 3e 6c 88 22 3f c1 bd d0 3e
       0.23521693 0.30359498 0.63489413 0.4076977
000280 b3 4f d5 be 63 7c 2f be 83 ea 5f 3e 57 43 85 3d
       -0.41662368 -0.17137294 0.21866803 0.06506985
000290 95 83 2f 3f 13 c4 33 be 34 cc 27 3f b1 1a b4 be
       0.68560153 -0.17555265 0.65545964 -0.35176614
0002a0 3b e5 d0 3e dd a9 e2 3e 9e a9 20 3e 7d c4 15 3f
       0.4079989 0.4427022 0.15689704 0.5850294
0002b0 b3 ef 23 bf f5 58 b0 be ed 9b 29 bf 0e fc 9e 3e
       -0.64037627 -0.3444287 -0.6625355 0.31051677
0002c0 5d b9 f6 bc dc 27 1d bf af 7d 58 3e 71 a0 a7 be
       -0.030117685 -0.61388946 0.21141694 -0.32739595
0002d0 93 7d 00 be 75 78 2a bf 21 a6 0c bf 98 57 53 3e
       -0.12547903 -0.6659005 -0.5494099 0.20638883
0002e0 7a 65 03 3e b1 f1 28 3f 51 ca 70 be 74 df b5 3e
       0.12831679 0.6599379 -0.23514678 0.35522044
0002f0 ad fc 32 be 8c 33 9a 3e 2b f2 a9 3b ec b9 e7 be
       -0.174792 0.30117452 0.0051863394 -0.45259035
000300 22 d2 a8 3e 2b de a5 3e 68 1c 67 3e c0 7f a9 bd
       0.3297282 0.32396063 0.2256943 -0.082763195
000310 46 d2 c1 be 83 3a 34 3e d2 08 28 bf 1f f8 05 3f
       -0.37855738 0.17600445 -0.6563846 0.5233173
000320 50 50 5b bd 4f 40 2d 3e 91 84 b5 bd b5 59 d9 be
       -0.05354339 0.16919063 -0.08863176 -0.42451254
000330 b7 3b be 3e 2f d5 d2 be c8 b3 ff 3e b3 8e 12 be
       0.37154934 -0.4117827 0.4994185 -0.14312248
000340 b6 b9 2c bf 23 15 c1 be e2 16 13 bd 16 c2 10 3f
       -0.6747087 -0.3771144 -0.035910495 0.5654615
000350 c2 36 35 3e e8 f6 83 3e 7a f4 b8 be a8 e0 20 3d
       0.1769667 0.25774312 -0.3612402 0.03927675
000360 f7 36 d2 3e 44 1a 3d 3e 6a 23 21 3f 97 49 f5 be
       0.4105756 0.18467051 0.6294466 -0.47907707
000370 97 6d 87 be 47 99 1e bf 52 53 81 be 8c 22 a7 3e
       -0.26450798 -0.6195263 -0.2525888 0.32643545
000380 19 d6 08 bf b6 9d e5 be 4b 96 08 be a6 d1 9b 3e
       -0.5345169 -0.44846886 -0.13338582 0.30433387
000390 94 d1 7e be fa 06 af 3e e1 1e cc 3c 65 f4 f3 be
       -0.24884635 0.3418501 0.024917068 -0.47647396
0003a0 96 68 ea 3c dc 63 84 3b 77 ef a1 3e 29 e4 ff 3e
       0.028614324 0.0040402245 0.3162801 0.4997876
0003b0 b7 a6 22 3f 90 1d 22 bf 96 e8 12 3f b8 2c fe be
       0.63535637 -0.6332636 0.5738615 -0.49643493
0003c0 78 31 b2 bd f0 c3 2e be a8 da 56 be 8e 33 9e 3e
       -0.08700842 -0.17066932 -0.20981848 0.30898708
0003d0 21 3c 88 3d c7 6a aa be 9b c6 d3 be a2 57 0f 3e
       0.06652094 -0.3328459 -0.4136246 0.13998273
0003e0 4f c8 a8 be 68 b5 01 bf 1b f8 84 3d 1d fd c2 be
       -0.32965323 -0.5066743 0.06492635 -0.38083735
0003f0 b0 a3 2a bf e4 98 a1 3e de ea f4 3d c3 54 fe be
       -0.6665602 0.3156196 0.1195886 -0.49674043

msg_fc1.0.bias f4 [128]
000000 58 93 1d 3f f6 1c 61 3d ec b2 d4 be 13 22 72 3e
       0.61552954 0.05495926 -0.41542757 0.23645811
000010 c0 17 00 3f 78 05 c9 bd cd 27 82 3d 4c da 20 be
       0.5003624 -0.09815496 0.06355248 -0.15708274
000020 c5 31 aa 3e 57 5b 12 bf 9f d1 ef be 6b 5f 48 3e
       0.33241096 -0.57170624 -0.46839616 0.19567649
000030 f7 04 f8 be ef 50 42 bf a1 2b 13 be 80 ca 12 3f
       -0.48441288 -0.75904745 -0.14372112 0.5734024
000040 f2 70 fa 3e ed de c9 be 48 41 0b 3f 66 21 db bd
       0.48914295 -0.3942789 0.54396486 -0.106997296
000050 83 f9 31 be d1 c3 46 3e 54 fb b5 3e ea d8 ba 3d
       -0.17380337 0.19410636 0.3554331 0.09123404
000060 65 8a 4f 3e d7 d2 b0 3e c6 3c 29 3f 4a ff 92 3e
       0.20267637 0.34535858 0.6610836 0.28710395
000070 9d ea 04 bf 90 1f f3 3c c9 53 3b bf 6a 12 14 bf
       -0.5192049 0.029678136 -0.7317472 -0.578406
000080 bf 25 1d bf ae fe 38 3d 18 fe 14 3e 11 0f 08 3f
       -0.6138572 0.045164756 0.14550054 0.5314799
000090 0a 1b 1e 3f 57 11 8c be a0 db 4b bd df 06 1b 3b
       0.6176001 -0.2735698 -0.049769998 0.0023655219
0000a0 dc 1d 8d 3e cc 3d fd 3c fd 36 dc 3d 94 35 0b 3f
       0.27561843 0.030913256 0.10752676 0.5437863
0000b0 23 c0 2f bf 47 d3 2f 3f 39 5e c1 3d 52 7d 1e bf
       -0.6865255 0.6868176 0.094418 -0.61909974
0000c0 ed 82 f9 be f9 a2 9e 3e 65 8f 85 bd 5b 88 19 be
       -0.487327 0.30983713 -0.06521491 -0.14993422
0000d0 2c d6 15 3f b2 ba 97 be 4c 08 e2 be ce ac ac 3e
       0.58529925 -0.29634625 -0.44146955 0.3372559
0000e0 15 43 0a bf 0e 98 26 be ae 03 b2 3d c3 ba 22 3f
       -0.5400861 -0.16268942 0.08692108 0.63566226
0000f0 8e 53 2b bd e5 31 cb 3d a5 1c db be 58 2e b9 3e
       -0.04182773 0.09921626 -0.42795292 0.3616817
000100 81 bc 63 3e 23 25 3e 3e 27 38 a3 bd 70 f3 db 3b
       0.22239877 0.18568854 -0.079696946 0.0067123696
000110 43 f5 a9 3e b3 d9 f2 3e 11 3e ee bd 27 ff 7d 3a
       0.33194932 0.47431716 -0.11632932 0.0009689205
000120 f6 dc ac be 77 73 9c 3e 15 f7 ca be b2 7d c9 3e
       -0.3376233 0.30556843 -0.39641634 0.3935371
000130 2c a1 7e 3d 6a 82 14 3f de 20 bd 3e 05 a3 ff be
       0.062165424 0.58011496 0.36939138 -0.49929062
000140 04 c2 e6 3e 56 fb a7 3e e9 99 6e 3e 11 00 22 3f
       0.45069897 0.32808942 0.233009 0.6328135
000150 cb ca fa 3e ae 6c 9a 3e 10 38 59 3d a1 b0 0c bf
       0.48982844 0.3016104 0.05303198 -0.54957014
000160 c1 34 a6 3e 19 9e ed 3d 96 75 41 bf b9 23 62 be
       0.32462123 0.1160242 -0.75570047 -0.2208394
000170 00 75 9c be f6 5c 1c 3f 16 57 f3 be cf f0 5a be
       -0.30558014 0.6107935 -0.4752738 -0.21380924
000180 37 4d 1c bf 7f f6 45 be ce ce fd bc 94 c2 3e bd
       -0.6105532 -0.19332312 -0.030982401 -0.046572283
000190 e6 28 f8 3e 65 c3 f7 bd bd cf 63 3e 75 d0 da 3e
       0.48468703 -0.120978154 0.22247215 0.42737165
0001a0 75 e1 f2 3e ec a1 0b 3f 85 0f 9d 3d e5 c4 22 bf
       0.47437635 0.5454395 0.07668976 -0.6358169
0001b0 0a 06 38 3d 38 08 01 3f 85 1a 88 3e 23 8e 0f be
       0.044927634 0.50403166 0.26582733 -0.14019065
0001c0 d9 b4 ab bd c0 57 1e be 66 f7 14 3e fe d2 7a be
       -0.08384103 -0.15463161 0.145475 -0.2449455
0001d0 b8 cf d2 3e 48 36 16 3f 4e a6 66 bd bc 46 77 3e
       0.41174102 0.58676577 -0.056310944 0.24148077
0001e0 7e ed 22 3f 0e b1 77 be 81 ca d4 3e e6 21 8a be
       0.63643634 -0.24188635 0.41560748 -0.26978987
0001f0 ed 64 a7 3e 16 c9 7c be 75 3e 1c 3e 2e 9e b7 be
       0.32694188 -0.24686083 0.152582 -0.3586287

msg_fc1.1.weight f4 [128, 2]
000000 7c 5b 1d 3f 97 12 c2 be 5f b4 b5 3e d0 7e 2c be
       0.6146772 -0.37904808 0.35489175 -0.1684525
000010 22 e2 d0 be d3 78 19 bf 1e e3 0a 3d e5 ed 31 bf
       -0.40797526 -0.5994999 0.033908002 -0.69503623
000020 d7 df 2c bd e2 28 c3 bd c3 ef 98 3d ee d9 b2 3e
       -0.042205658 -0.09529282 0.07467606 0.34931892
000030 44 a9 91 be 46 71 0f bf 47 8f 79 3e e7 24 ac 3e
       -0.28449452 -0.56032217 0.24371062 0.33621904
000040 ba f9 20 3e b5 55 86 3e b2 82 85 be 02 3d 01 3e
       0.15720263 0.26237264 -0.26076275 0.12620929
000050 dc b1 1c 3f 2a e3 66 be 80 cb e8 bd af 6c e1 be
       0.6120889 -0.22547594 -0.113669395 -0.44028232
000060 f7 98 16 be 8d 3d a2 be ee 94 a9 be f2 98 b5 bd
       -0.14706789 -0.31687585 -0.33121437 -0.08867063
000070 9f 36 2c 3f cc 3c f5 be 5d ec f0 3e 53 09 de bd
       0.67270845 -0.47897947 0.4705533 -0.10841622
000080 dd fc 65 3e 78 0e 15 3f 3d fb 34 3e 96 d1 49 3c
       0.22459741 0.582252 0.17673965 0.012318036
000090 90 00 18 bf 04 4d c7 be 42 f1 21 bf 65 88 8a be
       -0.5937586 -0.38925946 -0.63258755 -0.27057186
0000a0 50 2a 2b bf e3 7d e3 3e 5f 1a 2b bf c1 16 10 bf
       -0.6686144 0.4443198 -0.66837114 -0.5628472
0000b0 50 0c 77 be 20 2a 1d bd a3 4a 2a 3e cd 71 64 3e
       -0.2412579 -0.03837025 0.16630034 0.22309037
0000c0 10 5d 2e bd 18 e0 87 3e 57 a0 96 3d de c9 29 3e
       -0.04256922 0.26538157 0.07354801 0.16580912
0000d0 36 21 1b bf df 55 3f 3e 49 8c f2 3e 61 c9 b8 3e
       -0.6059755 0.18685101 0.47372654 0.3609114
0000e0 31 a1 5d 3e 80 65 93 3d d3 49 34 bf ba 76 fc be
       0.21643521 0.07197094 -0.70425147 -0.4930933
0000f0 ab 5d d7 3e a3 b0 4f 3e db d3 25 be 63 74 27 bf
       0.4206365 0.20282225 -0.16194098 -0.6541197
000100 4a 6e 46 3f 00 6f aa be 12 b4 33 3f 88 90 0f 3f
       0.7751204 -0.3328781 0.7019664 0.5607991
000110 98 39 47 bf 8b 51 b2 bc 33 80 93 3e a7 26 06 3e
       -0.77822256 -0.021767398 0.28808746 0.13100682
000120 aa bd 4a 3f 42 eb 08 3f 50 88 a8 be 7d 70 7a 3e
       0.79195654 0.53483975 -0.32916498 0.24456973
000130 9c 7e 1d 3f f7 da 89 bd 38 64 e9 3e fb e3 a6 bd
       0.61521316 -0.06731217 0.45584273 -0.081489526
000140 66 14 83 3e 65 34 8c 3d a8 21 16 3f c2 71 11 bd
       0.256015 0.06845931 0.58645105 -0.03550888
000150 a2 50 cc 3e e0 a2 65 3e 36 0b ef be df 5a c2 be
       0.39905268 0.22425413 -0.4668824 -0.37959954
000160 4b 66 2e bf d8 d9 06 bf a5 6a 3b bf d6 92 6e be
       -0.68124837 -0.52676153 -0.732096 -0.23298201
000170 25 f2 8d be cc 56 d0 be 6e 2c e0 be fe e9 ad be
       -0.27723804 -0.4069122 -0.43783897 -0.33967584
000180 e3 67 d8 bd 41 07 0b bf ed cb be be 7d 0d 15 bf
       -0.1056669 -0.54307944 -0.37264958 -0.58223706
000190 5e 28 0f bf 38 48 33 be 49 fb c8 3e 7f 3f f5 be
       -0.5592097 -0.17508018 0.39254215 -0.47900006
0001a0 45 03 26 bf ab f2 2b bf 65 a5 d6 be d9 df e4 be
       -0.6484874 -0.67167157 -0.4192306 -0.44702032
0001b0 66 9b 89 be b4 89 9d 3e a1 7c 2b 3f d2 d6 dd bd
       -0.26876372 0.30769122 0.66987044 -0.10831989
0001c0 bc 33 22 3f 35 c4 66 be de cc 0a 3f 2a 48 17 3f
       0.6336019 -0.22535785 0.5421885 0.5909449
0001d0 35 6d 44 3e 0e 6e c1 3e 1b 5a 62 bd 43 b4 d9 be
       0.19182284 0.37779278 -0.055261713 -0.4252034
0001e0 12 79 36 bf 5e 3e 67 3e dd 8f 44 3f 0d 20 91 be
       -0.7127849 0.22582385 0.7678202 -0.28344765
0001f0 14 00 d8 be 41 8f da 3e 2d 6e 1f bf a8 66 0a 3f
       -0.4218756 0.4268742 -0.6227749 0.5406289
000200 f8 23 8b 3d 87 21 95 3e 62 bc 27 bf 32 f7 20 3f
       0.0679397 0.29127142 -0.65521824 0.6287719
000210 5f 8a 01 3f 55 5b 27 be f9 d5 b6 be 90 aa 23 bf
       0.5060176 -0.16343434 -0.35710123 -0.6393213
000220 43 80 38 3f 32 bf 85 3e 08 41 84 3e 7d 6c 0a bf
       0.7207071 0.26122433 0.25830865 -0.5407179
000230 9d 53 8a be 50 2a 19 bf 55 9d b4 be ff cb 02 3e
       -0.27016917 -0.5983019 -0.35276285 0.12773131
000240 aa 66 9d 3e 1d fe 8d bd 47 f1 a1 3e d5 8e 38 be
       0.3074239 -0.06933234 0.31629393 -0.18023236
000250 19 dc 68 3d 13 76 11 bf b8 c8 f7 be 73 6f bc be
       0.056850526 -0.5682079 -0.48395324 -0.3680378
000260 c5 de 7d 3e dc df 11 3f 3b 7f e0 be d3 86 0b 3f
       0.24792011 0.5698221 -0.4384707 0.545026
000270 d4 95 25 bf 87 1c df be 56 3f 32 3f f5 ed 28 bf
       -0.64681745 -0.43576452 0.6962789 -0.65988094
000280 ea ba a4 be e5 f1 a2 3e bf 51 82 3e 8e 58 20 bf
       -0.32173854 0.31825176 0.25452992 -0.62635124
000290 9e b5 0e bf 17 29 0f 3f 7b 73 b9 be 7d 3f 26 3f
       -0.55745876 0.55922073 -0.36220917 0.64940625
0002a0 bf a8 b2 3e 2c 20 0e bf 2c 73 03 be bb 6d 93 3e
       0.34894368 -0.5551784 -0.12836903 0.28794655
0002b0 e3 81 0f 3f 4e 63 db 3e d0 70 04 bf f1 90 89 3e
       0.56057566 0.428492 -0.5173464 0.26868394
0002c0 5e 48 a3 be 3a a9 88 3d 71 20 5c 3f f4 dd 87 3e
       -0.3189115 0.066729024 0.85987 0.26536524
0002d0 4f 76 0e bf 2d 46 11 3e 9d d0 12 bf 4d fa ed 3e
       -0.55649275 0.14186926 -0.5734957 0.46480027
0002e0 ef cc 7b be ac ec 93 be 6e b4 25 3e 95 37 53 3e
       -0.24589895 -0.28891504 0.1618211 0.20626672
0002f0 c0 5c 62 3d 45 5d 99 3d 66 78 28 3f db f5 db be
       0.055264235 0.07488493 0.65808713 -0.4296101
000300 0e ba 97 3d d2 73 a2 3e 58 3f 83 bd 9d 82 d4 3e
       0.07408534 0.3172899 -0.06408566 0.415059
000310 d2 70 87 3e bc fe 73 be 72 96 48 be 88 76 04 3f
       0.26453263 -0.23827642 -0.1958864 0.51743364
000320 57 af 46 3f 7d 9f f2 be 3b bd 44 bf 7c b6 4b be
       0.776113 -0.47387305 -0.7685124 -0.19893831
000330 e0 a8 da be 53 8f c0 be 38 4f ad 3e 02 16 1d 3f
       -0.42706966 -0.37609348 0.33849502 0.61361706
000340 7c 6a 28 3f a1 f5 4b 3d dd 99 2b bf 38 e6 41 3e
       0.6578748 0.049794797 -0.6703165 0.18935478
000350 8a 7d e6 bd 23 2e 0f 3e 07 ed 1e 3f f8 fc 24 3f
       -0.112544134 0.13982444 0.62080425 0.644485
000360 87 7a 2b 3f 1b 63 cb 3d 7f d2 49 3f 8f b5 f7 3e
       0.66983837 0.09931012 0.78836817 0.48380706
000370 aa f5 c5 be 80 ba dd bd 9d 09 38 3f e3 82 41 bc
       -0.3866399 -0.10826588 0.7188967 -0.011810991
000380 5b f9 13 be a5 00 13 3e 89 24 82 3e 6b 29 0f be
       -0.1445059 0.14355715 0.254185 -0.13980643
000390 c8 64 70 3e aa 86 10 3f 37 ba 16 3f bf 3c 08 bf
       0.23475945 0.5645548 0.5887789 -0.5321769
0003a0 32 d5 bc 3e df 7e e5 3e de 39 35 bf fc f5 29 bf
       0.36881405 0.44823357 -0.70791423 -0.6639097
0003b0 7c e0 06 bf ee bf 42 be 0c af 5d 3f 1e 0c 27 3f
       -0.52686286 -0.19018528 0.86595225 0.65252864
0003c0 bc f1 aa 3e d0 ea 12 3f 7b 78 e0 be be 48 0f be
       0.33387554 0.57389545 -0.4384192 -0.13992593
0003d0 88 a9 21 bf ec 3f c0 be 04 73 10 be f1 56 18 3f
       -0.6314931 -0.3754877 -0.14106375 0.5950766
0003e0 b1 f6 a9 be eb 1e 1f bf 3b b3 e7 3e 49 49 42 bc
       -0.33196023 -0.6215655 0.4525393 -0.011858293
0003f0 8b 7b 9c be a1 bb c7 be f4 1e 88 be 90 0f aa bd
       -0.30563006 -0.39010337 -0.26586115 -0.083037496

msg_fc1.1.bias f4 [128]
000000 28 95 40 bf 72 0d 13 3f b2 4a bf 3e 9d 54 92 bd
       -0.75227594 0.5744239 0.37361676 -0.07145045
000010 1d c2 9a 3c 00 e0 04 3f f2 dc f6 3d 29 73 3b bf
       0.018891389 0.51904297 0.12053861 -0.73222595
000020 e6 38 09 bf 4b ed 25 bf dc 20 73 be 0f 8c 26 3f
       -0.53602445 -0.64815205 -0.23743004 0.6505746
000030 31 a1 d8 be 05 dc 82 be 41 da dd 3d 38 9c 10 bf
       -0.4231048 -0.25558487 0.10832644 -0.5648837
000040 bd 90 57 3e 43 38 77 be 1e 73 a8 bd 3a 8a a7 bd
       0.21051307 -0.24142556 -0.08225082 -0.081806615
000050 21 1b 14 3f fd 62 22 bf 0d 1b 85 3e bb f7 53 bd
       0.57853895 -0.63432294 0.259972 -0.051749926
000060 a4 3e 32 3e 52 17 28 be fd f4 bd 3e d3 4b 25 3e
       0.17406708 -0.16415146 0.37100974 0.16142206
000070 58 db 9e 3e 0c 02 34 bd e8 c8 ec be d0 c0 2c 3f
       0.3102672 -0.043947265 -0.4624703 0.6748171
000080 07 ce 96 3e d7 8c 0b 3d 54 2a f2 3e e8 c3 21 bf
       0.2945406 0.034069862 0.4729792 -0.63189554
000090 5b c8 90 bd c7 a6 2b be 2a 85 65 3e e1 27 23 3f
       -0.07069465 -0.1676284 0.2241408 0.63732725
0000a0 6c d0 be 3e d2 36 34 3e a6 d6 21 bf fc b1 99 3d
       0.37268388 0.17599037 -0.6321815 0.07504651
0000b0 ba c2 82 bd dc 95 17 bf f3 e2 11 3f 8d 07 a9 bd
       -0.063847974 -0.5921304 0.5698692 -0.08253393
0000c0 6b a3 2e 3f 0f fe 71 be cb 34 fe 3e 51 db 92 3d
       0.68218106 -0.23632072 0.49649653 0.071707375
0000d0 b0 b9 f3 3e 69 b5 81 bd 65 28 a7 be 79 63 57 be
       0.47602606 -0.06333429 -0.32648006 -0.2103404
0000e0 20 d5 81 3c 46 c4 d7 bd 6e 67 6f 3e b2 a7 24 3f
       0.015848696 -0.10535483 0.23379299 0.6431838
0000f0 38 4c 25 bf 15 64 e7 3c 22 7e 2f bf 3e 93 a1 3d
       -0.64569426 0.028245965 -0.6855184 0.07889412
000100 91 12 40 3e de dd cf bd 88 52 3d 3e 54 af b2 3e
       0.18757083 -0.1014974 0.18488514 0.3489939
000110 b8 5b c3 bd c0 6a 20 ba ac 8a 22 bf ee cf 0b be
       -0.09538978 -0.00061194226 -0.63492846 -0.13653538
000120 bd 1a 81 3e fd 5f 7f 3e 16 7d f8 be da fc e5 bd
       0.25215712 0.2493896 -0.48532933 -0.11229868
000130 31 7b 89 bc ad c1 85 be 77 21 ac 3e 8b e3 19 3f
       -0.016782375 -0.26124325 0.33619282 0.6011283
000140 fa 54 1a 3f 00 6a 54 be d5 93 0e 3e 4d 01 34 bf
       0.60285914 -0.20743561 0.13923581 -0.70314485
000150 f2 09 cd 3e a1 85 14 be 48 04 07 bf 72 98 9d bd
       0.4004665 -0.145041 -0.5274091 -0.07695092
000160 00 62 1a bd 45 32 a2 3e 77 aa 7b be 9c 66 2e 3e
       -0.037691116 0.31678978 -0.24576746 0.1703133
000170 c2 2a c7 be 33 1a 9c be b1 a4 ba 3e 70 d3 a6 3d
       -0.3889981 -0.30488738 0.36453775 0.08145797
000180 21 a3 90 be be a5 63 be 6d 04 18 bf 12 15 81 be
       -0.28249457 -0.22231194 -0.59381753 -0.25211388
000190 d5 3b 32 bf 8c 93 e3 bd c6 7e 2e be ae e1 54 bd
       -0.69622546 -0.11112127 -0.17040548 -0.051973037
0001a0 e0 56 3b 3e 6f dc a3 be b9 2f 6e be dd 44 82 3e
       0.18294859 -0.32004115 -0.23260392 0.25443164
0001b0 65 32 33 bc f2 ef e9 3e 71 4c 9b be ba 64 c2 3d
       -0.010937308 0.45690876 -0.30331758 0.09491868
0001c0 2a dd 9b 3b bf c9 c4 be b7 59 97 be 46 89 03 3f
       0.0047565894 -0.3843517 -0.29560634 0.5138134
0001d0 28 fc 0b 3f 82 d2 82 be d8 6e 1c 3f 0c d2 c1 be
       0.54681635 -0.2555123 0.61106634 -0.37855566
0001e0 3e da 67 3e 45 83 1e 3f b7 56 0c 3f c6 74 36 be
       0.22641847 0.6191905 0.54819816 -0.17817983
0001f0 dd de ef 3e f5 c7 dc 3e c7 20 79 be 08 46 80 3b
       0.4684972 0.43121305 -0.2432891 0.0039145984

msg_fc2.0.weight f4 [128, 128]
000000 4c 07 75 3d 81 28 db bb d4 17 e2 bc db 78 6a 3d
       0.059821412 -0.006688178 -0.027599253 0.057244163
000010 6e 29 31 3d 2e 1d 4c 3d 13 57 b3 3d b4 91 79 3d
       0.0432524 0.049832515 0.087568425 0.06092997
000020 a9 cb 58 bc cd c7 44 bd 0d ca 73 bd 59 6d 9f bd
       -0.01323215 -0.048042107 -0.059518863 -0.07784528
000030 00 85 6c 3d 55 2c d1 bc d5 c6 85 3d b7 b2 a5 bc
       0.057744026 -0.025533834 0.06532065 -0.02022682
000040 de 5d a0 bd ba 96 1d bd b9 4b 7d bc 96 ee ab bd
       -0.07830404 -0.038473822 -0.015459948 -0.08395116
000050 fc 07 81 3c 90 78 11 bd 7d 3c 99 bd 94 a9 38 3c
       0.015750878 -0.035515368 -0.0748224 0.011270899
000060 ef 2e 48 bd 62 29 62 bd c2 ff 81 bc 8f 11 b0 bd
       -0.048872884 -0.055215247 -0.015869025 -0.08597099
000070 38 3b 6c 3d 90 e3 93 bd d8 7c ac bd 25 b0 1a 3c
       0.057673663 -0.072211385 -0.084222496 0.00944141
000080 53 52 a9 3d c8 69 32 bd 1c 24 ab 3d 8e 9b bf bb
       0.08267655 -0.043557912 0.08356497 -0.005847401
000090 f9 c8 8f bb 8d ed 40 3c 09 c7 05 3c 1c cd b3 3d
       -0.0043879715 0.0117753865 0.008165129 0.08779356
0000a0 bf 97 27 bd f1 0b a2 bc 1e f0 af bc 35 94 81 bd
       -0.0409162 -0.019781085 -0.021476801 -0.063270964
0000b0 d2 9b 50 3d 86 85 56 bd 2a 61 ae bd e7 ca 64 bd
       0.05092985 -0.05237343 -0.08514626 -0.055857565
0000c0 80 8d 92 bd 86 a4 d0 bc 0c 74 97 bd 2d 14 ae 3d
       -0.07155895 -0.025469076 -0.07395181 0.08499942
0000d0 53 00 54 3d 4a 34 e6 bc 59 6e 3a bb 4e 4b a9 bc
       0.05175812 -0.028101105 -0.002844712 -0.02066579
0000e0 72 83 26 3d 8e 7a c5 3c d7 64 93 bd da c1 9d 3c
       0.0406527 0.02410629 -0.07196968 0.019257475
0000f0 09 72 84 bb 56 65 5b bd 69 1a 0a 3d 8a 35 b1 3d
       -0.0040419144 -0.05356344 0.033716593 0.0865279
000100 aa 02 96 3d cf d6 b4 3b d6 1f b2 bd 4f 46 98 bd
       0.07324727 0.0055187712 -0.086974785 -0.07435285
000110 19 d4 7f bc 1f ad 98 3d d8 ab a9 bc 20 0b b7 bc
       -0.015614533 0.07454895 -0.020711824 -0.022344172
000120 56 51 b1 bd 11 5c 48 bd c6 63 f3 bc 5e 8b b9 bb
       -0.08658092 -0.048915926 -0.029710662 -0.005662366
000130 da ea 32 bd bd 16 ca 3c 72 43 3a bd 61 0c 60 bd
       -0.043681003 0.024669046 -0.045474477 -0.054699305
000140 4c 60 85 bd 88 89 87 bc 20 11 5b 3d e1 ce 23 bc
       -0.06512508 -0.016545072 0.05348313 -0.009998054
000150 97 fa 66 bd 38 05 9b 3d 1f 40 34 3d 09 3b 63 3d
       -0.056391325 0.07569355 0.044006463 0.055476222
000160 f0 bf b1 bd ae 02 75 3d e9 0b 07 3c 02 fc 2a 3d
       -0.08679187 0.05981701 0.008242586 0.04174424
000170 a0 f0 a4 bd 5b 9a 03 bd c1 f2 90 bc 07 7d 50 3d
       -0.08053708 -0.032129627 -0.01769388 0.050900485
000180 10 e8 37 bd 92 32 28 bd 78 09 90 bd c6 47 b0 bd
       -0.044899046 -0.041063853 -0.07033056 -0.0860744
000190 79 15 b6 3c 69 5e 7a 3d 60 ff ad bc 1b bd 03 3c
       0.022227036 0.061125193 -0.021239936 0.008040692
0001a0 6f 59 25 bd 25 8a 8c bc db b7 6e bd 3a 2a c6 bb
       -0.040368494 -0.017155716 -0.058280807 -0.0060475143
0001b0 2f 7a d5 bc 21 84 89 bc 70 42 54 bd f3 a6 64 bd
       -0.026059238 -0.016786637 -0.051821172 -0.055823278
0001c0 5d f9 79 bd be f4 ab 3d e3 fd 00 39 ae a2 bd 3c
       -0.061028827 0.0839629 0.00012301611 0.02314886
0001d0 36 7f ab 3d 37 e9 13 bc 07 3c 3f bd 7c 1c 2e 3d
       0.08373873 -0.009027771 -0.046688106 0.042507634
0001e0 a0 a5 2d bd 82 73 e2 bc 48 f7 08 3d d2 c0 fc 3c
       -0.04239428 -0.027642969 0.03343895 0.030853663
0001f0 36 7e 96 bd 4f bf ae 3d 86 c4 b4 3d 42 be 3f bd
       -0.073482916 0.08532583 0.08826546 -0.046812303
000200 cb a8 1f bd 9f 26 ba 3c ed 04 b3 3d ff 6a ce bc
       -0.038979333 0.022723494 0.08741174 -0.025197504
000210 d2 1a cf 3c 87 0f 8a bd 13 dd d8 3c d9 14 ee 3c
       0.025281344 -0.06741243 0.026472604 0.029062675
000220 3f 71 ec bc 5c 72 a3 bc 15 b8 19 bd 19 8f 99 3d
       -0.028862594 -0.019951992 -0.03752907 0.07497997
000230 8a 15 49 3d aa ee 8c bc 0c 87 3d 3d 30 43 4e 3d
       0.049092807 -0.017203648 0.04627137 0.050357044
000240 66 20 b0 3c a2 d4 99 bc b7 18 1c bd 5e 58 aa bd
       0.021499824 -0.018778149 -0.038109507 -0.08317636
000250 b7 79 c5 bc 01 8b 13 bd 00 9e 23 bc 9a e0 4f bd
       -0.02410589 -0.036021236 -0.009986401 -0.050751306
000260 9b db 30 3d 2b f3 a5 3d 18 05 a2 bd f2 fb a4 3d
       0.043178182 0.08103021 -0.07911128 0.08055867
000270 bc 24 dd bc c2 ee 07 bd c8 fa 72 bd af 85 18 bd
       -0.026995055 -0.03318668 -0.059321195 -0.037236866
000280 25 ee 9b bc 9b 16 9c 3d 97 56 5a bd 81 a2 6b 3d
       -0.019034455 0.07621499 -0.053305235 0.057528023
000290 7b 02 45 bd d2 e0 21 bd 6a 5b e8 3b 95 0f 2e bd
       -0.04809807 -0.039521046 0.0070909755 -0.04249533
0002a0 c7 d5 9b bd e3 a3 d8 3c 8e d8 82 3c f4 eb 82 3d
       -0.07609134 0.026445335 0.015972402 0.06392661
0002b0 d5 12 a8 bd 44 cc 52 3c 4b c6 4b bd 05 84 17 bd
       -0.08206717 0.0128660835 -0.049749654 -0.036991138
0002c0 22 49 ab bd f4 1d a0 bd 66 f9 35 bd 70 b2 8a bd
       -0.08363558 -0.07818213 -0.044427298 -0.067723155
0002d0 e5 cd 64 39 ee 67 55 bd d8 f3 82 3c e7 35 18 3d
       0.00021820476 -0.05210107 0.015985414 0.03716078
0002e0 6a f9 e2 bc 1e 02 e8 3c 15 e4 ad bc 2e 7c 1b bd
       -0.02770682 0.028321322 -0.021226922 -0.037960224
0002f0 6c 85 90 3d cd 99 12 3d c0 82 6b ba 64 c6 93 bd
       0.07056698 0.035791207 -0.0008984022 -0.072155744
000300 69 9d 91 3d b3 d9 ec ba 1b 02 5c bd d9 d0 07 3d
       0.07110102 -0.001807025 -0.053712945 0.033158157
000310 9f b2 61 bd 6a 3d 8f bd 33 2f f0 bc b4 98 8d bc
       -0.055101987 -0.06994136 -0.029319381 -0.017284729
000320 30 38 10 3d 01 28 14 3d 10 51 9e bd bf ee 03 bd
       0.035209835 0.036170963 -0.07730305 -0.032210108
000330 86 c7 ff 3c fe 22 8d bc 75 91 54 bd 2c 70 ff bb
       0.03122307 -0.0172286 -0.05189653 -0.0077953544
000340 6f 1e 3c bc 49 68 18 bd 74 48 c6 3b 58 81 b7 3a
       -0.011481865 -0.03720883 0.0060511176 0.001400034
000350 5f b3 2d 3d a0 71 e3 bc 92 9c 0d bc 15 78 27 3d
       0.04240739 -0.027764142 -0.008643286 0.040886004
000360 c1 ef 67 3c 03 73 91 bd 0a b9 e8 bc 2c a5 64 bd
       0.014156283 -0.07102015 -0.028408546 -0.055821583
000370 f5 6d c1 3c 37 d1 78 bd aa a7 5a bd 1a 2c 16 3d
       0.023612002 -0.060746398 -0.053382553 0.036663152
000380 64 b3 bc bc fa d4 1f 3d 21 2f 7f bd ab d9 33 3d
       -0.023034759 0.03902147 -0.062300805 0.043908756
000390 8c c8 25 bd 18 a5 16 3d 9d 86 96 3d 32 06 ad bd
       -0.04047446 0.03677854 0.07349894 -0.08448447
0003a0 b6 21 41 3d 41 77 7d bd e1 b8 88 3c 83 21 90 bd
       0.04715129 -0.061881308 0.01668972 -0.07037642
0003b0 b2 25 2f 3d b4 f7 94 bd fc 53 85 3d 4e ce 51 3d
       0.04276056 -0.07273808 0.065101594 0.051222138
0003c0 92 d3 92 bd 8f 6a bc 3c 54 f4 5b 38 e6 34 6c 3c
       -0.0716926 0.02300003 5.2441217e-05 0.014416909
0003d0 93 d3 36 bb 51 47 22 bc 47 85 59 bc bf eb 97 bd
       -0.0027897104 -0.0099046985 -0.013276405 -0.07418012
0003e0 23 f2 83 bd 66 df 05 3d b3 e6 3e bd f7 73 ce 3c
       -0.06442668 0.032683752 -0.04660673 0.02520178
0003f0 1b 6c 0e bc 89 1f 2e bd f1 e2 2c bd 91 fc b1 bd
       -0.008692767 -0.042510543 -0.042208616 -0.08690751

msg_fc2.0.bias f4 [128]
000000 19 a7 4e bd cf ad d4 3a c0 35 90 bc 59 19 16 3c
       -0.050452325 0.0016226115 -0.017603755 0.009161317
000010 e6 6a 31 3d 1e 41 59 bc d2 57 60 bd e8 a2 9a ba
       0.043314837 -0.013260154 -0.054771252 -0.0011797817
000020 66 d8 e1 3b 19 c5 29 3d 3e fc 31 bd 18 57 a0 3d
       0.006892252 0.041447733 -0.043453448 0.07829112
000030 33 b9 a2 bd e9 d6 31 3d 0e f1 77 bc 53 ea 93 3d
       -0.0794548 0.043417845 -0.0151331555 0.07222428
000040 ba 92 b8 bd 02 35 8e bc 6a 6f da 3c 37 ad 7b bd
       -0.09012361 -0.01735926 0.026664454 -0.061444487
000050 4e c4 23 bd 9b e4 9c bd e1 dd ed 3c e8 d5 96 3d
       -0.039982133 -0.076607905 0.029036464 0.07365018
000060 2a 58 64 3d fb 8d d1 bd 19 b4 89 3c ea 6c 35 3a
       0.055748142 -0.10232159 0.01680951 0.00069208315
000070 c9 01 9d 3d ac 2f 62 bd e3 d2 42 bc 0d 73 c5 3c
       0.07666356 -0.055221245 -0.0118911 0.024102712
000080 6e 0e 81 3c 28 02 d1 3b 23 43 d4 bd 1b 48 03 bd
       0.01575395 0.006378431 -0.10364368 -0.032051187
000090 e7 51 14 3d 3a 9d 07 bd 37 44 2e 3c ab a7 89 bd
       0.03621092 -0.033108927 0.010636381 -0.06721433
0000a0 ef 39 0e bd c8 6f 6c 3d a7 bf 8e bd 98 83 5f bd
       -0.03472322 0.05772379 -0.069701485 -0.054568857
0000b0 35 85 b5 bd a5 6b ca 3c 23 57 a2 bc 98 bd 76 bd
       -0.08863298 0.024709532 -0.01981694 -0.060239404
0000c0 b2 73 b9 bd d6 df 30 3c aa d5 7f 3d 43 b7 9b 3d
       -0.0905527 0.010795554 0.062459625 0.07603314
0000d0 56 72 30 3c 77 44 e9 38 95 b6 a4 bd 3a 95 8b 3d
       0.010769447 0.00011123058 -0.08042637 0.06815572
0000e0 36 5e 34 bd 05 a5 84 bd 26 a6 b8 bd 5b 01 82 bd
       -0.04403516 -0.064767875 -0.09016065 -0.06347915
0000f0 1e 35 94 3d a5 86 aa 3b cf c5 e1 3c c1 14 e7 bc
       0.07236694 0.005204039 0.027560143 -0.028208138
000100 ac ec 95 bb e9 ca 1a bd 99 42 69 3d f5 88 b9 bd
       -0.0045753326 -0.037791166 0.056948278 -0.090593256
000110 15 c5 3e 3d 62 9b a9 bd 7c fa 14 bc 54 aa 23 bd
       0.04657467 -0.0828159 -0.009092923 -0.03995736
000120 ec b7 ac bd fa 11 07 3d c0 74 9c bd 52 e3 8a 3d
       -0.08433518 0.03297613 -0.07639456 0.06781639
000130 db 48 1a bd f5 4a a2 bd 6b 20 88 bd f4 11 00 3d
       -0.037667137 -0.07924453 -0.06646808 0.03126712
000140 68 93 26 bd 98 db b5 bd ef 9f 28 3d 85 c3 77 3d
       -0.04066792 -0.08879775 0.04116815 0.060489196
000150 01 64 63 bc 58 d4 95 bc 3f d9 9e bd 94 0f b1 3d
       -0.013878823 -0.01828973 -0.0775628 0.086455494
000160 72 ea db bd ec bc 60 bb 92 88 61 3d ef 5b 84 3d
       -0.10738076 -0.0034292294 0.055061884 0.064628474
000170 67 71 51 3d be 2c 45 3d 15 93 35 3d 72 a0 4d 3d
       0.05113354 0.048138373 0.04432972 0.05020184
000180 e2 6d 8c bd 06 a3 89 3d 85 4c ce 3c 6f 0f 8c 3d
       -0.06856896 0.067205474 0.025182972 0.06838881
000190 4b af d9 3d c9 58 43 bd 5c b2 3b bb 50 2f 67 bd
       0.106291376 -0.047692094 -0.0028640246 -0.056441605
0001a0 89 04 95 3d 55 03 36 bd bd 4c c4 3c 5f f6 7c bc
       0.07276256 -0.04443677 0.023962373 -0.015439599
0001b0 ea b8 b8 38 14 01 8c bd f6 e6 3c 3d 38 a6 bc bd
       8.808247e-05 -0.06836143 0.0461187 -0.09211391
0001c0 73 df d7 3c 7b be 50 bd 2e 21 89 3c 2b d2 00 bd
       0.026351666 -0.050962906 0.016739454 -0.03145043
0001d0 fb 14 9e bd 4e e3 6f bd a8 7d fb bc 82 ad a4 bd
       -0.077188455 -0.058566384 -0.030699566 -0.080409065
0001e0 8c 3c 1d 3d 12 c5 71 3d f9 48 45 3d 8c f3 30 bc
       0.03838782 0.05902583 0.048165295 -0.010800254
0001f0 52 b7 2f 3c 6f fd 8c bc 51 75 12 be 28 cb 96 bd
       0.010724859 -0.01721069 -0.14302565 -0.07362968

msg_fc2.1.weight f4 [128, 128]
000000 25 29 16 3c 91 8b c1 3c d0 bb b3 bd 9a 3a 49 3a
       0.009165083 0.02362612 -0.08776057 0.0007676274
000010 a9 c4 9a bc 35 4a b5 bd 8d cc 9b 3d 64 01 80 bd
       -0.018892603 -0.088520445 0.07607374 -0.06250265
000020 22 8a e7 3c f0 42 42 be b3 ea 04 3d e4 11 b3 bd
       0.028264109 -0.18970847 0.03245039 -0.08743647
000030 06 c1 3f bd c6 73 85 3d 77 8e 83 3d 49 c0 2d bd
       -0.04681494 0.06516223 0.064236574 -0.042419706
000040 b3 0e 87 3d 13 e7 ce bd 8b af 94 3c ce e0 3c bc
       0.065946005 -0.10102668 0.018150112 -0.011528207
000050 14 ed 22 3d a1 43 ff bc 74 78 78 bd 26 8c 28 3c
       0.039776877 -0.031160178 -0.060661748 0.01028732
000060 4c 46 f0 bc ab b9 67 3a d9 9a c8 bc a5 f4 b1 3c
       -0.029330395 0.00088396174 -0.0244879 0.0217231
000070 1d 91 7b 3a 4d 54 9c 3d cc 27 a4 bd 5c e2 a5 3b
       0.00095965137 0.076332666 -0.08015403 0.0050623845
000080 32 92 9b 3d 62 16 75 bc 95 be a7 bd 56 bc 4b bd
       0.07596244 -0.01495895 -0.081906475 -0.049740158
000090 aa 1d a8 bd 4e 98 6d 3d 8a e5 3a 3d 14 27 f3 3c
       -0.08208783 0.058006577 0.04562906 0.02968172
0000a0 d0 e7 40 bd 40 3f 66 bd fb e8 ba bc a1 f4 c5 3c
       -0.047096074 -0.056212664 -0.022816172 0.0241645
0000b0 d9 86 44 bd a9 f6 33 bd 77 ed 5c 3d 17 ed 61 3b
       -0.047980163 -0.043936405 0.0539374 0.0034473592
0000c0 8d 7c 49 bd 75 aa 60 3d 50 83 a0 3d 51 23 b4 bd
       -0.049191047 0.05485006 0.07837546 -0.087957986
0000d0 54 dc 9b 3d 37 97 93 bd c2 62 a9 bd da 44 9e 3d
       0.07610384 -0.07206576 -0.0827079 0.07727976
0000e0 07 23 51 3c f3 5f d6 bc b7 19 43 bd 8b 4b ba bc
       0.012764699 -0.026168799 -0.047631945 -0.0227411
0000f0 23 9f 37 bd 35 b9 83 bd 07 ab 55 bc e6 f4 37 3d
       -0.0448295 -0.0643181 -0.013041264 0.044911288
000100 6b b5 00 bd 69 50 ce bc 13 80 cb 3b 7b 9d 41 bd
       -0.031423014 -0.025184827 0.006210336 -0.047269326
000110 76 27 9c bd 48 50 5f bd 95 ea 66 3d de bb 40 bd
       -0.07624714 -0.05451992 0.05637606 -0.047054164
000120 55 e8 c3 bd 8f 00 67 bb 9c 7f 49 3d 54 1f c2 3c
       -0.09565798 -0.0035248136 0.049193963 0.023696579
000130 33 2a 3f bd a8 fa 77 3d 3e 54 d5 3c 40 70 96 bb
       -0.046671104 0.06054178 0.026041146 -0.004591018
000140 1e 4f 9e 3d 1e d2 0d bd 16 f2 55 bc d6 bf 8a bd
       0.07729934 -0.03462421 -0.013058206 -0.06774871
000150 b7 bd 32 3d 9f 6c 84 3d 06 62 88 3c 60 b0 98 bc
       0.043637957 0.0646603 0.016648304 -0.01863879
000160 b9 49 24 3c a5 44 2e bd e6 a6 57 bd e5 28 0f 3d
       0.0100273425 -0.042545933 -0.0526494 0.03495111
000170 d5 ba e5 bb c5 f2 10 3d 10 26 d6 bb 5d b0 c1 bc
       -0.0070107975 0.035387773 -0.006535299 -0.023643667
000180 63 6e f5 3c ba 8d a9 3d 99 8a bb bc 80 fc a0 bd
       0.029959863 0.08278985 -0.022893237 -0.078606606
000190 d3 cf 54 bd 65 97 2e 3d b7 6b 85 bd b9 68 f2 3c
       -0.05195601 0.04262485 -0.065146856 0.029590951
0001a0 b5 d5 38 bc 96 ee 04 bd b4 56 e1 bc 7a f1 10 bd
       -0.0112814205 -0.032454096 -0.027507164 -0.03538654
0001b0 17 56 72 bd 43 32 77 bc fb ac e3 bd ff a7 1e 3b
       -0.059164133 -0.015087667 -0.11116978 0.002420902
0001c0 ec f5 21 3d 2c 22 6d 3d 35 7a 1f 3d 11 b2 03 3d
       0.03954117 0.057893917 0.038934905 0.03215224
0001d0 d6 08 23 bc d1 be 7e bd 38 7a f8 3c ae 2f 77 3c
       -0.009950837 -0.062193695 0.030331716 0.015087051
0001e0 37 d2 9e 3d ca 45 ec 3c b8 e2 2c bd 65 1a 8e 3c
       0.07754939 0.028841872 -0.042208403 0.01734657
0001f0 ea d8 32 bd 9b 7b 87 3d 29 ac 46 3d 7a d8 db 3c
       -0.043663897 0.06615373 0.04850403 0.026836623
000200 63 21 a4 bd e9 8e a9 bd ca 3c 14 bd 96 19 3b 3c
       -0.080141805 -0.08279211 -0.036190785 0.011419674
000210 fe 90 1b bd 2b db 20 bd fb ef 86 3d a5 cf c8 3c
       -0.037980072 -0.039271515 0.065887414 0.024513075
000220 8f b6 7a bc 25 a9 5d 3c c3 75 0d bd 60 ff 0a 3c
       -0.015302314 0.013529097 -0.034536134 0.008483738
000230 6c 7f 80 3d b3 67 71 3d 59 3b 91 3d 4f 3c c5 3d
       0.06274304 0.058936786 0.07091398 0.096306436
000240 f9 e0 9b 3d 15 c6 b2 3d 8a be ff bc 27 32 21 3d
       0.076112695 0.087291874 -0.031218786 0.03935447
000250 64 05 92 bd 8c b6 0e 3d 7f 3d 8f 3d 6d 1e 60 3d
       -0.071299344 0.03484206 0.06994151 0.054716516
000260 b0 ea 5f bd c0 8d 2c 3c 29 a9 91 bd 13 b1 ef 3c
       -0.054667175 0.010531843 -0.07112343 0.02925924
000270 46 e0 96 3d 15 ee 5e bd 56 e9 7d 3c 7d 7f c3 bd
       0.073669955 -0.05442627 0.015497526 -0.09545801
000280 44 54 92 3d 41 57 3d 3d e7 44 aa bd 89 dc 07 bd
       0.07144979 0.04622579 -0.08313923 -0.033169303
000290 24 81 38 bd 02 51 54 3d 7d fe 97 3c 8d 5d 98 bc
       -0.045045033 0.051835068 0.018553967 -0.018599296
0002a0 80 5b 34 bd c6 cb ad 3a d6 39 a2 3c 1c a8 f3 bc
       -0.044032574 0.0013259582 0.019802969 -0.029743247
0002b0 1a f0 64 3d 0e 83 5f 3d af ce ea 3c c8 8d cb 3c
       0.05589304 0.054568343 0.028663008 0.02484788
0002c0 5c 90 93 3b a2 a2 ab bd 71 1d 47 bd 9b 79 72 bd
       0.004503293 -0.08380629 -0.048612062 -0.059198003
0002d0 01 e5 1b 3d 67 5a 8c bd 2e 21 8e bd 9f 80 fa 3c
       0.038060192 -0.068531804 -0.06939922 0.03057891
0002e0 af 59 b9 3c f4 ef 72 3d c0 04 25 3d 5a e1 86 3d
       0.022625772 0.05931087 0.040287733 0.06585951
0002f0 96 74 b5 3c 2e 85 e0 bb 72 84 40 bd e8 48 90 bc
       0.02215032 -0.0068518138 -0.04700131 -0.01761289
000300 92 41 97 3d 6c db 8e bd f1 33 f7 3c 11 d6 a4 3b
       0.073855534 -0.06975445 0.030176135 0.0050304015
000310 46 be 93 3d 25 69 a4 bd 92 af f3 bc dd a3 96 bd
       0.07214026 -0.08027867 -0.029746804 -0.07355473
000320 bd 56 73 3d a1 78 83 3d 63 36 24 3d 25 47 8a 3d
       0.059408892 0.064194925 0.04009093 0.06751851
000330 19 36 57 3d 2f 52 ff 3c c6 5e 66 3b a0 61 10 3c
       0.052541826 0.031167118 0.0035151704 0.008812338
000340 1a 56 b7 bd 3d 51 5f bc 34 8d 5d 3d 39 dc e9 bd
       -0.089519694 -0.013630209 0.05408974 -0.11418957
000350 4a e2 31 bd cb a6 30 3c 07 b7 1c 3c c2 5a 39 3d
       -0.043428697 0.010781954 0.0095651215 0.04525257
000360 b3 6c 90 bc f9 aa 81 bd e0 0d 65 bd 61 25 99 bd
       -0.017629957 -0.063314386 -0.055921435 -0.074778326
000370 88 98 6a 3d 40 ee 56 3d df 24 cb bb 9b 35 b7 bc
       0.05727437 0.052473307 -0.0061994637 -0.022364428
000380 fd 9f 4f 3d 24 f1 9a bc bb a1 e1 bc c1 45 f8 bc
       0.050689686 -0.018913813 -0.02754294 -0.030306699
000390 3c 05 8c bc 40 c3 a9 3c f9 ab f3 bb 62 e3 08 bd
       -0.01709234 0.020722985 -0.007436272 -0.033419974
0003a0 e1 00 20 bd 37 64 fe bc 40 2c a5 bd dc af 04 3d
       -0.03906334 -0.031053646 -0.08065081 0.032394275
0003b0 bf 2e b7 3c 99 1b 68 bb b8 84 7b bc f6 a1 af bd
       0.022361157 -0.003541684 -0.015351467 -0.085758135
0003c0 7a 20 3e bb 49 58 19 bd 24 88 a2 3d 97 ea 7b bd
       -0.0029011057 -0.03743771 0.07936123 -0.06150302
0003d0 97 11 1f bd 4c 35 90 3b 96 86 9d bc d8 d4 a3 bc
       -0.038835134 0.0044008847 -0.019229215 -0.019998953
0003e0 66 08 a3 bd 5e 8a 8a bc c2 ce df bc cc b3 2a 3d
       -0.07960586 -0.016911682 -0.02732027 0.041675374
0003f0 59 aa 69 3c 22 89 50 bd 75 cd 0a bd c9 b6 47 3b
       0.014261805 -0.05091203 -0.033887345 0.0030473939

msg_fc2.1.bias f4 [128]
000000 69 ff 99 bc b3 19 c2 bd 83 a6 11 bd 0b 8b a8 3c
       -0.018798547 -0.09477558 -0.03555919 0.020574113
000010 4a 17 0d 3c b9 cd b2 bd 5a d6 f2 bb 72 41 e4 3b
       0.00861151 -0.08730645 -0.0074108066 0.0069658095
000020 6b 4b 9f bc 68 9b 19 3d f7 83 45 3d 74 62 c3 3c
       -0.019445142 0.037501723 0.048221555 0.023850657
000030 03 55 6f 3d 07 35 95 bd c7 2c e6 bc e2 79 c4 bc
       0.058430683 -0.07285505 -0.028097523 -0.0239839
000040 b0 ed 2c 3d b0 34 2d 3b 2a fa c6 3c a5 9f 6f 3d
       0.042218864 0.002642911 0.02428921 0.05850186
000050 78 00 6b bc 92 78 44 3d 50 fd d2 bc 0b 16 d4 3c
       -0.0143433735 0.047966547 -0.025755554 0.025889417
000060 2c bb ce bd 89 6f d0 bd a1 b1 e9 3c 12 f9 bd 3c
       -0.10094294 -0.10177524 0.028527083 0.023190055
000070 97 5d ab bd be 63 38 3d 03 5c 57 3d f3 68 f1 bc
       -0.0836746 0.045016997 0.052577984 -0.029468989
000080 d9 72 ac 3d 89 cd c2 3b 3e 8e 3b bd 82 3f 3b 3d
       0.08420343 0.005944912 -0.04578995 0.045714863
000090 b0 45 bb bd e6 80 fb 3c 3a 84 12 bd 82 0a 42 bd
       -0.09144151 0.030701112 -0.035770632 -0.047373302
0000a0 f7 0f 4e bb ac 61 70 bd 8a bc dc bd 44 8e 99 3d
       -0.0031442621 -0.058686897 -0.107781485 0.07497838
0000b0 9f 4b 99 bd 3f 76 77 bd 72 05 c7 bb 2a 8e c6 3b
       -0.07485127 -0.060415503 -0.006073647 0.0060594277
0000c0 05 8d 7e bd cf 76 22 bd c5 25 79 bb c0 0a d0 b9
       -0.062146205 -0.039664086 -0.0038016897 -0.0003968086
0000d0 fc f3 eb bc 6a 91 91 3b 1d f6 84 bb 6c 95 8d bd
       -0.028802864 0.0044423835 -0.0040576593 -0.069132656
0000e0 c2 66 3d bd ea 2a 9d 3d c8 2c be bc 89 1b 55 bd
       -0.046240576 0.07674201 -0.023214713 -0.052028213
0000f0 4a 4b 4c bd 45 23 e5 3b cd 6a b8 3b 2b 6b 35 bd
       -0.04987649 0.00699273 0.005627966 -0.044291656
000100 4d de 89 3d d1 62 59 bc 09 0d 83 3d 56 e0 b1 bb
       0.06731854 -0.013268189 0.06398971 -0.0054283543
000110 2b ba 1f bd 4d 8a fa 3c 60 c4 0d bd d0 06 0e bc
       -0.038995903 0.030583525 -0.034611106 -0.008668616
000120 3d 7e 83 3c b0 d3 b1 bd 45 09 70 3d 06 3f f8 3c
       0.016051406 -0.08682954 0.05860259 0.03030349
000130 0d 13 68 3d d1 ce a2 3d 60 33 6d 3b b8 b5 6b bc
       0.056658793 0.07949603 0.0036193952 -0.014386587
000140 6b 48 83 3d 99 09 11 bc c7 10 80 3d 7f 12 99 3b
       0.06410297 -0.008852386 0.062532 0.0046713944
000150 57 b0 64 bd 46 b9 62 3d da f5 af 3c 2d a9 1e 3c
       -0.055832233 0.05535247 0.021479536 0.009683889
000160 ee a7 81 3d f5 ac 1f 3d a6 b2 03 bd c2 ab 2b bd
       0.06330858 0.038983304 -0.032152794 -0.041911848
000170 f6 8e 08 3d a7 86 19 bd 08 b4 12 bd a5 c9 61 3d
       0.033339463 -0.03748193 -0.035816222 0.055123944
000180 bc c1 b7 3d ba a3 b6 bd 35 9a 92 bd 57 43 9f 3c
       0.08972499 -0.08917947 -0.07158319 0.01944129
000190 a2 0a 35 bc 2f 1b 8d bd 7b 79 c5 3c 18 8a 3d b9
       -0.011049898 -0.068899505 0.024105778 -0.00018075889
0001a0 89 58 8d bc ba 0f 28 bc 58 fe 29 3d 8d b0 bb 3d
       -0.01725413 -0.010257656 0.041502327 0.09164534
0001b0 8b 69 02 3d f2 68 1b bd 47 7a 59 bd 05 69 89 3d
       0.031838935 -0.03794188 -0.05309513 0.06709484
0001c0 8c 06 7e 39 55 ec 57 bd 5a a0 16 bd 05 37 9c bd
       0.00024225767 -0.05271562 -0.036774017 -0.07627682
0001d0 ff b8 5c 3d 98 44 63 bd 3f 83 99 3d 1c a7 8b 3d
       0.053887364 -0.055485338 0.07495736 0.06818983
0001e0 a0 60 b9 bb 1d 57 7b 3d 14 db 94 bc 2b f2 1b bc
       -0.0056572706 0.061362375 -0.01817087 -0.009518187
0001f0 e1 99 9f 3c 73 a6 f1 3b 0a ae 8e bd 23 bf c4 bd
       0.019482555 0.0073745786 -0.06966789 -0.09606769

out_fc1.weight f4 [128, 129]
000000 f2 d2 08 b9 3e 41 d2 bc 87 ee 9e bd e3 5d d6 bd
       -0.00013048554 -0.025665876 -0.07760339 -0.10467126
000010 e6 dd 5e 3d 22 eb 83 3d 8d e1 43 bd 69 89 c0 3c
       0.054410838 0.064413324 -0.047822524 0.023503022
000020 09 d3 0a 3b 7a 30 d9 3c 03 f0 84 bb 9a 47 3d 3c
       0.0021182916 0.026512373 -0.004056932 0.011552716
000030 3e 09 68 3d df 67 95 3d d9 28 df 3c 7f 5f d3 bd
       0.05664944 0.072952025 0.027241157 -0.10320949
000040 68 2b 25 3c ed 5c 48 3c 59 15 50 3d 07 5e 9f bd
       0.01008115 0.0122291865 0.05080161 -0.07781606
000050 e2 2a 9a bd 68 07 5b 3d 67 5f af 3d f4 34 6c 3d
       -0.075277105 0.05347386 0.085631184 0.057667688
000060 ca 4a 31 3d 51 d8 a5 3d c1 70 11 bd 0c e2 b4 ba
       0.043284215 0.080979 -0.03550792 -0.0013800277
000070 db 8b be 3b 73 d0 82 3d b3 52 ac bb eb 0a a3 3d
       0.005815012 0.06387415 -0.005258882 0.07961067
000080 96 ce ad bd 64 8e 50 3d 2d e7 a7 3d c5 31 40 bd
       -0.08486669 0.050917044 0.0819839 -0.046922464
000090 bc cc 76 bd de 32 1f bd ac 7a b0 3c d4 78 c5 bd
       -0.060253844 -0.03886687 0.02154287 -0.09642187
0000a0 5d 9d d5 bc b5 84 9f bd 87 de 3c bd 67 dd bc bd
       -0.026076013 -0.07788984 -0.046110656 -0.09221917
0000b0 92 6c 61 bc 2b 06 86 3d 0d 00 25 bc 7a 77 9f 3d
       -0.013758795 0.06544145 -0.010070813 0.0778646
0000c0 6c 06 95 bd 0b d7 74 3d ff 90 51 3c ed 1c 82 bd
       -0.072766155 0.059775393 0.012790917 -0.063531734
0000d0 97 dd dd bd 34 75 d3 3c 7c 7b 8e 3d 82 0d 3b 3d
       -0.108332805 0.025812723 0.069571465 0.04566718
0000e0 eb aa 13 3d 09 11 a6 bc f1 39 d1 bc a8 39 21 3c
       0.036051672 -0.020271795 -0.025540324 0.0098404065
0000f0 57 bc a3 bd 86 f7 75 bd a2 a1 2d 3c d6 59 36 bd
       -0.07994907 -0.06005051 0.010597618 -0.044519268
000100 79 ad 6e 3d 47 10 af bd 12 05 61 3d 0e e9 88 bd
       0.058270905 -0.085480265 0.054936476 -0.06685077
000110 08 8a d9 bc 23 53 88 bd ab 17 b2 3d 0a bc 84 bd
       -0.026555076 -0.06656482 0.086959206 -0.06481178
000120 17 0f 66 bc f6 57 b2 bd c4 10 2a bd 97 9c f9 3c
       -0.014041684 -0.087081835 -0.041519895 0.030470176
000130 8f 42 01 bb 81 bd 48 bd b1 19 f2 bb df ef 0d 3d
       -0.001972351 -0.04900885 -0.0073883166 0.034652587
000140 81 a6 63 bc 85 7f 8d 3d a4 4f e2 3a 9d 86 cc bd
       -0.013894678 0.06909088 0.0017266166 -0.09986613
000150 11 89 a7 3b fe 0e f9 3c bc 46 aa bd e3 f2 9b 3d
       0.005112775 0.030402657 -0.08314273 0.07614686
000160 69 69 91 bd 4a e8 19 3c 91 6e 9d 3d 4b ac 51 bd
       -0.071001835 0.009393761 0.076871045 -0.051189702
000170 5d d6 61 3d 42 28 27 bd 75 2a 46 3d 2a 84 9c bc
       0.055136073 -0.040809877 0.048380334 -0.01910599
000180 dd 2d c9 bb 29 0f d5 bc d2 ff 2d 3d b6 29 44 3d
       -0.0061395005 -0.026008205 0.042480297 0.04789134
000190 e1 d5 f2 3c ef 98 b8 bd 02 be c2 bc 65 57 24 bb
       0.029643001 -0.09013545 -0.023772243 -0.0025076505
0001a0 7f 62 90 3d ce b7 46 3d 31 38 5c 3c 26 b3 77 3d
       0.07050037 0.048515134 0.013441131 0.060473584
0001b0 48 a9 4c bd 78 71 2c bc 3c 05 e7 3c 87 70 a3 3c
       -0.049966127 -0.0105251 0.028200738 0.019951118
0001c0 e4 69 2a bd 65 b7 f2 3c b7 31 98 bd 4c ae 87 3c
       -0.04160489 0.029628465 -0.07431357 0.016562603
0001d0 ce 30 9e 3b 11 41 59 bd 9f e8 10 bc 12 88 f1 3b
       0.0048275953 -0.053040568 -0.008844524 0.007370957
0001e0 33 63 f1 bb 79 22 cc 3d 02 9d e2 bc 6b 1c 86 3d
       -0.007366562 0.09967513 -0.027662758 0.06548389
0001f0 0e 9c ad bd 08 64 5f bd 85 0a 5c 3d e3 2f 8a bd
       -0.08477031 -0.054538757 0.05372097 -0.06747415
000200 48 69 89 bc f9 6d 73 bc 0b b6 7d bd 19 1e 70 3d
       -0.016773835 -0.0148577625 -0.061941188 0.058622453
000210 d2 2f c6 bc ee e9 29 3d 91 f1 94 3c e7 8e 2e bc
       -0.024192724 0.04148286 0.018181594 -0.010654188
000220 39 ff aa bd 96 66 a9 bd 51 45 cf bd 28 35 9f bc
       -0.08349461 -0.0827152 -0.10120643 -0.019434527
000230 dd 18 00 bd 57 9c 91 3d b9 bb 75 3c 0a c2 89 3d
       -0.03127371 0.071098976 0.01499837 0.06726463
000240 71 6f 29 3d 96 fd d4 bc 0d dc 86 bd 9c 03 2e 3d
       0.041366044 -0.025999825 -0.0658494 0.04248391
000250 53 ac f2 bd b6 43 ac bd 4d 7a 3c bd b6 69 35 3d
       -0.118492745 -0.08411352 -0.046015073 0.044290267
000260 b0 58 c0 bd b8 53 32 bd 44 80 65 3d f5 37 5e bd
       -0.09391916 -0.04353687 0.056030527 -0.054252584
000270 8e f2 e0 bd 8f 2c 54 bc 14 d4 6e 3a a8 de 56 bc
       -0.10983764 -0.012950077 0.00091105816 -0.013114609
000280 c6 71 1d 3b 0a db 87 3c eb 74 77 bd 0c d5 3d bd
       0.0024024113 0.016583938 -0.060414236 -0.046345755
000290 74 44 a0 3c 31 b8 59 bd 3b 98 0b 3d b6 19 1a 3d
       0.019563891 -0.053154174 0.034080725 0.037622176
0002a0 19 a1 81 3c c7 66 96 be a3 9b 6e 3d ce c5 ac 3c
       0.015823888 -0.29375288 0.058253895 0.021090414
0002b0 9d 2a 09 3d a1 ce 36 bb b8 29 65 bc 32 38 7c 3d
       0.033487905 -0.0027894157 -0.013986997 0.06157703
0002c0 11 78 9e bd 90 02 a9 36 5a f9 a8 bd a7 f9 11 bd
       -0.077377446 5.036891e-06 -0.08250685 -0.035638478
0002d0 cb e7 16 bd 4c e0 93 3d d3 9c b2 bd 53 a3 6c 3d
       -0.03684215 0.072205156 -0.08721318 0.057772946
0002e0 79 2d 8c ba 54 4f a4 bd 3c 99 e8 bc a3 ca 32 bb
       -0.0010694704 -0.08022943 -0.02839338 -0.0027281425
0002f0 82 49 7b 3d a3 bb 3e 3d 6b 14 38 3d a9 20 68 bc
       0.0613494 0.046565663 0.044941347 -0.014167943
000300 dc f9 e6 3c 1b 33 64 3d d4 d1 01 3d ff 42 76 bb
       0.028195314 0.0557128 0.03169425 -0.0037576554
000310 94 f3 ab bd 65 d5 1d be fa 54 78 3d 3b 0f 57 3d
       -0.08396068 -0.15413435 0.060627915 0.05250476
000320 38 8d 55 3d 20 73 8d bd 8a 1e 78 bd fe 05 ac bb
       0.05213663 -0.06906724 -0.060576 -0.0052497378
000330 48 79 03 3b 67 84 8b bd cf 7b d4 3c da 1a 55 bd
       0.0020061303 -0.06812363 0.025937943 -0.05202756
000340 a9 ea cc 3d b7 25 e6 b9 76 e5 3e 3d 75 cb ac bd
       0.100056954 -0.00043897118 0.04660555 -0.08437244
000350 a8 cd f2 bd 02 0d 13 3d 3d 8d 91 3c e0 9d 7d bc
       -0.11855632 0.035901077 0.017767543 -0.015479535
000360 41 a3 d4 bc 43 95 73 bd a0 0f 9d 3d 76 ec 99 bd
       -0.025956752 -0.05946852 0.07668996 -0.075158045
000370 79 81 3c bc eb 3c 70 3d bb ed 40 3a 2c 91 4c bd
       -0.011505478 0.058651846 0.00073596434 -0.049943134
000380 d3 51 33 3c 7c ec 4a bd 1a ac a1 3d 96 9d 86 3c
       0.010944801 -0.049541935 0.07894154 0.016432565
000390 1b db 74 3d a3 5d 37 bd 59 a5 95 3d 27 fa 4e bd
       0.059779268 -0.044767033 0.07306928 -0.050531533
0003a0 4d e0 11 bd 48 6b aa 3c dd fc 0c bc bd 15 8d bd
       -0.0356143 0.020803109 -0.008605209 -0.06888912
0003b0 14 ee 03 bd 84 f2 a4 bd 07 24 26 3d fc b9 31 3d
       -0.03220947 -0.08054069 0.040561702 0.04339026
0003c0 98 39 76 3d 2d 6c d2 3b 38 c2 59 bd b0 95 ad 3c
       0.06011352 0.006421587 -0.053163737 0.02118954
0003d0 74 91 93 3c 3c c0 87 bd e0 63 bf bc e7 ea b5 bd
       0.018013693 -0.06628463 -0.023363054 -0.08882695
0003e0 e9 f9 7e 3c 3c b7 b9 bd fb 71 52 bd 59 b4 9f bd
       0.015562513 -0.09068152 -0.05137823 -0.077980705
0003f0 36 96 de b9 19 a8 89 bd 19 11 06 be e4 17 8b 3d
       -0.00042455056 -0.06721515 -0.1309246 0.06791666
