NRI/logs/exp2/encoder-first-with-20-epoch.pt (torch, 695347 bytes, 34 tensors)

mlp1.fc1.weight f4 [128, 30]
000000 1b b8 c9 bd 60 54 7a bd d7 42 31 3c 37 8f 68 bd
       -0.098495685 -0.061115623 0.0108191585 -0.056777205
000010 be 7a 1d bd e5 c5 b5 bd b2 24 3e 3d 54 41 6a 3e
       -0.038447134 -0.08875636 0.046421714 0.22876483
000020 84 9a 23 be 8f 22 2b 3e 62 c1 9f 3d 04 66 d3 bc
       -0.15976912 0.16712402 0.07800557 -0.02580548
000030 14 ef 77 bd 2e c7 9f 3d a3 7d ce bd be a1 50 bd
       -0.060530737 0.078016624 -0.10082557 -0.0509355
000040 fe 3b 9b be 78 a1 0c 3d ef b1 78 3e 90 7c fe bc
       -0.30319208 0.034333676 0.24286626 -0.031065255
000050 1f b9 a0 39 2a 9f fd bc ba dd 93 3d 42 dd 29 be
       0.00030655504 -0.030959684 0.07220025 -0.1658831
000060 28 c7 d7 3c 15 39 4a 3d e2 f3 a2 bd 54 28 9d 3d
       0.026340082 0.049370844 -0.07956673 0.076737076
000070 fa 78 5b 3d 9b d3 e2 3d 55 ce f5 3c d5 0e d3 bd
       0.05358217 0.11075517 0.030005613 -0.10305563
000080 0f a1 3d 3e 77 60 8d 3d fa 30 81 3e 97 d0 5b be
       0.1851847 0.06903165 0.2523268 -0.2146629
000090 e9 b1 cf bc f3 13 9e bd b4 f8 3b bc 62 21 4e be
       -0.025353389 -0.07718649 -0.01147287 -0.20129922
0000a0 a8 d9 b5 bd 22 e2 43 bd ae c5 73 be 40 10 9f bd
       -0.08879405 -0.04782308 -0.23805878 -0.07766771
0000b0 1e 8e 57 be 70 fe 25 bd b4 ab e9 3d a4 0a 00 be
       -0.21050307 -0.040525854 0.11409703 -0.12504059
0000c0 e7 fd a2 3d f1 cc 0e 3e 60 61 20 3d a5 d3 27 3d
       0.07958584 0.13945366 0.039155364 0.040973324
0000d0 bc 70 23 3d 11 80 fc bd 6c 35 ce bd 40 ec 35 3c
       0.039902434 -0.12329114 -0.10068783 0.01110369
0000e0 0d 94 26 bc 83 f0 8b bc 6a 94 42 be 20 64 42 3d
       -0.010167134 -0.017082458 -0.19001928 0.047458768
0000f0 7e cd e8 bd 35 b3 c0 3d 04 90 43 3c 53 f3 76 3d
       -0.113673195 0.09409181 0.0119361915 0.060290646
000100 2b 4c b7 3d e2 89 9e 3e 6b fe 5b 3d 52 2d d9 bd
       0.08950075 0.3096457 0.05370943 -0.10604347
000110 4f 7a c8 bd d1 6d 41 3d 24 30 2f 3e e7 b8 d5 bd
       -0.097889535 0.04722387 0.17108208 -0.10435658
000120 0f 29 96 bd cd 94 d0 bd 67 af 8c 3d 42 5b e2 3d
       -0.0733205 -0.101846315 0.06869393 0.11052562
000130 52 b9 2a be df d8 4d 3c 1a f9 7a 3e 67 0a 8d bd
       -0.16672257 0.012563913 0.24509087 -0.0688675
000140 f4 aa d6 3d 77 e3 0e be 58 0a 50 3d 8b 8f a0 3c
       0.104818255 -0.13953958 0.050791115 0.019599697
000150 b5 f4 19 3d 29 5d da bd 30 07 07 3d 21 96 24 3e
       0.037586886 -0.106623 0.03296584 0.16072895
000160 bb e1 97 bb b5 7c 7f be e9 1e 3c be 89 76 07 bd
       -0.0046350635 -0.24949916 -0.18371166 -0.03307203
000170 c0 c0 48 bd fc da 93 3c 6e 5a ed 3d 8d dc 25 3d
       -0.049011946 0.018048756 0.11589514 0.040493537
000180 a1 b0 6e 3c 7d 1a 7b bd ed de ed bd 8d 86 9e bd
       0.014568479 -0.061304558 -0.11614785 -0.07740507
000190 9e d6 ba ba e0 d3 1d 3c 22 ea 37 bc 17 3f 6c 3e
       -0.0014254635 0.0096330345 -0.011225255 0.23070942
0001a0 47 a1 82 bd d0 df df bc 7f d6 b3 bd 4d 66 30 3e
       -0.063784175 -0.027328402 -0.08781146 0.17226525
0001b0 20 c6 aa bd a7 58 f6 bb 63 09 0d be 8c b5 f6 3c
       -0.083385706 -0.0075178924 -0.13773112 0.030115865
0001c0 00 87 24 3d c2 7e 18 bc 46 d0 17 3e fd 48 85 bb
       0.04016781 -0.009307565 0.14825544 -0.004067539
0001d0 96 64 05 bd 67 f1 f8 3c 1d b8 6b 3e 2f 0b 88 3d
       -0.03256663 0.030388547 0.23019452 0.06642758
0001e0 8a fb 4c 3d e7 8a 8f 3d b3 df e6 bc 38 97 4c 3d
       0.050044574 0.070089154 -0.02818284 0.0499489
0001f0 42 59 18 3e 73 17 23 3e e1 fe ff bc a2 73 18 3b
       0.14877799 0.15926914 -0.031249465 0.0023262282
000200 a0 87 a5 3c df 66 f2 3d b6 0d d5 3d 14 9f b5 bd
       0.020206273 0.11836027 0.10403006 -0.08868232
000210 6f bf 08 be 08 58 ff 3c 0e 88 21 bc 21 dd 04 be
       -0.13354276 0.031169906 -0.009859098 -0.12974979
000220 0d 3b 73 be 00 41 f6 3c 24 4e 3d 3d ef f4 d6 3d
       -0.23752995 0.030060291 0.0462171 0.10495936
000230 e2 51 d9 3d 4c 7d 9b bd c8 b9 e0 bc 7f 9e 8f bd
       0.10611321 -0.07592258 -0.027432337 -0.070126526
000240 c5 cd 9b bd 04 90 1b 3e 90 27 13 3c 93 e0 03 bd
       -0.07607607 0.15191656 0.0089816 -0.032196593
000250 24 a1 66 be 55 e5 90 3d 3d 18 47 be 41 75 a1 bd
       -0.22522408 0.070749916 -0.1944284 -0.078836925
000260 ae 0c 56 3d 1a 1d 84 3d 85 e0 1e be 57 06 49 bd
       0.052258186 0.06450863 -0.15515335 -0.04907831
000270 43 04 b2 3d 40 ff ce 3c 95 a8 1a bd aa bf aa 3d
       0.08692219 0.025268197 -0.03775843 0.08337338
000280 88 bb c1 bd 86 eb 06 3e 69 d0 54 ba fb ff 4e 3e
       -0.09459597 0.13175783 -0.0008118214 0.20214836
000290 25 47 b3 3c f0 db 73 bd 3a 74 76 bd 48 b9 0a be
       0.02188451 -0.05953592 -0.060169436 -0.13547242
0002a0 9d 3c a2 bc fb da 1b 3d 2e a9 57 bd a3 6e 7a 3d
       -0.019804293 0.038050633 -0.052651577 0.061140668
0002b0 44 c1 a8 bd ea 2c aa bd 05 05 eb bd c0 f6 42 be
       -0.082399875 -0.08309348 -0.11475567 -0.1903944
0002c0 31 42 b6 bc 57 ef d9 3d 29 ff b2 bd ff 64 63 bd
       -0.02224836 0.106413536 -0.08740074 -0.05551624
0002d0 cc 28 02 be 82 5f 27 3e 40 cf ef bb b7 bf be bd
       -0.12710875 0.16345027 -0.0073184073 -0.093139105
0002e0 b9 e8 92 3d 36 18 89 bd ce b8 cc bd 7a f0 43 3d
       0.071732946 -0.06694071 -0.09996186 0.04783676
0002f0 88 d7 01 3e ba 8d af 3d e6 ea 1c 3d 86 78 b1 3d
       0.12679875 0.08571954 0.038309954 0.08665566
000300 1c 30 0e be a2 ea 69 be a7 39 3f bc 86 6b 5a 3c
       -0.1388554 -0.22843412 -0.01167146 0.0133313
000310 41 6d 67 bd 76 8b 72 3d aa e0 5c bc 9b 62 44 3c
       -0.056500677 0.05921503 -0.013481298 0.0119864
000320 3d 14 a3 bd ca 68 79 bd 1f c6 98 3d 78 34 f4 bc
       -0.079628445 -0.06089095 0.074596636 -0.029810175
000330 08 26 4c 3e a9 57 fa bd 52 2e 50 3e 23 ae d4 3d
       0.19936383 -0.12223751 0.2033017 0.103847764
000340 36 56 f6 3b 55 1f 29 3e 97 c5 8a 3e 16 ed 4f bd
       0.0075176014 0.16515858 0.27103874 -0.050763212
000350 00 bf 10 3c 7a b2 0b 3d 1a fc 2c 3e a2 6f f2 3d
       0.0088346 0.034105755 0.16893044 0.118376985
000360 41 d3 78 3d a7 cc 18 3d de 1a d9 3c 81 c9 33 bd
       0.060748342 0.037304547 0.02650207 -0.04389334
000370 d5 55 cc bc 80 d3 f2 bd 98 43 88 bd 7a 66 c2 3d
       -0.024943272 -0.11856747 -0.066535175 0.09492202
000380 3e 6e 1d be cc 1c 9a 3d 2d 90 e8 bd 16 5d c6 bd
       -0.15374085 0.07525024 -0.11355624 -0.096857235
000390 f5 6f c4 bb 05 b1 54 bd bd 72 4e bd 2a a7 c1 bd
       -0.0059947916 -0.05192663 -0.05040239 -0.09455712
0003a0 52 43 0f 3e 93 3c 2f bd 1d de bd 3c 0c 16 86 3d
       0.13990524 -0.042782377 0.0231772 0.06547174
0003b0 1e 0d 1b 3c 79 06 47 bd f0 50 34 3e 54 0c cd 3d
       0.009463577 -0.048590157 0.17609 0.10012117
0003c0 06 16 ec bd 61 c8 45 3d 87 27 45 be 32 fd 62 3e
       -0.11527638 0.0482868 -0.1925336 0.22166899
0003d0 88 ca 97 3c 54 d5 b4 bd 1b 60 45 bd 3d a1 b4 3d
       0.018529192 -0.088297516 -0.048187356 0.08819816
0003e0 1e 7e 84 be 7e 34 08 3d b5 4d f1 bd 8c 53 b1 3d
       -0.2587747 0.033253185 -0.117823996 0.086585134
0003f0 7d bc dc 3c 8e 11 f8 3c 44 3d 3c 3d c5 36 b0 3d
       0.026945347 0.030281808 0.045956865 0.086041965

mlp1.fc1.bias f4 [128]
000000 5c e1 d2 3d d6 95 c6 3d ec ac c6 3d 92 79 c6 3d
       0.1029689 0.09696548 0.09700951 0.096911564
000010 d2 e6 d2 3d 59 a5 c6 3d e0 a4 c6 3d 35 e6 d2 3d
       0.10297932 0.09699506 0.09699416 0.10297815
000020 67 a9 c6 3d 0b 14 c7 3d 5c f6 d2 3d 81 ab c6 3d
       0.0970028 0.0972062 0.103008956 0.097006805
000030 9f 9c c6 3d 90 7a c6 3d f7 f0 d2 3d 03 d8 d2 3d
       0.09697842 0.09691346 0.10299867 0.10295107
000040 98 b4 c6 3d bd a6 c6 3d e9 fb d2 3d 5b 99 c6 3d
       0.09702414 0.096997716 0.10301954 0.09697219
000050 ac ac c6 3d a1 d2 d2 3d c9 ef d2 3d d2 f0 d2 3d
       0.09700903 0.102940805 0.10299642 0.10299839
000060 bf a5 c6 3d bb a6 c6 3d 0e 04 d3 3d 63 ee d2 3d
       0.09699582 0.0969977 0.10303508 0.10299375
000070 67 e6 d2 3d 76 4d c6 3d f8 04 d3 3d 2d e1 d2 3d
       0.10297852 0.09682743 0.10303682 0.10296855
000080 02 ec d2 3d c4 ec d2 3d 55 b0 c6 3d a8 1a d3 3d
       0.10298921 0.10299066 0.097016014 0.10307819
000090 f5 a0 c6 3d 25 65 c6 3d a4 aa c6 3d a2 71 c8 3d
       0.09698669 0.096872605 0.09700516 0.09787299
0000a0 42 a8 c6 3d 97 9c c6 3d c5 a2 c6 3d 85 f4 d2 3d
       0.097000614 0.09697836 0.096990146 0.10300545
0000b0 60 a4 c6 3d 8f a2 c6 3d d5 e3 d2 3d 23 b1 c6 3d
       0.09699321 0.09698974 0.10297362 0.09701755
0000c0 a7 fa d2 3d 7b cc d2 3d 7a a7 c6 3d 8d a6 c6 3d
       0.103017144 0.10292908 0.09699912 0.09699736
0000d0 7f 9a d2 3d 9d ec d2 3d 6c fb d2 3d 86 12 d3 3d
       0.10283374 0.10299037 0.10301861 0.103062674
0000e0 86 91 c6 3d 31 fb d2 3d c4 a5 c6 3d 68 ea d2 3d
       0.09695725 0.10301817 0.09699586 0.10298616
0000f0 80 a6 c6 3d f9 cc c6 3d 6c 8b c6 3d 1e a3 c6 3d
       0.09699726 0.09707064 0.09694561 0.09699081
000100 e9 ab d2 3d cf a3 c6 3d 84 f2 d2 3d 8e a4 c6 3d
       0.102866955 0.09699213 0.103001624 0.09699355
000110 df b2 c6 3d bb b7 c6 3d 64 94 c6 3d c9 f2 d2 3d
       0.09702086 0.097030126 0.09696272 0.10300214
000120 20 a3 c6 3d f8 e9 c6 3d 87 ab c6 3d e2 e8 d2 3d
       0.096990824 0.09712595 0.09700685 0.10298325
000130 49 f4 d2 3d c4 aa c6 3d 6b ae c6 3d 3a 56 c6 3d
       0.103005 0.0970054 0.09701236 0.09684415
000140 12 fe d2 3d b3 f4 d2 3d 8a a6 c6 3d 43 93 c6 3d
       0.10302366 0.10300579 0.096997336 0.09696057
000150 89 ef d2 3d 0d 94 c6 3d 83 fd d2 3d f6 aa c6 3d
       0.10299594 0.09696207 0.1030226 0.09700577
000160 ef a1 c6 3d 92 ac c6 3d 71 a5 c6 3d b3 ac c6 3d
       0.09698855 0.09700884 0.09699524 0.097009085
000170 f8 02 d3 3d 59 8c c6 3d ad a3 c6 3d e5 f2 d2 3d
       0.103033006 0.09694738 0.096991874 0.10300235
000180 0d f2 d2 3d 38 ac c6 3d 53 d3 c6 3d d6 96 c6 3d
       0.10300074 0.09700817 0.09708276 0.096967384
000190 6e f9 d2 3d 81 f3 d2 3d 50 ee c6 3d f9 b7 c6 3d
       0.10301481 0.10300351 0.09713423 0.09703059
0001a0 0b 99 c6 3d 68 f3 d2 3d 5d f6 d2 3d cc 07 d3 3d
       0.096971594 0.10300332 0.10300896 0.103042215
0001b0 92 a4 c6 3d 3e 97 c6 3d d4 9a c6 3d a1 b4 c6 3d
       0.09699358 0.09696816 0.096975 0.09702421
0001c0 00 88 c6 3d 01 a1 c6 3d 4b 7c c6 3d b1 99 c6 3d
       0.09693909 0.09698678 0.09691676 0.09697283
0001d0 62 36 cd 3d 56 1f c5 3d 35 f0 d2 3d 0d f5 d2 3d
       0.10020138 0.096251175 0.10299722 0.10300646
0001e0 a4 e4 d2 3d d7 9e c6 3d 92 f4 d2 3d e1 f4 d2 3d
       0.10297516 0.09698265 0.10300554 0.10300613
0001f0 02 e4 d2 3d 97 f1 d2 3d a7 de d2 3d 28 a5 c6 3d
       0.10297395 0.10299986 0.10296374 0.0969947

mlp1.fc2.weight f4 [128, 128]
000000 e3 86 20 be 83 97 05 3d fb b9 7d 3d 51 f4 fd 3d
       -0.15676455 0.032615196 0.061944943 0.12400115
000010 30 24 5a 3d ff f2 c5 3d 01 56 d4 3d bf 53 32 bd
       0.053257167 0.096654885 0.103679664 -0.043536898
000020 fa 04 52 3d e0 a3 41 bc f8 49 c9 bd aa c8 5d bd
       0.051274277 -0.011818856 -0.098285615 -0.054146446
000030 bf 56 2d 3d 41 7c b8 3d 61 96 9f 3c 2c 3d 83 3d
       0.042319056 0.090080746 0.019480886 0.06408152
000040 48 47 c9 bd df 31 84 bd a6 8e 03 be ac a8 e6 bd
       -0.09828049 -0.06454825 -0.12847385 -0.1126264
000050 3c cf 18 3d 7d dc 8e bd 0f 10 26 bc 16 e4 4a be
       0.03730701 -0.069756486 -0.010135665 -0.1981357
000060 53 81 58 be d3 3e 04 3e a9 76 5a 3d 91 bf 06 be
       -0.21143083 0.1291459 0.05333582 -0.13159014
000070 3b 5a a3 3c 09 b3 ad 3c cf c9 1c bd 3b c2 87 3c
       0.019940486 0.021203535 -0.038278397 0.016572108
000080 d9 c4 81 bd f3 81 d9 3c a8 69 fa 3d 27 c0 84 3d
       -0.06336374 0.026551222 0.122271836 0.06481963
000090 16 d2 be 3d 72 35 8b bd 47 34 c4 3d 82 86 5f 3d
       0.093174145 -0.06797303 0.095802836 0.054571636
0000a0 5a 2e e9 3c c2 b2 16 be 2c bc 60 3c 3d 94 2e bd
       0.028464485 -0.14716628 0.013716739 -0.04262184
0000b0 ea 63 02 3c 4e 66 57 3b 6f 1c 00 3e d0 8c 54 bd
       0.007958392 0.0032867375 0.12510847 -0.0518921
0000c0 cf 4e 05 3d e6 85 bb bd a2 7b b6 3c 42 8c 84 bd
       0.03254586 -0.091563985 0.02227575 -0.064720646
0000d0 e6 a1 42 3d 9a a1 91 bc 6c 2f 14 bd a3 11 2b bd
       0.04751768 -0.017777253 -0.036178038 -0.041764867
0000e0 8f 6e a8 bc 41 1b 56 bd e1 ae 96 3d fe 69 bc bd
       -0.020560531 -0.052272085 0.07357574 -0.09199904
0000f0 30 f7 5f be 83 ca 73 3c b8 2c 0f 3e 52 af 87 3d
       -0.21871638 0.0148798255 0.13981903 0.066252366
000100 fc 0b 2e be eb 6a f9 3c 76 45 01 bd 78 73 54 bd
       -0.16996759 0.03044649 -0.031560384 -0.051867932
000110 50 44 c2 3c 4d f3 93 bd 5f 48 a9 bd b5 0a 5b 3b
       0.023714215 -0.0722414 -0.08265757 0.003342313
000120 49 5e 21 3d 7a 37 84 bd 05 82 5c 3d 31 c9 09 bd
       0.039396558 -0.06455894 0.053834934 -0.033639137
000130 bf 5d f1 3d 56 f1 78 bc 6f 8c 7a bd b6 a1 56 bd
       0.11785459 -0.015194258 -0.061169084 -0.052400313
000140 8a fe 43 bc 20 a2 b2 bc 7f 93 8f bd 7b 73 2d bd
       -0.011962542 -0.021805823 -0.070105545 -0.04234646
000150 49 d0 27 3d 07 11 d1 bd fa 1b bd 3c 7e 8a 04 bd
       0.04097012 -0.10208326 0.02308463 -0.03235864
000160 ec dd 43 be 0c 1c 98 3d fa 41 da bc 0c 98 9b 3b
       -0.19127625 0.074272245 -0.026642788 0.00474835
000170 7b f3 3c bb 8e 68 77 3c 26 17 0e 3e 1d 4b b7 3d
       -0.002883165 0.015100611 0.13876018 0.089498736
000180 80 9e 50 bd 25 2e 3f bd af ec 5a 3d a1 7d 84 3d
       -0.050932407 -0.046674866 0.053448375 0.06469274
000190 ac 6e a5 bc 33 2d ca 3d 09 d4 78 bc d6 a9 18 3d
       -0.020194374 0.09871902 -0.015187272 0.037271343
0001a0 de 61 d3 bd 4e 70 e2 bd 31 c6 7f bd e2 19 5b 3c
       -0.10321401 -0.11056577 -0.06244487 0.01337287
0001b0 65 f4 4c 3d 54 b0 d3 3d 22 f0 84 be bd 92 9c 3d
       0.05003776 0.10336366 -0.25964457 0.076451756
0001c0 4c 9b b1 bc b1 db c8 3d a7 04 9e bd b0 49 18 3d
       -0.021680497 0.09807528 -0.07715731 0.03717965
0001d0 1c c6 29 3d 48 7a 16 be c6 21 8d bb e1 16 9c bc
       0.041448697 -0.14695084 -0.0043070046 -0.019053878
0001e0 b3 9f c5 3d c4 65 16 bb 9e 07 dc 3d 19 f2 fa bd
       0.09649601 -0.002294884 0.1074364 -0.12253208
0001f0 b6 74 1b 3d 27 f1 bd bd 86 5d 7a 3d 7b 46 00 3d
       0.0379531 -0.09274512 0.061124347 0.031317215
000200 07 b6 8b 3d 40 9f 46 bd 93 6e be 3c b8 0e f0 3c
       0.06821828 -0.048491716 0.023246085 0.029303893
000210 df 55 c3 3d 9c c0 c6 bc d4 fb 9b bd 0a 49 19 3d
       0.09537863 -0.024261765 -0.07616392 0.03742317
000220 3d 63 fb bd 73 0e ca 3c fa 97 ce 3d dd 52 b0 3c
       -0.122747876 0.024665093 0.10087581 0.021523887
000230 37 5a 02 3d b1 28 be bd 9c b3 9b 3c e6 4f 06 bd
       0.031824317 -0.09285105 0.019006543 -0.03279104
000240 e1 53 bd bd 57 28 0b 3e 6b ef 04 3d 50 bc 69 be
       -0.09244514 0.13589607 0.03245489 -0.22825742
000250 3c 41 8e bc 94 b2 b8 3d 4a c1 45 bd 3f 14 4b bb
       -0.01736509 0.09018436 -0.048280038 -0.003098741
000260 97 b8 d8 bd 22 13 09 be 65 f0 6f 3d 2e 49 a2 bd
       -0.10582083 -0.13386205 0.058578867 -0.07924114
000270 0b ee 0a bd 30 55 04 3d 71 f5 17 3c 82 d5 65 3c
       -0.03391842 0.032307804 0.009274826 0.014027955
000280 f9 cf 17 be 53 ce 2e 3d 92 00 b1 bd a6 a2 21 be
       -0.14825429 0.042677235 -0.08642687 -0.15784702
000290 77 09 47 3d ec 10 ad 3d 71 df 83 3d a8 01 99 bc
       0.04859301 0.08450493 0.064391024 -0.018677548
0002a0 b5 23 14 be 30 05 d9 bc da 01 d1 3d 78 7a 40 be
       -0.14466746 -0.026491731 0.10205431 -0.18796718
0002b0 b7 22 e6 bd 84 b4 ad 3c 1e d0 5d bd d8 a7 b2 bc
       -0.1123709 0.02120424 -0.054153554 -0.02180855
0002c0 39 78 be 3d 20 0d 32 bd 8f 47 3d 3d fb ae 3f be
       0.093002744 -0.04346955 0.04621082 -0.18719094
0002d0 d9 2f 5e 3d 22 ef d0 bc a3 ad ba bd ea 9b 96 3c
       0.05424485 -0.025504652 -0.0911515 0.018384892
0002e0 02 52 0d bd 15 88 8c 3c 5a 43 a7 bd 99 12 3a 3d
       -0.034502037 0.017154733 -0.08167143 0.045427892
0002f0 b0 46 3f 3e 4d fa 2b 3d ed 54 e6 bc ed 69 64 bd
       0.18679309 0.041986752 -0.028116668 -0.05576508
000300 e7 51 55 bb b1 08 87 bd a3 b7 83 bd 17 0e a5 bd
       -0.0032550038 -0.06593455 -0.0643151 -0.08059328
000310 c7 4d 98 bc ed c1 d5 bd 76 48 6c 3d 8e 8f 9d bc
       -0.018591775 -0.10437379 0.05768629 -0.019233491
000320 4c 75 18 3d ac 1d b1 b9 24 79 8a bc 4b 1d b7 3d
       0.037221238 -0.00033782178 -0.016903467 0.08941134
000330 b2 6a 9c bd 65 2e 39 bc 56 ee 58 bb 7c 16 a5 bc
       -0.07637538 -0.011302565 -0.0033101044 -0.020152323
000340 d9 ba 05 3e d3 e9 56 bc ae 6a a7 3d b4 d7 f2 3d
       0.13059558 -0.0131172715 0.081746444 0.11857548
000350 28 33 08 3b 8a b7 f5 bd ac a9 2b bd d7 8b 4e 3d
       0.0020782445 -0.11997898 -0.04190986 0.05042633
000360 83 56 ec 3d ec 58 44 3e a0 77 ca 3d 02 8e 01 3c
       0.11539938 0.19174546 0.09886098 0.007907392
000370 8b 03 9f 3c 88 13 e7 bd ba b1 f7 3d d9 3c a3 3d
       0.01941087 -0.11283022 0.120944455 0.0797059
000380 b9 88 30 bc 9c 1f 9d bd 4c 53 a7 3d 92 05 88 3d
       -0.010774785 -0.07672045 0.081701845 0.066416875
000390 d7 28 80 3c f5 0c 20 3d 82 bf 6c 3d d0 9c 8a 3d
       0.015644474 0.039074857 0.057799824 0.06768191
0003a0 0c 18 e4 3b 57 2b 3b bd 08 ec bb bd 8a 42 2e 3d
       0.0069608744 -0.04569563 -0.09175879 0.042543925
0003b0 4b 28 1b 3d 14 54 58 3e fb 6d ff bc 6b 4a 8e bc
       0.037880223 0.21125823 -0.031180372 -0.01736947
0003c0 81 f4 77 3d a9 da b5 3d 07 ba ac bd f9 14 ed bd
       0.06053591 0.08879597 -0.084339194 -0.11576266
0003d0 79 61 e2 3d 64 09 12 bd 27 3a 95 3d 7b 8f b0 3d
       0.11053748 -0.035653487 0.07286482 0.08621117
0003e0 05 d1 5e 3d e3 48 c7 3d 1b 37 16 3e 06 81 c5 3c
       0.054398555 0.09730699 0.14669459 0.024109375
0003f0 88 d6 2d be 8f 47 e6 bd 6e da 83 3c 9a 01 5c bc
       -0.16976368 -0.112441175 0.016095366 -0.013428116

mlp1.fc2.bias f4 [128]
000000 e7 aa c6 3d b7 f7 d2 3d 5d ec d2 3d 31 b0 c6 3d
       0.09700566 0.10301154 0.10298989 0.097015746
000010 ae a4 c6 3d 2e b1 c6 3d 42 a4 c6 3d 1b fe d2 3d
       0.09699379 0.09701763 0.096992984 0.10302373
000020 dc ad c6 3d f6 a2 c6 3d ad ec d2 3d 01 ec d2 3d
       0.0970113 0.09699051 0.102990486 0.102989204
000030 a4 22 d3 3d fd 5c c6 3d 90 3c c6 3d e6 49 d3 3d
       0.103093415 0.09685705 0.0967952 0.103168294
000040 64 ff d2 3d 09 b6 c6 3d 34 af c6 3d 51 76 c6 3d
       0.10302618 0.09702689 0.09701386 0.09690536
000050 b5 e6 d2 3d 4a aa c6 3d 58 f9 d2 3d 12 e2 d2 3d
       0.1029791 0.09700449 0.10301465 0.10297026
000060 2c e5 d2 3d 3f 08 d3 3d 5b c9 c6 3d 3e c0 c6 3d
       0.10297617 0.10304307 0.09706374 0.09704636
000070 08 eb c6 3d df f2 d2 3d 7d ff d2 3d 53 a5 c6 3d
       0.097127974 0.1030023 0.10302637 0.09699502
000080 a0 fa d2 3d f8 38 c6 3d 2d b7 c6 3d f7 9a c6 3d
       0.10301709 0.09678835 0.09702907 0.09697526
000090 c1 ec d2 3d 78 a1 c6 3d 19 26 c7 3d c1 f0 d2 3d
       0.102990635 0.096987665 0.097240634 0.102998264
0000a0 49 09 d3 3d 1a da d2 3d 76 e2 d2 3d 30 ae c6 3d
       0.103045054 0.10295506 0.102971 0.097011924
0000b0 f6 9f c6 3d 33 f3 d2 3d b3 ad c6 3d 14 ba c6 3d
       0.09698479 0.10300293 0.09701099 0.0970346
0000c0 89 f0 d2 3d 7d f8 d2 3d d9 f3 d2 3d 9f fe d2 3d
       0.10299785 0.10301302 0.103004165 0.10302471
0000d0 8e a3 c6 3d 90 24 d3 3d 9e f3 d2 3d 58 f2 d2 3d
       0.09699164 0.10309708 0.103003725 0.1030013
0000e0 0f 14 d3 3d b0 a5 c6 3d 3d a3 c6 3d bc 9c c6 3d
       0.1030656 0.09699571 0.09699104 0.096978635
0000f0 fb 86 c6 3d d4 fc d1 3d 3d ed d2 3d 42 fd d2 3d
       0.09693714 0.10253301 0.10299156 0.10302211
000100 32 c5 c6 3d 20 ef d2 3d 9e a1 c6 3d 93 f3 d2 3d
       0.09705581 0.10299516 0.09698795 0.10300364
000110 eb eb d2 3d 90 e3 d2 3d 55 b9 c6 3d 66 a5 c6 3d
       0.10298904 0.1029731 0.09703318 0.09699516
000120 40 f1 d2 3d 93 03 d3 3d a5 eb d2 3d 62 aa c6 3d
       0.10299921 0.10303416 0.10298852 0.09700467
000130 6b aa c6 3d 44 f4 d2 3d ee f7 d2 3d 02 fb d2 3d
       0.097004734 0.10300496 0.10301195 0.10301782
000140 c0 b6 c6 3d 2d 0d d3 3d 48 a7 c6 3d 2e eb d2 3d
       0.097028255 0.103052475 0.09699875 0.10298763
000150 83 8b c6 3d 65 98 c6 3d a8 a5 c6 3d a7 a5 c6 3d
       0.096945785 0.09697036 0.09699565 0.096995644
000160 d5 d2 d0 3d 03 02 d3 3d 05 9b c6 3d 68 a5 c6 3d
       0.10196463 0.10303118 0.096975364 0.096995175
000170 eb a1 c6 3d 0c a8 c6 3d f1 9a c6 3d 44 05 d3 3d
       0.09698852 0.09700021 0.096975215 0.10303739
000180 71 01 d3 3d 71 ea cc 3d 9b 0f c7 3d d3 7f c6 3d
       0.10303009 0.10005654 0.097197734 0.09692349
000190 2e 91 c6 3d 15 d9 d2 3d 63 fa d2 3d 1c ec d2 3d
       0.096956596 0.10295311 0.10301664 0.102989405
0001a0 03 bc c6 3d 26 f4 d2 3d 68 a6 c6 3d 3a d7 d4 3d
       0.09703829 0.10300474 0.09699708 0.10392614
0001b0 42 a9 c6 3d 3a f4 d2 3d 09 f1 d2 3d c8 f0 d2 3d
       0.09700252 0.10300489 0.1029988 0.10299832
0001c0 6e e2 d2 3d 9f 97 c6 3d f4 f2 d2 3d 1e af c6 3d
       0.10297094 0.09696888 0.10300246 0.0970137
0001d0 5b 6a c6 3d bc a5 c6 3d c0 11 d3 3d 0b 8a c7 3d
       0.096882544 0.0969958 0.1030612 0.097431265
0001e0 93 ed d2 3d 06 a4 c6 3d 12 bb c6 3d 90 e4 d2 3d
       0.1029922 0.09699254 0.097036496 0.10297501
0001f0 e1 f6 d2 3d 7d a9 c6 3d ec 69 d1 3d df a2 c6 3d
       0.10300995 0.09700296 0.10225281 0.09699034

mlp1.bn.weight f4 [128]
000000 64 3d 7f 3f 80 3a 7f 3f 89 3b 7f 3f 7c 62 80 3f
       0.9970305 0.9969864 0.9970022 1.0030055
000010 51 3b 7f 3f 64 62 80 3f eb 3b 7f 3f 4a 62 80 3f
       0.99699885 1.0030026 0.997008 1.0029995
000020 56 62 80 3f 16 63 80 3f 61 62 80 3f 7f 3b 7f 3f
       1.003001 1.0030239 1.0030023 0.9970016
000030 e8 6d 80 3f 99 61 80 3f d6 61 80 3f 3d 36 7f 3f
       1.0033541 1.0029784 1.0029857 0.99692136
000040 3b 3b 7f 3f 00 3b 7f 3f 86 3b 7f 3f 6a 3b 7f 3f
       0.99699754 0.996994 0.997002 0.99700034
000050 55 62 80 3f f8 64 80 3f 63 33 7f 3f 62 3b 7f 3f
       1.0030009 1.0030813 0.99687785 0.99699986
000060 97 3b 7f 3f 83 3b 7f 3f 15 62 80 3f 47 62 80 3f
       0.997003 0.9970018 1.0029932 1.0029992
000070 df 62 80 3f 50 62 80 3f 73 62 80 3f f2 62 80 3f
       1.0030173 1.0030003 1.0030044 1.0030196
000080 f3 3a 7f 3f 3d 46 7f 3f 80 39 7f 3f c9 6b 80 3f
       0.99699324 0.9971655 0.99697113 1.0032893
000090 4d 3c 7f 3f b4 3b 7f 3f 84 62 80 3f 6f 65 80 3f
       0.99701387 0.99700475 1.0030065 1.0030955
0000a0 24 63 80 3f 7f 62 80 3f a4 3b 7f 3f 5e 62 80 3f
       1.0030255 1.0030059 0.9970038 1.0030019
0000b0 d8 62 80 3f 9d 62 80 3f d5 61 80 3f e1 3a 7f 3f
       1.0030165 1.0030094 1.0029856 0.9969922
0000c0 c7 62 80 3f 34 63 80 3f a0 3b 7f 3f cf 3a 7f 3f
       1.0030144 1.0030274 0.99700356 0.9969911
0000d0 58 62 80 3f 4d 3a 7f 3f 2f 62 80 3f 6f 3b 7f 3f
       1.0030012 0.99698335 1.0029963 0.99700063
0000e0 f8 3a 7f 3f dd 62 80 3f 32 45 7f 3f ae 62 80 3f
       0.99699354 1.0030171 0.9971496 1.0030115
0000f0 71 62 80 3f 7b 6b 80 3f fd 61 80 3f 97 62 80 3f
       1.0030042 1.00328 1.0029904 1.0030087
000100 37 62 80 3f 4b 62 80 3f 60 34 7f 3f 47 62 80 3f
       1.0029973 1.0029997 0.9968929 1.0029992
000110 73 3b 7f 3f c7 3d 7f 3f e4 62 80 3f 7d 8f 80 3f
       0.9970009 0.9970364 1.0030179 1.0043789
000120 be 3a 7f 3f c9 3b 7f 3f 4f 61 80 3f 2d 62 80 3f
       0.9969901 0.997006 1.0029696 1.0029961
000130 19 3b 7f 3f 6d 3c 7f 3f 09 3b 7f 3f da 63 80 3f
       0.9969955 0.9970158 0.99699455 1.0030472
000140 8d 3a 7f 3f 25 3c 7f 3f 2a 3b 7f 3f 11 3a 7f 3f
       0.99698716 0.9970115 0.9969965 0.9969798
000150 f3 3b 7f 3f 7c 3c 7f 3f eb 3b 7f 3f f0 61 80 3f
       0.9970085 0.99701667 0.997008 1.0029888
000160 7a 63 80 3f 30 3b 7f 3f 88 3b 7f 3f ba 3a 7f 3f
       1.0030358 0.9969969 0.9970021 0.99698985
000170 3b 31 80 3f fc 3a 7f 3f 5a 62 80 3f 70 3a 7f 3f
       1.0015024 0.9969938 1.0030015 0.99698544
000180 f6 3a 7f 3f c1 61 80 3f 0b 62 80 3f 0e 62 80 3f
       0.9969934 1.0029832 1.002992 1.0029924
000190 55 3a 7f 3f 15 3d 7f 3f d5 3a 7f 3f d1 61 80 3f
       0.9969838 0.9970258 0.99699146 1.0029851
0001a0 33 62 80 3f a0 62 80 3f 3d 3a 7f 3f 86 39 7f 3f
       1.0029968 1.0030098 0.9969824 0.9969715
0001b0 66 62 80 3f d7 61 80 3f 60 61 80 3f 7e 3b 7f 3f
       1.0030029 1.0029858 1.0029716 0.9970015
0001c0 12 5f 80 3f 65 3c 7f 3f fd 61 80 3f 6b 62 80 3f
       1.0029013 0.9970153 1.0029904 1.0030035
0001d0 2e 63 80 3f 37 3b 7f 3f 20 62 80 3f c6 63 80 3f
       1.0030267 0.9969973 1.0029945 1.0030448
0001e0 68 46 7f 3f a5 3b 7f 3f d7 3a 7f 3f ea 3b 7f 3f
       0.99716806 0.99700385 0.9969916 0.99700797
0001f0 6f 62 80 3f 4e 62 80 3f 75 62 80 3f 98 62 80 3f
       1.003004 1.003 1.0030047 1.0030088

mlp1.bn.bias f4 [128]
000000 40 2d 48 3b 73 76 48 bb e6 f8 44 3b 99 78 42 bb
       0.003054455 -0.003058818 0.0030055582 -0.0029673933
000010 42 e7 43 3b f8 14 45 3b 52 89 43 bb 80 be 46 bb
       0.002989248 0.0030072313 -0.0029836488 -0.003032595
000020 50 2f 44 bb 6e c3 45 bb 0f 39 44 bb f1 71 46 3b
       -0.0029935427 -0.00301763 -0.0029941236 0.0030280317
000030 b7 81 44 3b fc 78 45 bb b8 9b 44 3b 09 30 45 bb
       0.0029984543 -0.0030131927 0.0030000042 -0.0030088446
000040 1f 6e 46 3b 70 d4 47 bb 05 01 3f 3b 00 92 44 3b
       0.003027804 -0.0030491613 0.0029144895 0.002999425
000050 ef 1a 45 3b a7 0a 45 3b c0 36 41 bb 62 a3 44 3b
       0.0030075868 0.0030066164 -0.0029482096 0.003000461
000060 22 f3 41 3b eb 07 40 bb aa e1 43 bb bd eb 7e 3b
       0.0029594381 -0.0029301594 -0.0029889145 0.0038897835
000070 10 ea 49 3b 8d 56 42 bb 43 f8 43 3b 9d d6 44 bb
       0.0030809678 -0.002965364 0.0029902614 -0.0030035146
000080 3f 37 45 3b 4c 52 45 bb 45 5d 45 bb 67 6a 46 3b
       0.0030092744 -0.0030108867 -0.0030115407 0.0030275823
000090 b7 17 44 bb 92 5d 45 3b 91 ff 42 bb 2e 8e 44 bb
       -0.0029921362 0.0030115587 -0.002975438 -0.0029991972
0000a0 71 8a 43 bb ab 36 44 3b 05 dd 44 bb 85 82 3a 3b
       -0.0029837156 0.0029939811 -0.0030038964 0.0028459143
0000b0 ab 76 45 bb 70 db 44 3b 1f 41 4d 3b 3f 20 7d bb
       -0.0030130546 0.0030038022 0.0031319333 -0.0038623956
0000c0 73 2c 45 3b 00 2f 45 3b 73 1a 43 3b f0 06 44 bb
       0.0030086308 0.0030087829 0.0029770404 -0.0029911362
0000d0 2d 86 44 bb 1e 70 4a 3b d3 93 45 bb 7b cf 44 3b
       -0.0029987202 0.003088958 -0.0030147925 0.0030030895
0000e0 b4 62 44 bb 82 bd 44 bb e1 21 45 bb 5c 77 45 bb
       -0.0029966058 -0.0030020182 -0.0030080008 -0.0030130958
0000f0 56 86 47 3b e8 94 44 3b 2c 0d 45 bb 1b 33 45 3b
       0.003044506 0.0029995982 -0.0030067666 0.0030090276
000100 24 2b 45 3b db 4f 44 3b 81 d3 45 bb e5 ad 45 3b
       0.0030085528 0.0029954824 -0.003018588 0.0030163464
000110 c8 d0 44 3b 5f 98 40 bb 51 99 44 bb 7b 94 43 3b
       0.003003167 -0.0029387695 -0.002999861 0.002984314
000120 3c b9 44 bb e9 76 42 3b 8b e2 43 3b 2a e2 44 3b
       -0.0030017635 0.0029672927 0.0029889669 0.003004203
000130 34 4c 45 3b d5 98 44 3b 4c 5b 45 3b d5 39 45 3b
       0.0030105235 0.0029998322 0.0030114232 0.0030094285
000140 e3 58 44 3b 33 d4 44 3b 0b 93 44 bb 32 9c 44 3b
       0.0029960207 0.0030033707 -0.002999487 0.0030000326
000150 b1 e2 45 bb a5 ce 3e 3b 73 e3 40 bb 5c e4 44 bb
       -0.0030194933 0.002911487 -0.0029432445 -0.003004334
000160 a6 42 44 3b a8 7d 44 bb 7f 16 44 3b 8a bb 44 bb
       0.0029946952 -0.0029982124 0.0029920635 -0.0030019009
000170 fc 11 45 bb bf e3 46 bb 92 3b 46 3b db 4e 45 3b
       -0.0030070534 -0.003034815 0.003024791 0.0030106816
000180 c7 e0 45 bb 8d d8 44 bb 7e a5 44 bb 4e 28 45 3b
       -0.0030193792 -0.00300363 -0.0030005868 0.0030083838
000190 d2 e6 44 3b cd cd 44 bb d9 b7 44 3b 67 a1 44 3b
       0.0030044806 -0.0030029893 0.0030016808 0.003000343
0001a0 8e 75 43 bb cf e6 43 bb 4f 73 44 bb 71 c9 44 bb
       -0.0029824707 -0.0029892211 -0.0029975956 -0.0030027295
0001b0 3f 84 44 3b 2c 98 44 bb 41 46 44 3b db bc 43 bb
       0.0029986051 -0.0029997928 0.00299491 -0.0029867205
0001c0 78 8c 44 3b 32 50 44 3b 0f 7b 44 bb 7f 00 44 3b
       0.0029990952 0.0029955027 -0.0029980575 0.0029907522
0001d0 c9 78 46 3b 81 18 45 3b 4f 38 44 3b 34 10 45 3b
       0.0030284396 0.003007442 0.002994079 0.0030069472
0001e0 5e 75 44 3b d7 79 45 bb 1f e1 45 bb bc 46 45 3b
       0.0029977183 -0.0030132437 -0.0030193997 0.0030101975
0001f0 ce 9a 44 3b 42 ad 47 bb 77 8c 47 bb ec be 45 bb
       0.0029999497 -0.003046826 -0.0030448714 -0.0030173613

mlp1.bn.running_mean f4 [128]
000000 f1 8e 85 bd 33 9e ea 3d ff b2 1c 3e 9f d4 58 3d
       -0.065214045 0.11455955 0.15302657 0.052937146
000010 67 20 b9 bd a8 37 3a 3e 7a ac 08 3c fe d7 bd 3d
       -0.090393834 0.18185294 0.008341903 0.09269713
000020 f6 d2 8a 3e 81 f5 63 3e 11 f2 00 3e 29 4e 05 3e
       0.27114075 0.22261621 0.12592341 0.13018097
000030 da 6b ab bd b4 6c 90 3d 9f 65 d4 3e 0e 3e aa 3e
       -0.083701804 0.070519835 0.4148378 0.3325047
000040 64 04 de 3d 4e a3 6c 3d a5 e3 57 3e 26 8c 44 3e
       0.10840681 0.057772927 0.21082933 0.19194087
000050 f4 f9 b0 3c 40 25 14 3e 78 3d 4c 3e c3 31 ca 3e
       0.021603562 0.14467335 0.19945323 0.3949109
000060 08 05 34 3d 01 6d b4 3e 34 19 0f 3e bc 6a 15 3d
       0.04395011 0.35239413 0.13974458 0.036478743
000070 a9 08 bc 3e 88 bd 0c 3e d0 56 0d 3e 98 f1 d2 3e
       0.36725357 0.13744175 0.13802648 0.41199946
000080 c5 49 2f 3e 01 c2 49 3e 45 75 9c 3d ae b8 f9 3d
       0.17117985 0.19702913 0.07639555 0.12193428
000090 ae b5 88 3e 7f e7 c7 3d 92 b5 8f 3e f4 fd b2 3d
       0.2670111 0.09760951 0.28068215 0.08739844
0000a0 5a c4 fd bd 9b 35 c0 bb af 22 61 3e e4 0b b6 3e
       -0.12390967 -0.0058657653 0.21985887 0.35555947
0000b0 47 95 b5 3d 02 4f b7 3d 5e cd bf 3c 42 63 4e 3e
       0.08866363 0.089506164 0.023413356 0.20155051
0000c0 5e 7a 4a bd a7 e3 5a 3e 38 c0 a0 3d e0 78 8e 3e
       -0.049433105 0.21375905 0.07849163 0.27826595
0000d0 cd 49 77 3e 13 21 94 3c c7 33 52 3e e5 c3 41 3e
       0.24149247 0.018082177 0.20527564 0.18922384
0000e0 6b 2b 23 3c 58 14 b8 3e 2f 8d e0 3d 2f 52 42 3e
       0.009959082 0.3595302 0.10964429 0.18976663
0000f0 7e 99 d5 3d 31 b1 8f 3e ea c6 e3 3d b6 7a 0c 3d
       0.10429667 0.28064874 0.11121924 0.034296714
000100 b3 38 af bd 8b d9 8b 3d 56 a2 24 3d ca 14 63 3e
       -0.085557364 0.068286024 0.040193878 0.22175899
000110 0f 3f b2 3d fd cf 9a 3d 95 a2 20 3e 34 1b 80 3d
       0.08703434 0.07559202 0.1568702 0.062551886
000120 e5 10 b9 3e c9 62 36 3e aa 8c 85 bd 00 8f 93 3c
       0.36145702 0.17811121 -0.0652097 0.018012524
000130 45 9f 20 3e 9b 22 23 3e 7a 22 22 3e 52 43 08 3e
       0.15685757 0.1593117 0.15833464 0.1330693
000140 5d 89 86 3d c1 01 36 3d 22 ef ba b9 99 38 9a 3c
       0.06569169 0.044435266 -0.00035654852 0.018825816
000150 ce 3d a9 3d 0c f6 59 3e 9b e1 f2 3e 2c 53 f1 3d
       0.082637414 0.21285266 0.47437748 0.11783442
000160 55 72 b1 3e 18 c3 73 3e 04 10 ee 3d 58 1c f2 3a
       0.3465754 0.23804891 0.116241485 0.0018471582
000170 d3 7c 9e 3e ff d4 91 3d d9 6c 24 bc 5d 7c 80 3d
       0.30954608 0.07120704 -0.010035717 0.062737204
000180 0b 56 fb bd ff 5b 5e 3e 21 f9 b9 3e a3 c5 67 3e
       -0.12272271 0.21714781 0.36322883 0.22633986
000190 28 8e 32 3e 37 5d 3b 3d c4 00 5f 3e b4 64 13 bc
       0.17437041 0.045743193 0.21777636 -0.008996177
0001a0 f3 52 36 3e a5 0a 58 3e b1 40 9f 3e 02 54 ea 3d
       0.1780508 0.2109781 0.31104043 0.114418045
0001b0 d3 ec e9 3d 1e b3 9e 3c 51 f3 c9 bd 19 56 0f 3d
       0.11422124 0.01937252 -0.09860862 0.03499422
0001c0 1c de 48 3e 86 d9 6b 3e ad c4 65 3e 38 bc 24 3e
       0.19615978 0.23032197 0.22438307 0.16087425
0001d0 3b ff 16 3e 5b 3e 0a 3e 22 bb de 3d e7 19 5c 3e
       0.147458 0.13500349 0.108755365 0.21494256
0001e0 c6 a1 97 3d 38 78 85 bc eb 24 57 3d 61 2b 01 3d
       0.07403903 -0.016292676 0.052525442 0.03153551
0001f0 20 cb 2f bd 0e 54 0a 3e 5d d8 7e 3e 64 4d dd 3d
       -0.042918324 0.13508627 0.24887224 0.10805777

mlp1.bn.running_var f4 [128]
000000 5d 25 85 3d 8d 3d 1a 3e ed c1 29 3e dc da 27 3e
       0.06501267 0.15062542 0.16577883 0.16392082
000010 e7 41 8b 3d 0f e4 96 3e c4 78 07 3e f2 a9 ce 3d
       0.06799679 0.2947087 0.13229662 0.10091008
000020 54 9d ad 3e 4d a7 eb 3d cb 0c 8d 3d 0c dc 23 3e
       0.33909094 0.115065195 0.06887206 0.1600191
000030 ca b7 64 3d a3 55 8b 3e a9 aa a5 3e d1 47 d7 3d
       0.055839337 0.27213773 0.32356766 0.10511745
000040 81 85 87 3d 44 d3 de 3e 62 72 b5 3d 21 51 81 3d
       0.06617261 0.43520558 0.088597074 0.06314302
000050 40 28 9b 3d 3d 74 16 3e 01 45 68 3e 07 3b 82 3e
       0.075760365 0.14692779 0.22682573 0.2543566
000060 d5 90 be 3d 26 3b 8b 3e 01 7c a0 3d 45 3b ae 3d
       0.09304968 0.27193564 0.07836152 0.085073985
000070 b1 45 2c 3e 87 02 00 3e 5d 77 5b 3e 57 ae 84 3e
       0.1682346 0.12500964 0.21432252 0.2591426
000080 28 30 03 3e c7 0b 2a 3f 2f 89 c8 3d 14 6c b6 3d
       0.12811339 0.6642422 0.09791791 0.08907333
000090 05 0e 42 3e a5 b5 db 3d e3 19 a6 3e c6 05 9d 3d
       0.1895066 0.10728005 0.32441625 0.07667117
0000a0 f0 c4 6b 3d cc f1 90 3d 1f 8b f7 3d 38 64 58 3e
       0.05756086 0.07077369 0.12087082 0.2113198
0000b0 34 22 94 3e cd 08 0b 3e 6d dc 5e 3e c6 ef 84 3e
       0.28932345 0.13577576 0.21763773 0.25964183
0000c0 ec e5 5a 3d 77 12 09 3f cb 25 be 3e ec 51 d0 3e
       0.053441927 0.535438 0.3713821 0.406875
0000d0 9f d0 a0 3e 5c e3 1d 3e 56 95 9c 3e 1f c1 c6 3d
       0.31409165 0.15418762 0.30582684 0.09704804
0000e0 bc d7 86 3d 46 3d e7 3d aa ef 1d 3e 9e 8b 21 3e
       0.06584117 0.11290984 0.15423456 0.15775916
0000f0 be 3d 34 3e 53 56 44 3e ed bd c2 3d 56 e4 1e 3e
       0.17601678 0.19173555 0.09508882 0.15516791
000100 2d 1b 0c 3e 22 50 b8 3d c2 c5 40 3e fa 6f 51 3e
       0.13682242 0.08999659 0.18825439 0.20452872
000110 62 03 db 3d 6f 54 b1 3d c5 5f d3 3d 1c 4c 26 3e
       0.106940046 0.086586826 0.10321001 0.16239971
000120 91 a4 8e 3e e6 af 85 3e ab 64 26 3e b0 de 08 3e
       0.2785993 0.26110762 0.1624934 0.13366199
000130 6e b3 8f 3d 52 16 62 3d 8e e2 b0 3e 72 20 6f 3e
       0.07016645 0.055197068 0.34547848 0.2335222
000140 a3 ae 38 3e c3 7f ad 3d f8 2e be 3d 2a ad 6e 3d
       0.18035369 0.08471634 0.09286302 0.05827061
000150 a0 64 ab 3d ae fb fb 3e 21 26 86 3f 4d f9 35 3e
       0.08368802 0.49215454 1.0480386 0.17770882
000160 15 f2 2c 3e b8 7c 18 3e 0d c3 c3 3d 55 db 95 3d
       0.16889222 0.14891326 0.09558687 0.07317225
000170 68 84 11 3e f2 6b 5b 3e 4b a8 44 3e 3b c8 70 3d
       0.14210665 0.21427897 0.19204824 0.058784705
000180 0e 08 c7 3d 0d e8 49 3e 31 16 6e 3e 68 20 58 3e
       0.09718333 0.19717427 0.23250653 0.21106112
000190 1b 4b d3 3d b5 06 d3 3d a1 f0 07 3e ed 80 e0 3d
       0.103170596 0.10304014 0.13275386 0.10962091
0001a0 93 5f cc 3d 24 27 dd 3e 8c 76 7d 3e b8 fd d4 3d
       0.09979167 0.43193924 0.24752253 0.103999555
0001b0 02 d3 2a 3e 51 6d 1b 3e f2 68 e1 3d 35 6e 75 3d
       0.16682056 0.1517842 0.11006345 0.059919555
0001c0 1a 89 d9 3e 49 3a 4b 3e db d7 b3 3e 23 ac 31 3e
       0.42487413 0.19846453 0.35125622 0.17350821
0001d0 9b 94 12 3e 3b 72 3f 3e 49 ae fd 3d e3 cc 16 3e
       0.14314501 0.18695919 0.12386758 0.14726596
0001e0 e7 be d3 3d c7 21 ce 3d dd 51 af 3d ec ec 07 3e
       0.10339146 0.10065036 0.08560536 0.13273972
0001f0 d2 51 05 3e 92 ca 28 3e fe 7b 59 3e d9 51 1e 3e
       0.13019493 0.16483524 0.21238706 0.1546091

mlp2.fc1.weight f4 [128, 256]
000000 fa 89 32 3d 2d 2d 65 3d a5 da 98 3c d8 e0 fb bc
       0.043588616 0.055951286 0.018658945 -0.030746862
000010 c2 2c 6c bb 35 06 7a 3c 21 b2 4b 3b 3c 01 06 3d
       -0.003603742 0.015260269 0.0031081515 0.03271602
000020 91 e0 ff bd d0 71 d3 bd 23 9d cb bc 8d 4e a1 bd
       -0.124940045 -0.103244424 -0.024855202 -0.078763105
000030 33 24 34 bd 88 08 89 bd 8a 38 3b 3d 2a 25 5d 3c
       -0.043979835 -0.0669108 0.045708217 0.01349763
000040 aa f1 16 3c e0 1f b4 3d 56 a4 27 3d b5 29 ee 3c
       0.009212891 0.08795142 0.040928207 0.029072622
000050 53 38 c0 3c 9e 05 55 3d b3 16 a2 3d a5 56 8b 3d
       0.023464357 0.05200731 0.07914486 0.068036355
000060 29 e9 91 3d 3b 1e 20 be 1e f7 03 3d 13 d0 c2 bd
       0.0712455 -0.15636532 0.03221809 -0.09512343
000070 d6 5f 1e 3c 9f f7 79 bd 92 00 93 bd 0c 9e d2 3c
       0.009666404 -0.061027166 -0.07177843 0.025710128
000080 a3 d5 95 bc 53 bc bf 3c 77 7a 0a 3d df 8f c6 bd
       -0.018290346 0.02340523 0.033808198 -0.0969541
000090 20 de ff 3b 61 92 59 3d 29 a6 18 3d 05 d7 bc 3d
       0.007808462 0.053118113 0.037267838 0.09220699
0000a0 21 bc 14 bd bd 42 43 3d f2 5d e6 bd e7 b2 15 bd
       -0.036312226 0.04767107 -0.112483874 -0.036547568
0000b0 da 18 2c 3c d0 5b d2 3b e6 d9 7e 3d 94 c3 8b bd
       0.010503972 0.0064196363 0.062219523 -0.06824413
0000c0 de 36 0b bc bf 66 b5 3d 4f fd 6a bd 7b 0a ca bc
       -0.008496968 0.08857488 -0.05737048 -0.0246632
0000d0 ed 25 70 3d 35 3e d4 bc 95 f9 bd bd 3d b8 4b bd
       0.05862992 -0.025908569 -0.092761196 -0.04973625
0000e0 43 5e c9 bd 62 51 15 3d 1c 92 52 3c 86 ce 46 3d
       -0.09832432 0.036454566 0.012852218 0.0485368
0000f0 43 2d 02 be 10 77 0a bc db 7e b4 bc 26 e9 75 bd
       -0.12712578 -0.008451238 -0.022033146 -0.0600368
000100 2f 46 cc 3d 93 ec d2 bc 47 cd b6 bd 23 05 f5 3d
       0.09974324 -0.025747573 -0.08925872 0.119638704
000110 46 35 cd bd e3 8e f2 bc b9 b8 f7 bd bd 2b 40 bd
       -0.10019927 -0.02960915 -0.1209578 -0.046916712
000120 bf 7c d5 bd bb 76 1c 3d 03 f9 9f 3d 96 9d 89 3b
       -0.10424184 0.038199168 0.07811167 0.004199694
000130 80 ff 40 bb b5 c9 da 3c c9 ad e5 3d d7 fa a2 3d
       -0.0029449165 0.02670751 0.112147875 0.07958
000140 6a ad 87 3d 49 e8 61 3a c7 9d f8 3c 03 b3 2d 3d
       0.06624873 0.0008617682 0.030348672 0.042407047
000150 e8 11 d2 ba df 32 61 3c 85 63 8b bd 33 01 44 be
       -0.0016027065 0.013745039 -0.06806091 -0.19141082
000160 9e dc 1f 3e cd a1 10 be 22 e3 cd bd 66 14 91 bd
       0.15611503 -0.14124222 -0.10053088 -0.07083969
000170 e2 4f c9 bd c2 79 3c 3d 14 8b 96 bc ea a5 c3 3c
       -0.098296896 0.046014555 -0.018376864 0.023882825
000180 d1 a0 36 bd 6e 85 90 bc 56 c1 07 3e 47 0b 85 3c
       -0.04458696 -0.01764175 0.13257346 0.016240729
000190 f5 0c ad bd bd f0 de bd 10 a1 bf 3c 01 6c 13 3d
       -0.08449737 -0.10885761 0.02339223 0.035991672
0001a0 a8 5e ab 3c 4d 1e 2d bc 6a db e3 bd a7 48 a1 bc
       0.020919159 -0.010566306 -0.11125834 -0.019687964
0001b0 7b 12 4c bd fa 01 e6 3d 56 ef 9d bd d1 00 4b bd
       -0.04982231 0.11230846 -0.07711665 -0.049561325
0001c0 21 09 0e 3d e3 71 8e bd c7 0e 9f 3d 62 90 53 3c
       0.034676675 -0.06955316 0.077664904 0.0129128415
0001d0 08 8e 17 3d 9b 55 5c 3c fc 0c dc 3a a5 03 8a bd
       0.037000686 0.013448144 0.0016788538 -0.067389764
0001e0 cc 19 a5 3d 65 58 76 3d 7f 55 1f 3e 20 0e 37 3d
       0.08061561 0.060142893 0.15559958 0.044691205
0001f0 79 dd 5a 3e 95 d2 09 be 42 31 dc bc 18 b5 ac 3c
       0.21373548 -0.13459237 -0.026878957 0.021082446
000200 96 28 8a bd 9e 1a 9f 3d b5 6d ad bd 9f cc 9a bd
       -0.067460224 0.07768749 -0.084681906 -0.075585596
000210 1f 1f ef bc 5e 35 ef bd f1 f8 b2 3d 00 84 cb 3c
       -0.029189644 -0.11680101 0.08738888 0.024843216
000220 44 1e 80 3d b5 27 9f bd 35 3c 7e bd 42 89 5b 3c
       0.06255773 -0.077712454 -0.062069137 0.013399424
000230 5d d3 be 3d f0 ee a0 3c d8 95 00 3e 3f cd 6b 3b
       0.09317658 0.019645184 0.12557161 0.003598049
000240 e1 d2 99 3b f3 6a 41 3c 8c 6a a2 bc 0f cc b4 bd
       0.004694328 0.011805284 -0.019826196 -0.088279836
000250 2f 21 26 be 28 ba ea 3d bd 62 07 be 43 f4 bd 3d
       -0.16223596 0.11461288 -0.1322126 0.09275105
000260 7a e1 f2 3d c1 87 0e be e9 74 8d 3c 95 94 de bd
       0.118594125 -0.13918974 0.017267661 -0.108681835
000270 56 c3 5c 3d 9f a1 11 bd d3 93 e4 3d 14 9f b9 bd
       0.053897224 -0.035554525 0.11161008 -0.09063545
000280 ed 52 c1 bc f0 88 54 bd 75 73 1b 3d 6b ac 2d be
       -0.023599112 -0.051888406 0.037951905 -0.16960303
000290 c7 e1 e1 3d 62 68 67 3d 11 13 eb 3b ad 02 1c 3d
       0.11029392 0.05649603 0.0071739038 0.03808849
0002a0 54 5b 72 3c e5 51 12 3d 62 91 68 3c eb 02 64 3d
       0.014792282 0.035722632 0.014194818 0.055666845
0002b0 93 4b 97 bd 59 4b 0b bc 79 94 ab 3d 52 b3 32 bb
       -0.073874615 -0.008501851 0.08377928 -0.0027267528
0002c0 64 51 6c bd b3 bd 91 3d 79 88 c7 3c ef 5c d9 3c
       -0.057694808 0.071162604 0.024357067 0.026533572
0002d0 fb 0e 34 3d 78 37 61 bc bf 8f 29 bd 01 cf cc 3b
       0.0439596 -0.013746135 -0.041396853 0.0062502627
0002e0 7f b8 17 be 51 45 84 3d 54 23 18 3e e1 e7 8c bc
       -0.14816473 0.064585336 0.14857227 -0.017200412
0002f0 5a 69 3b 3e d0 ba 39 bd 53 6e dc 3d 79 b9 f0 3c
       0.18301907 -0.045344174 0.1076323 0.029385315
000300 8f c3 2a 3e fd cb 36 bc be 03 b0 bd ad 00 ac 3d
       0.16676162 -0.011157033 -0.08594464 0.083985664
000310 13 37 14 bd f6 70 d4 3b 70 06 96 bd 0c 9c 93 bb
       -0.036185335 0.0064831926 -0.073254466 -0.004504686
000320 5a c3 3b 3d 3f da 88 bd ab 90 5d bd 0a 36 13 be
       0.0458406 -0.06682252 -0.054093044 -0.14376083
000330 d4 28 ed 3d 1b c1 06 be 83 85 77 ba df c1 aa 3d
       0.11580053 -0.13159601 -0.0009442197 0.08337759
000340 0f 62 ae 3c c9 02 65 bd 28 11 23 bd 8b 62 a5 bd
       0.021286992 -0.05591086 -0.039811283 -0.08075436
000350 d7 b6 81 3d fa 13 db bd 78 aa 4b bd 56 2a 1b 3d
       0.06333702 -0.106971696 -0.04972312 0.03788217
000360 75 49 a8 3d 3b e3 01 3e 54 83 92 bc b2 59 e8 3c
       0.08217136 0.12684338 -0.017884888 0.028363083
000370 3f f0 a2 bd 3b 86 c8 bd b4 7a d6 3c 9e 99 bf bb
       -0.079559796 -0.097912274 0.026181556 -0.00584717
000380 70 7b f9 ba 04 00 3b bd 25 ad d0 bd ec 3d 0a 3d
       -0.001903398 -0.04565431 -0.10189275 0.03375046
000390 e5 71 06 3e 12 e5 94 bc cc 83 c0 3c ad dc dd bc
       0.13129385 -0.018175635 0.023500346 -0.027082765
0003a0 4b a9 12 3d 00 2b 49 bb 51 0d c5 3d 62 f5 d9 3d
       0.03580598 -0.0030695796 0.096216805 0.10642506
0003b0 25 e9 bd ba d1 f6 fc bc d4 bd 34 3d 86 33 f5 3c
       -0.0014489038 -0.03087941 0.044126347 0.029931795
0003c0 18 7e ac bd d0 5c 0d be e5 4d cb bd fa 32 17 3d
       -0.08422488 -0.13804936 -0.099269666 0.03691385
0003d0 26 8b 35 3d 59 d9 d6 bd ef 77 f7 3c 1d 2f e3 bc
       0.044322155 -0.104906745 0.030208556 -0.027732426
0003e0 d5 e5 b5 bd e9 a3 6f 3d e8 34 44 bd a7 98 8a bd
       -0.088817276 0.058505926 -0.047902018 -0.067673974
0003f0 99 29 3f bd b1 ce d5 3d 51 80 51 be 49 cb 4f 3c
       -0.04667053 0.10439814 -0.20459105 0.012682744

mlp2.fc1.bias f4 [128]
000000 2f f3 d2 3d d0 f7 d2 3d 1e fa d2 3d fc cd d2 3d
       0.1030029 0.10301173 0.10301612 0.10293195
000010 da 49 d3 3d 1a a4 d1 3d af f6 d2 3d 0b aa c6 3d
       0.103168204 0.10236378 0.103009574 0.09700402
000020 bc a4 c6 3d 36 b7 c6 3d 41 16 c7 3d 80 a5 c6 3d
       0.09699389 0.097029135 0.097210415 0.09699535
000030 c6 f5 d2 3d 40 ff d2 3d da c2 c6 3d 14 ff d2 3d
       0.10300784 0.10302591 0.09705134 0.103025585
000040 92 a8 c6 3d 3e a8 c6 3d 8d f0 d2 3d b9 fb d2 3d
       0.09700121 0.097000584 0.10299788 0.103019185
000050 2f d3 c6 3d c4 e8 d2 3d 7d a8 c6 3d 9e f4 d2 3d
       0.09708249 0.10298303 0.09700105 0.10300563
000060 33 a7 c6 3d 23 ef d2 3d 80 fa d2 3d 5c f0 d2 3d
       0.096998595 0.10299518 0.10301685 0.10299751
000070 5f a7 c6 3d 61 ab c6 3d ec ea d2 3d 99 dc d2 3d
       0.09699892 0.09700657 0.10298714 0.10295982
000080 5e ef d2 3d 43 fc d2 3d 86 93 c6 3d 4b f4 d2 3d
       0.10299562 0.10302021 0.096961066 0.103005014
000090 a3 a8 c6 3d 7e a5 c6 3d f7 fb d2 3d 66 a2 c6 3d
       0.09700134 0.09699534 0.10301965 0.09698944
0000a0 e0 aa c6 3d 13 a2 c6 3d 1e 91 c6 3d 25 f8 d2 3d
       0.097005606 0.09698882 0.09695648 0.10301236
0000b0 90 f4 d2 3d 1b f3 d2 3d f7 f5 d2 3d 16 a4 c6 3d
       0.10300553 0.10300275 0.1030082 0.09699266
0000c0 c1 9f c6 3d dc e9 d2 3d b3 99 c6 3d 9b f3 d2 3d
       0.096984394 0.102985114 0.096972845 0.1030037
0000d0 ec fb d2 3d 71 f2 d2 3d b9 dd d2 3d c9 a6 c6 3d
       0.103019565 0.10300148 0.102961965 0.096997805
0000e0 1c c2 c6 3d b6 05 d3 3d 06 f2 d2 3d a4 8f c6 3d
       0.09704992 0.10303824 0.103000686 0.09695366
0000f0 4a ed d2 3d 7f fb d2 3d e1 f0 d2 3d 56 f8 d2 3d
       0.102991655 0.10301875 0.1029985 0.103012726
000100 a3 9f c6 3d c1 ed d2 3d 9d f9 d2 3d 9f b7 d2 3d
       0.09698417 0.10299254 0.10301516 0.10288929
000110 be 9a c6 3d 32 74 c7 3d fe fd d2 3d 27 a7 c6 3d
       0.096974835 0.09738959 0.103023514 0.096998505
000120 68 e8 d2 3d 7a e8 d2 3d 78 ae c6 3d 6d eb d2 3d
       0.10298234 0.10298248 0.09701246 0.1029881
000130 e9 7c c6 3d 5b a0 c6 3d 1b a1 c6 3d 96 a9 c6 3d
       0.096917935 0.09698554 0.09698697 0.09700315
000140 06 aa c6 3d e8 f5 d2 3d a8 a3 c6 3d 96 aa c6 3d
       0.09700398 0.10300809 0.09699184 0.097005054
000150 4e a5 c6 3d 6b f3 d2 3d 9e a9 c6 3d ba ed d2 3d
       0.09699498 0.103003345 0.09700321 0.10299249
000160 a2 b6 c6 3d 97 f1 d2 3d 05 a3 c6 3d 34 a3 c6 3d
       0.09702803 0.10299986 0.09699062 0.09699097
000170 19 a8 c6 3d 4b a9 c6 3d 7a eb d2 3d e9 e5 d2 3d
       0.09700031 0.09700259 0.1029882 0.10297758
000180 75 fc d2 3d e5 f3 d2 3d 19 f1 d2 3d 26 a2 c6 3d
       0.103020586 0.103004254 0.10299892 0.09698896
000190 55 98 c6 3d 92 a7 c6 3d b7 67 c2 3d 7c a0 c6 3d
       0.09697024 0.0969993 0.09492438 0.09698579
0001a0 82 a3 c6 3d 4f a1 c6 3d ec a7 c6 3d 96 fe d2 3d
       0.096991554 0.09698736 0.09699997 0.10302465
0001b0 e3 a3 c6 3d 29 f2 d2 3d a6 c4 c6 3d 08 cf d2 3d
       0.09699228 0.10300095 0.097054765 0.10293394
0001c0 3c f5 d2 3d bb f8 d2 3d 08 ec d2 3d e8 a4 c6 3d
       0.10300681 0.10301348 0.10298926 0.09699422
0001d0 eb ae c6 3d d2 fa d2 3d 4e f2 d2 3d 08 f3 d2 3d
       0.09701332 0.103017464 0.10300122 0.10300261
0001e0 a8 f4 d2 3d 96 ab c6 3d fa a3 c6 3d 1a 43 c9 3d
       0.10300571 0.09700696 0.09699245 0.09827252
0001f0 a1 9e c6 3d 82 f6 d2 3d 47 00 d3 3d 0f fd d2 3d
       0.09698225 0.10300924 0.10302787 0.10302173
