NRI/logs/exp2/encoder-with-step-10.pt (torch, 695347 bytes, 34 tensors)

mlp1.fc1.weight f4 [128, 30]
0	0xbe07dd9a	-0.13268128
1	0xbd935add	-0.07195065
2	0x3c4c7125	0.012478148
3	0xbc80b586	-0.015711557
4	0x3ce1a040	0.027542233
5	0xbd893e86	-0.067013785
6	0x3db42743	0.08796551
7	0x3e5efa46	0.21775159
8	0xbdc645cf	-0.09681284
9	0x3e706496	0.2347587
10	0x3e2b6313	0.16737013
11	0xbd74d8af	-0.059776958
12	0xbd0765c4	-0.033056036
13	0x3d8e6937	0.06953662
14	0xbe21a137	-0.15784155
15	0xbdaefa49	-0.08543832
16	0xbe8cefb8	-0.2752664
17	0x3c32fd37	0.010924629
18	0x3e790347	0.24317656
19	0xbd7d96b7	-0.06191131
20	0xbcbf31b2	-0.023339126
21	0xbd0b1c66	-0.03396263
22	0x3dbebee5	0.09313754
23	0xbe30ae8c	-0.17254084
24	0x3cf540b9	0.029938089
25	0x3c4c2972	0.012461053
26	0xbdcec903	-0.10096934
27	0x3dbfd00a	0.09365852
28	0x3d79997d	0.060937393
29	0x3deae8f3	0.11470213
30	0x3c9cd615	0.019145051
31	0xbd9813ad	-0.07425628
32	0x3e697206	0.22797403
33	0x3de88009	0.11352546
34	0x3e9747de	0.29547018
35	0xbe54fd61	-0.20799781
36	0x3d1fafd2	0.038986035
37	0xbd8d5d72	-0.06902589
38	0xbd2c304e	-0.042038254
39	0xbe778902	-0.24173358
40	0xbdd72205	-0.105045356
41	0xbd475770	-0.04866737
42	0xbe730ccb	-0.23735349
43	0xbdd14abb	-0.10219332
44	0xbe57b6ec	-0.21065873
45	0xbd0da3cc	-0.034580037
46	0x3e399352	0.18122604
47	0xbd3cc536	-0.046086513
48	0x3e0b5fbd	0.1361074
49	0x3e4c76ac	0.19967145
50	0x3da8f271	0.08249367
51	0x3d173864	0.036919013
52	0x3bc68f8b	0.006059592
53	0xbdb63b92	-0.08898081
54	0xbd98119a	-0.07425232
55	0xbb78aa31	-0.003794324
56	0xbbf4a371	-0.007465773
57	0xbbee4c0c	-0.007272249
58	0xbe3e64c9	-0.18593134
59	0x3c09b276	0.008404365
60	0xbe0994a2	-0.13435605
61	0x3e073881	0.13205148
62	0x3d96deae	0.073666915
63	0x3dbb0fb8	0.091338575
64	0x3df76406	0.12079625
65	0x3e8aa2fb	0.2707747
66	0x3dc60f62	0.09670903
67	0xbd223663	-0.03960265
68	0xbd76ac27	-0.06022277
69	0x3d4c6ade	0.049906604
70	0x3e85b25a	0.26112634
71	0xbe225042	-0.15850928
72	0xbdec6247	-0.115421824
73	0xbe1c884d	-0.1528637
74	0x3d057e54	0.03259118
75	0x3de10617	0.1098749
76	0xbe17f167	-0.14838181
77	0x3d41c8f3	0.04731078
78	0x3e5a1eb8	0.21300781
79	0xbd4c4be9	-0.04987708
80	0x3e1bb213	0.15204649
81	0xbdbbd845	-0.091721095
82	0x3d9f562a	0.07780106
83	0x3d79c00c	0.060974166
84	0x3b6a997c	0.003579705
85	0xbe07d7c2	-0.13265899
86	0xbb555b8c	-0.0032555787
87	0x3e198275	0.14991172
88	0xbc27866d	-0.010224921
89	0xbe87c15b	-0.26514706
90	0xbe0b7948	-0.13620484
91	0xbd144dd1	-0.036207024
92	0xbd568f44	-0.052382722
93	0x3ca7bb9a	0.020475198
94	0x3e087185	0.13324554
95	0x3d3014cb	0.04298858
96	0xbd4c348b	-0.049854796
97	0xbd3363d2	-0.043796368
98	0xbdd7730e	-0.10519992
99	0xbdb01239	-0.08597226
100	0x3dc4c81b	0.096084796
101	0xbce8b535	-0.028406719
102	0xbca6531c	-0.020303302
103	0x3e5350b6	0.20636258
104	0xbd8f2343	-0.069891475
105	0xbcf334a1	-0.029688181
106	0xbe116f64	-0.14202648
107	0x3e1fd94c	0.15610236
108	0xbde69bb2	-0.11260165
109	0xbca161b1	-0.019699903
110	0xbe784546	-0.24245176
111	0x3d0a3443	0.033741247
112	0x3c45c08c	0.0120698325
113	0xbc350fd4	-0.011051137
114	0x3e253a3b	0.16135494
115	0x3ce66cc9	0.028128045
116	0xbc99dd98	-0.018782422
117	0x3d33659f	0.043798085
118	0x3e480111	0.19531657
119	0x3d74b186	0.059739612
120	0x3d87dc73	0.06633844
121	0x3d138777	0.03601786
122	0xbd72acfb	-0.059247
123	0x3d3bd828	0.04586044
124	0x3e249324	0.16071755
125	0x3e1949dd	0.14969583
126	0x3cd83fc8	0.0263976
127	0x3d5a845e	0.05334889
128	0x3d139be0	0.036037326
129	0x3d9d831b	0.07691022
130	0x3e3ab109	0.18231596
131	0xbd631d7d	-0.055448044
132	0xbe0d7084	-0.13812453
133	0xbccc0e35	-0.024909118
134	0x3c0610da	0.008182729
135	0xbe03dba8	-0.12876761
136	0xbe8c705c	-0.27429473
137	0x3d1b145e	0.03786122
138	0x3cbad931	0.022808643
139	0x3dc89378	0.097937524
140	0x3d8fe27b	0.070256196
141	0xbc60a056	-0.013710102
142	0x3c36f2ce	0.011166288
143	0xbd5eb331	-0.05437011
144	0xbd3acecb	-0.04560737
145	0x3e00260f	0.12514518
146	0xbbbc3db1	-0.005744659
147	0xbce19608	-0.02753736
148	0xbe85fc04	-0.26168835
149	0x3c8b3325	0.016992161
150	0xbe581021	-0.21099903
151	0xbd000bbf	-0.031261202
152	0x3c697636	0.014249375
153	0xbc8e9596	-0.017405313
154	0xbe3b718f	-0.18305038
155	0xbd662a75	-0.056192834
156	0x3c6f2e22	0.014598401
157	0x3c0c9101	0.0085794935
158	0xbc4f6e26	-0.012660539
159	0x3e0f01bc	0.13965505
160	0xbd8d7cc6	-0.06908564
161	0x3e1503e3	0.14552264
162	0x3d9dceb6	0.077054426
163	0x3e87286c	0.26398027
164	0x3dcb1343	0.09915783
165	0xbc9463e5	-0.01811404
166	0xbd25cf13	-0.040480684
167	0xbe394e4f	-0.18096279
168	0xbd5564d4	-0.05209811
169	0x3bae8613	0.0053260415
170	0xbd2f9c4c	-0.042873666
171	0x3db3a2f4	0.08771315
172	0xbe0ae8fa	-0.13565436
173	0xbd6fe29f	-0.058565732
174	0xbe0b3538	-0.1359452
175	0xbe539853	-0.20663576
176	0xbcc1e965	-0.023670861
177	0x3dafb470	0.085793376
178	0xbe1ab8ca	-0.15109554
179	0xbd9bdc9d	-0.07610438
180	0xbe0d13b7	-0.13777052
181	0x3e414204	0.18872839
182	0x3cd58c03	0.02606774
183	0xbd7b75ec	-0.061391756
184	0x3d4ba4fe	0.049717896
185	0xbd8a5e81	-0.067563064
186	0xbe3249f4	-0.17411023
187	0x3db94e31	0.09048117
188	0x3e24bdf9	0.16088094
189	0x3dc5a4a8	0.09650546
190	0x3d37fa28	0.044916302
191	0x3d456835	0.048195083
192	0xbe0bb450	-0.13643003
193	0xbe871baf	-0.26388308
194	0xbce30dcf	-0.027716545
195	0xbc1a9555	-0.009435018
196	0xbdc067ba	-0.09394784
197	0x3d9e57a8	0.07731563
198	0xbd319ea8	-0.043364197
199	0xbd5f182e	-0.05446642
200	0xbe2afcbe	-0.16697976
201	0xbd557916	-0.05211743
202	0x3d2506bb	0.04028962
203	0xbbef29a7	-0.0072986665
204	0x3e27cf4a	0.16387668
205	0xbdf4d042	-0.119537845
206	0x3e519bcd	0.2046959
207	0x3e01a03f	0.12658785
208	0xbad1ba57	-0.0016000968
209	0x3e0bb0be	0.1364164
210	0x3ea86055	0.32885996
211	0xbd1f5d12	-0.03890712
212	0x3c58bf77	0.0132292425
213	0x3e0c75ec	0.13716859
214	0x3e203bec	0.15647858
215	0x3e2f9f73	0.17150669
216	0x3e16b42a	0.14717165
217	0x3df2fde9	0.11864836
218	0x3c0b8e66	0.008517837
219	0xbc8dd2d4	-0.017312445
220	0xbbc90827	-0.006135005
221	0xbd8da0aa	-0.0691541
222	0xbdc33a5b	-0.09532615
223	0x3cc7e872	0.02440283
224	0xbe342a10	-0.1759417
225	0x3d3a65fa	0.04550741
226	0xbd88c400	-0.06678009
227	0xbd29a539	-0.041417334
228	0x37b449fc	2.1492124e-05
229	0x3d657c2d	0.056026626
230	0xbd897e82	-0.067135826
231	0xbd5a78a4	-0.053337708
232	0x3e1b8711	0.15188242
233	0xbd4c8d4d	-0.049939442
234	0xbcacf63d	-0.02111351
235	0x3d2ceee5	0.042220015
236	0xbd20a9c0	-0.039224386
237	0xbd58c1f7	-0.052919354
238	0x3e0f0a05	0.13968666
239	0x3dadfe91	0.0849582
240	0xbe3f219c	-0.18665165
241	0x3c7aed92	0.01531543
242	0xbe69d3b6	-0.22834668
243	0x3e33d456	0.17561468
244	0xbd4253f0	-0.04744333
245	0xbd8b62fa	-0.06805988
246	0xbd3fa08a	-0.04678396
247	0x3cc2adae	0.023764458
248	0xbe7fb947	-0.24973021
249	0x3d40adea	0.047040857
250	0xbe312f94	-0.17303306
251	0x3d851928	0.06498939
252	0x3dc44212	0.095829144
253	0x3dc9e84c	0.0985876
254	0x3e267283	0.1625462
255	0x3dbd22a5	0.092351235

mlp1.fc1.bias f4 [128]
0	0x3e0bd6b1	0.13656117
1	0x3d441fe9	0.047881994
2	0x3e2738d9	0.1633028
3	0x3dd456ce	0.10368119
4	0x3d698375	0.057010133
5	0x3b6b6475	0.0035918031
6	0x3de9fc93	0.11425128
7	0x3d832be8	0.06404859
8	0x3d2c8ad3	0.04212458
9	0x3dd7f631	0.10545004
10	0x3daa475c	0.08314392
11	0x3dd933f2	0.10605611
12	0x3dd71372	0.10501756
13	0x3d943ad3	0.07237782
14	0x3dc1c737	0.09461825
15	0x3dc5d6d7	0.09660118
16	0x3e128afe	0.14310834
17	0xbcdc92b0	-0.026925415
18	0x3e08716a	0.13324514
19	0x3d2a8136	0.04162713
20	0x3df60b9e	0.120139346
21	0x3d81c680	0.06336689
22	0x3da8bf08	0.08239561
23	0x3e601e4c	0.21886557
24	0x3e121c00	0.14268494
25	0x3d2775a2	0.040883668
26	0x3dc468b3	0.09590282
27	0x3d84df7d	0.064879395
28	0x3d13c1fd	0.036073674
29	0x3de4bfa0	0.11169362
30	0x3d158466	0.036503218
31	0x3dcb6011	0.099304326
32	0x3e001ea2	0.12511685
33	0x3ded51ca	0.11587866
34	0x3e1590bc	0.14605993
35	0x3dea646b	0.114449345
36	0x3df5be24	0.11999157
37	0x3da97855	0.08274905
38	0x3d202f9c	0.039107904
39	0x3d23af21	0.039961938
40	0xbb8497d3	-0.004046419
41	0x3cf7e7e4	0.030261941
42	0x3cacceb9	0.021094667
43	0x3da70cee	0.08156763
44	0x3e007f40	0.12548542
45	0x3e2dae0b	0.16960923
46	0x3da60562	0.081064954
47	0x3d57f1df	0.0527209
48	0x3dc2a28d	0.0950366
49	0x3c472981	0.012155891
50	0x3d845bb7	0.06462806
51	0xbd2b6da6	-0.041852616
52	0x3dc76ec5	0.097379245
53	0x3e03254d	0.12807198
54	0x3dbaefa7	0.09127741
55	0x3d867c6f	0.065667026
56	0x3c5038ef	0.0127088865
57	0x3e0db5e4	0.13838917
58	0x3e64fb70	0.22361541
59	0x3d696567	0.05698147
60	0x3e19f802	0.15036014
61	0x3d1dd487	0.03853276
62	0xbc3cf8df	-0.011533945
63	0x3d85ca50	0.06532729
64	0x3e121eed	0.1426961
65	0x3da3884a	0.079849795
66	0x3d07dedb	0.033171516
67	0x3e126706	0.14297113
68	0x3d5c749c	0.053822145
69	0x3d442e72	0.047895856
70	0x3de52c7f	0.111901276
71	0x3dd5f0a1	0.10446287
72	0x3d704168	0.058656126
73	0x3d92aa6e	0.07161413
74	0x3d66d0ec	0.056351587
75	0x3db34428	0.08753234
76	0x3ddf2778	0.108962
77	0x3e1b40e5	0.15161474
78	0x3d50dcae	0.050991707
79	0x3e18b7c1	0.14913847
80	0x3deabfc7	0.1146236
81	0x3dafd198	0.08584899
82	0x3d60199d	0.054711927
83	0x3d7fa189	0.06240991
84	0x3dd4dd4a	0.1039377
85	0x3da9c3f0	0.08289325
86	0x3daaf9c7	0.083484225
87	0x3e00d1ad	0.12579985
88	0x3d5aa5ce	0.05338078
89	0x3e1087c4	0.1411429
90	0x3dddebb2	0.10835971
91	0x3e120b08	0.1426202
92	0x3dd135a5	0.1021531
93	0x3e217985	0.15769012
94	0x3e0e0bf8	0.13871753
95	0x3e2619f3	0.16220836
96	0x3d578fa9	0.05262724
97	0x3daa2925	0.08308629
98	0x3db76910	0.08955586
99	0x3d83081e	0.063980326
100	0x3d457a95	0.048212606
101	0x3e3babd2	0.18327263
102	0x3d2ab5d5	0.041677315
103	0x3d80b04b	0.06283625
104	0x3d84a941	0.06477595
105	0x3d1e1f97	0.038604345
106	0x3c45afcb	0.012065838
107	0x3ded6cd8	0.11593026
108	0x3c636926	0.01388005
109	0x3daeefb3	0.08541813
110	0x3da6e733	0.081495665
111	0x3d211ae7	0.039332297
112	0x3e0b4ed7	0.13604294
113	0x3da3e026	0.08001737
114	0x3dd6a117	0.10479944
115	0x3de5400b	0.11193856
116	0x3e05040d	0.12989827
117	0x3d564a24	0.0523168
118	0x3dd83067	0.10556107
119	0x3c3ea1a8	0.011635222
120	0x3e2ffe77	0.17186914
121	0x3dcd7c01	0.100334175
122	0x3d58db33	0.05294342
123	0x3db04cc1	0.0860839
124	0xbb9e807e	-0.004837095
125	0x3e20de71	0.15709855
126	0x3e0b504a	0.13604847
127	0xbcb6cec4	-0.02231539

mlp1.fc2.weight f4 [128, 128]
0	0xbe14e8f7	-0.14541994
1	0x3c85fad3	0.016354954
2	0x3d2593d2	0.040424176
3	0x3dc43a6a	0.09581454
4	0x3d735687	0.05940869
5	0x3dad841c	0.084724635
6	0x3d6067d5	0.054786522
7	0xbdb65856	-0.089035675
8	0x3d2f98b8	0.042870253
9	0xbca239ad	-0.019802893
10	0xbdb38780	-0.08766079
11	0xbd8d4273	-0.0689744
12	0x3c893ea0	0.016753495
13	0x3de97e33	0.11401024
14	0x3c3d498c	0.0115531795
15	0x3d8be837	0.06831401
16	0xbe02ee15	-0.12786134
17	0xbd743069	-0.05961648
18	0xbdb38c5c	-0.08767006
19	0xbe340d07	-0.17583095
20	0x3c05352e	0.008130355
21	0xbd99746b	-0.07492908
22	0xbd166e26	-0.03672614
23	0xbe835676	-0.25651902
24	0xbe77b958	-0.24191797
25	0x3dfea1b9	0.1243319
26	0x3d88b523	0.06675174
27	0xbe1b97cf	-0.15194629
28	0x3d3cfad9	0.046137664
29	0x3cd075c0	0.025446773
30	0xbd70c498	-0.058781236
31	0x3bfc2b74	0.0076956097
32	0xbd6b7756	-0.057486854
33	0x3a84b3c5	0.0010124376
34	0x3db30fe4	0.08743265
35	0x3cefde94	0.029280938
36	0x3da7ead7	0.08199089
37	0xbd84673e	-0.064650044
38	0x3d865b18	0.065603435
39	0x3ce462cd	0.027879143
40	0x3aec2c38	0.0018018549
41	0xbdd6a06c	-0.10479817
42	0x3cf20086	0.029541265
43	0xbcde03b3	-0.027101373
44	0xbc604329	-0.013687887
45	0xbcdecbfa	-0.027196873
46	0x3dee7746	0.11643843
47	0xbd31885c	-0.043342933
48	0x3d5443c5	0.051822443
49	0xbdf0302d	-0.11727939
50	0x3b8a639f	0.0042233015
51	0xbdb5104f	-0.08841001
52	0x3c1784db	0.009247984
53	0xbb300f3c	-0.002686455
54	0xbd6b5808	-0.057457
55	0xbd32f7ed	-0.04369347
56	0xbcc0542e	-0.02347764
57	0xbcad5065	-0.0211565
58	0x3d955de2	0.07293297
59	0xbe15d7d2	-0.1463311
60	0xbe5fd080	-0.2185688
61	0x3ce77826	0.028255533
62	0x3dc84ae8	0.09779912
63	0x3da73455	0.081642784
64	0xbe560fd4	-0.20904475
65	0x3da563d0	0.08075678
66	0xbd884b2f	-0.06654965
67	0xbd85701e	-0.06515525
68	0xbc42d508	-0.011891611
69	0xbdb179aa	-0.08665784
70	0xbd427cb9	-0.047482226
71	0x3d19196d	0.037377764
72	0x3d5ac7ae	0.053413086
73	0xbd996879	-0.0749063
74	0x3d26099f	0.04053652
75	0xbd45946a	-0.04823724
76	0x3e25a5c7	0.1617652
77	0xbd8855ba	-0.06656976
78	0xbd9d3a24	-0.07677105
79	0xbd8acd84	-0.0677748
80	0xbb347172	-0.002753344
81	0xbd593437	-0.05302831
82	0xbd117752	-0.035514183
83	0xbd9d1e50	-0.07671797
84	0x3c86b8a4	0.016445465
85	0xbdc08b7e	-0.09401606
86	0x3c9e187b	0.019298783
87	0xbd6aed98	-0.057355493
88	0xbe398c04	-0.18119818
89	0x3db8c260	0.09021449
90	0x3b3c0ec7	0.0028695331
91	0xbc6aba38	-0.014326625
92	0xbacafef8	-0.0015487364
93	0xbd3ce6ae	-0.04611843
94	0x3decd101	0.11563302
95	0x3ddf0a6c	0.1089066
96	0xbd4c3317	-0.04985341
97	0xbc589f9d	-0.0132216485
98	0xbc0afeb3	-0.008483577
99	0x3d8cd8bf	0.068772785
100	0xbd186cb2	-0.037213035
101	0x3d8e38ef	0.06944453
102	0xbcb38007	-0.021911634
103	0x3da45728	0.08024436
104	0xbe0f85c4	-0.14015871
105	0xbe28f907	-0.16501246
106	0xbd8e8903	-0.06959727
107	0x3b2ecac5	0.0026671153
108	0x3d3d8903	0.046273243
109	0x3e0cb787	0.13741885
110	0xbe790b73	-0.24320774
111	0x3dc46095	0.09588734
112	0xbd3e3915	-0.046441156
113	0x3dc56fa7	0.096404366
114	0xbd8ccaa2	-0.06874587
115	0x3cc09cf8	0.023512349
116	0x3dfebbe9	0.12438185
117	0xbe0ec625	-0.13942774
118	0x3be0479a	0.006844473
119	0xbca8c0ea	-0.020599801
120	0x3e0c4d1e	0.13701293
121	0x3ab25c3c	0.001360781
122	0x3e00dd29	0.12584366
123	0xbe0be087	-0.13659869
124	0x3d6486ab	0.055792492
125	0xbd27b2c4	-0.04094197
126	0x3d803d70	0.06261718
127	0x3d30a24e	0.043123536
128	0x3e1840b2	0.1486843
129	0xbd1bea84	-0.03806545
130	0x3b8823f0	0.0041546747
131	0x3cd544e0	0.026033819
132	0x3e1fa931	0.15591885
133	0xbd98f542	-0.07468654
134	0xbc3b6c52	-0.0114394
135	0x3d71632e	0.058932476
136	0xbe66b500	-0.22529984
137	0x3c5c9a1f	0.01346448
138	0x3e0e359a	0.13887635
139	0x3c8b2204	0.016983993
140	0x3d80cf12	0.062894955
141	0xbdc6f7d4	-0.09715238
142	0x3d11780b	0.035514873
143	0xbcf3bf06	-0.029754173
144	0xbdc28c4a	-0.09499414
145	0x3deb87fb	0.115005456
146	0xbc541b21	-0.012945921
147	0xbe0d2c36	-0.13786396
148	0xbd6c80ef	-0.05774015
149	0x3c97fccc	0.01855316
150	0xbd56b9f6	-0.05242344
151	0xbd9669ba	-0.073443845
152	0xbdf08e9d	-0.11745951
153	0xbe4197ea	-0.18905607
154	0x3daba350	0.08380759
155	0xbdf2b161	-0.118502386
156	0xbc7895eb	-0.015172462
157	0xbd8f5a31	-0.069996245
158	0x3c238a17	0.009981654
159	0x3da16b3f	0.07881784
160	0xbe7d2c58	-0.24723947
161	0x3d0ba8d1	0.034096543
162	0xbd8ee21b	-0.0697672
163	0xbe8e9362	-0.2784682
164	0x3dfcffeb	0.123535
165	0x3d9d1eb7	0.07671874
166	0x3d5201b8	0.05127117
167	0xbc840d73	-0.016119694
168	0xbda60162	-0.081057325
169	0xbd0afa98	-0.03393039
170	0x3d1f5bed	0.038906027
171	0xbe8198a1	-0.2531176
172	0xbde03b69	-0.109488316
173	0x3ce2f650	0.027705342
174	0xbe0d6ecf	-0.13811801
175	0x3c08b17b	0.008343096
176	0x3dbe7282	0.092991844
177	0x3d5be0ab	0.053681057
178	0x3d1cba4b	0.0382636
179	0xbe0175f9	-0.12642659
180	0x3c9329ea	0.017964322
181	0xbc67feb2	-0.014159845
182	0xbe05edb9	-0.13078965
183	0xbc40844c	-0.011750292
184	0xbd91ecc7	-0.0712524
185	0xbc7f00a4	-0.015564118
186	0xbdadafbb	-0.084807836
187	0x3db341ab	0.087527595
188	0x3e03455b	0.12819426
189	0x3dbcae2d	0.09212909
190	0xbc40bb34	-0.011763383
191	0xbd8d418c	-0.06897268
192	0x3c95e6fc	0.018298618
193	0xbd6cfe55	-0.057859737
194	0xbd39a2f9	-0.04532144
195	0xbda58ad3	-0.08083119
196	0x3d6270c0	0.055283308
197	0xbd76df83	-0.06027175
198	0x3df12fe3	0.11776712
199	0xbe24a11f	-0.16077088
200	0xbd1ab019	-0.037765596
201	0x3c59de3c	0.013297614
202	0xbd8d82e7	-0.06909733
203	0x3da7df60	0.08196902
204	0xbe27ea4c	-0.16397971
205	0xbc3dafd6	-0.011577567
206	0xbc7de9fe	-0.015497683
207	0xbd53de62	-0.051725753
208	0x3d960e27	0.07326918
209	0xbcd136cc	-0.025538824
210	0x3d8cd625	0.06876782
211	0x3de3aa33	0.11116447
212	0xbdad8b73	-0.084738635
213	0xbdd375e6	-0.10325222
214	0xbd95c6ab	-0.073132835
215	0x3dbba13d	0.09161613
216	0x3ddad38c	0.106848806
217	0x3e396218	0.18103826
218	0x3debe2a2	0.11517836
219	0x3bdcbaf3	0.0067361533
220	0xbcab7f06	-0.020934593
221	0xbe0285f9	-0.12746419
222	0x3df57123	0.1198447
223	0x3e087477	0.13325678
224	0xbc9d386e	-0.019191947
225	0xbe0e5cde	-0.13902614
226	0x3dea7794	0.11448589
227	0x3d719a5f	0.05898511
228	0xbb140a0c	-0.0022588996
229	0x3b39758b	0.002829882
230	0x3d5046e6	0.050848864
231	0x3d1ab995	0.03777464
232	0x3c563034	0.013073016
233	0xbe2442e7	-0.16041146
234	0xbdbecfd1	-0.093169816
235	0x3cbab7be	0.022792693
236	0x3d110ade	0.035410754
237	0x3e52cd05	0.20586021
238	0x3d3c6519	0.04599485
239	0x3d2771f0	0.040880144
240	0x3c8a70a7	0.01689942
241	0x3d9f5bec	0.077812046
242	0xbd3121d4	-0.04324515
243	0xbddc94ed	-0.10770593
244	0x3dd54099	0.10412712
245	0xbd8e0089	-0.06933696
246	0x3d0340b8	0.032044142
247	0x3d9669f8	0.07344431
248	0x3d53d21f	0.05171406
249	0x3df9fd3a	0.12206502
250	0x3e88fe91	0.2675672
251	0xbb41c5e3	-0.0029567413
252	0xbe85dac0	-0.26143456
253	0xbdfe4dc1	-0.12417174
254	0x39f989a3	0.00047595528
255	0x3d0146f1	0.031561796

mlp1.fc2.bias f4 [128]
0	0x3db7448a	0.0894862
1	0x3d973378	0.07382864
2	0x3e4d0643	0.2002192
3	0x3dc9f329	0.09860832
4	0x3e0ef6cc	0.13961333
5	0x3e684150	0.22681165
6	0x3e198d87	0.14995395
7	0x3dedd494	0.11612812
8	0x3da3f45f	0.080055945
9	0x3d0978e7	0.033562567
10	0x3dbbbbc9	0.091666766
11	0x3da8e13a	0.082460836
12	0x3e023d1f	0.12718628
13	0x3e224b20	0.1584897
14	0xbcc65a6b	-0.024213037
15	0x3d971eec	0.07378945
16	0x3df55262	0.11978604
17	0x3dcf1a54	0.101124436
18	0x3d6e5f5c	0.05819641
19	0x3e219c4d	0.1578228
20	0x3e21121e	0.15729567
21	0x3d8616d1	0.06547321
22	0x3e748fba	0.23882952
23	0x3e58aaeb	0.2115895
24	0x3d9a5ce4	0.07537249
25	0x3d8ca380	0.06867123
26	0x3db5c200	0.08874893
27	0x3e27fc59	0.16404857
28	0x3d858c76	0.065209314
29	0x3d899211	0.06717313
30	0x3e4563ac	0.19276303
31	0x3dc3bee5	0.095578946
32	0x3db239d6	0.087024376
33	0x3e04f8da	0.12985554
34	0x3e000738	0.12502754
35	0x3dbb99e2	0.0916021
36	0x3e272bd7	0.16325317
37	0x3da4b4f7	0.08042329
38	0x3df83bec	0.12120804
39	0x3e2b30f7	0.16717897
40	0x3e3d395e	0.18478915
41	0x3df6b06e	0.1204537
42	0x3a643bd5	0.00087064254
43	0x3d6246c6	0.055243276
44	0x3db442c9	0.08801801
45	0x3e486fd4	0.19573909
46	0x3dd7503c	0.1051335
47	0x3da02fd4	0.078216225
48	0x3ddca32f	0.10773312
49	0x3d758070	0.05993694
50	0x3de9ac35	0.11409799
51	0x3df8f18b	0.12155446
52	0x3dc82ff4	0.09774771
53	0x3d615c95	0.055019934
54	0x3da7702f	0.08175694
55	0x3dbae831	0.09126318
56	0x3c9ce70a	0.019153137
57	0x3d1c3fb5	0.038146693
58	0x3e1ff070	0.15619063
59	0x3e133f0e	0.14379522
60	0x3dd3403d	0.10314987
61	0x3df798b9	0.120896764
62	0x3d9ffedc	0.078122824
63	0x3e57aeaf	0.2106273
64	0x3d9ad3c3	0.075599216
65	0x3e169d12	0.14708355
66	0x3dbf38a4	0.09336975
67	0x3ceaa50b	0.028643152
68	0x3e2341e1	0.159431
69	0x3d81212c	0.06305155
70	0x3dc5df54	0.09661737
71	0x3e07bfbe	0.13256738
72	0x3df4bb65	0.11949805
73	0x3e0db9d1	0.13840415
74	0x3e31d7fd	0.17367549
75	0x3de39687	0.11112695
76	0x3d99873e	0.074964985
77	0x3e323971	0.17404725
78	0x3e370d3b	0.17876141
79	0x3e3471eb	0.17621581
80	0x3df03170	0.117281795
81	0x3df4ee4e	0.119595155
82	0x3e803ff5	0.25048795
83	0x3e55c0e4	0.20874363
84	0x3e274ce5	0.16337927
85	0x3d8cf111	0.06881917
86	0x3dd49b57	0.10381191
87	0x3e805f76	0.2507283
88	0x3e0cbbc6	0.13743505
89	0x3d323b5c	0.04351364
90	0x3d35cd45	0.044385213
91	0x3e02c453	0.12770204
92	0x3de57ed8	0.11205834
93	0x3e0b7ddc	0.1362223
94	0x3d7003c5	0.058597345
95	0x3dca3be8	0.098747075
96	0x3e8cfd97	0.27537224
97	0x3e534d18	0.20634878
98	0x3e05a3cf	0.1305077
99	0x3da9b176	0.08285801
100	0x3dece93a	0.11567922
101	0x3e253e53	0.16137056
102	0x3d838355	0.06421534
103	0x3de14b15	0.11000649
104	0x3d832834	0.064041525
105	0x3d8342d7	0.06409233
106	0x3de39f7f	0.11114406
107	0x3e299ad6	0.16562971
108	0x3db78830	0.089615226
109	0x3d81f5f9	0.06345744
110	0x3e2bb1e1	0.16767074
111	0x3dd54995	0.10414425
112	0x3e1a8934	0.15091401
113	0x3e037ca0	0.1284051
114	0x3dc58e41	0.096462734
115	0x3e01786d	0.12643595
116	0x3dc651b7	0.096835546
117	0x3d96d6dc	0.073652
118	0x3d82ef28	0.06393272
119	0x3e0d5e70	0.13805556
120	0x3e0883bc	0.13331503
121	0x3e04c0a0	0.12964106
122	0x3e14e64c	0.14540976
123	0x3e1b1a4f	0.15146755
124	0x3d19c916	0.037545286
125	0x3e21a37b	0.15785019
126	0x3dfb2973	0.12263765
127	0x3e2a5eff	0.166378

mlp1.bn.weight f4 [128]
0	0x3f889535	1.0670534
1	0x3f897ccc	1.074121
2	0x3f872a30	1.055975
3	0x3f864012	1.0488303
4	0x3f910cd4	1.133204
5	0x3f81b07e	1.0131986
6	0x3f8fefac	1.1245017
7	0x3f7bb7da	0.9832741
8	0x3f8d01d4	1.1016183
9	0x3f87de5a	1.0614731
10	0x3f89d35e	1.0767629
11	0x3f9629ed	1.1731545
12	0x3f8353d0	1.0259953
13	0x3f8e08f1	1.1096479
14	0x3f838ceb	1.027738
15	0x3f8c8e4e	1.0980928
16	0x3f8a6891	1.0813161
17	0x3f8efbef	1.1170634
18	0x3f80aa18	1.0051908
19	0x3f88486f	1.0647105
20	0x3f935562	1.1510432
21	0x3f85366d	1.0407234
22	0x3f88dbee	1.0692117
23	0x3f800435	1.0001284
24	0x3f86d40b	1.053346
25	0x3f83fec8	1.0312128
26	0x3f8f3bb8	1.11901
27	0x3f821e84	1.0165563
28	0x3f8bd950	1.0925694
29	0x3f86473b	1.0490488
30	0x3f8b0230	1.0860043
31	0x3f88f21a	1.0698884
32	0x3f8830e7	1.0639924
33	0x3f8739e4	1.0564542
34	0x3f866298	1.0498838
35	0x3f8706cf	1.0548953
36	0x3f89b129	1.075719
37	0x3f8e8ee4	1.1137357
38	0x3f887268	1.0659914
39	0x3f949860	1.1609001
40	0x3f8b5689	1.0885783
41	0x3f865267	1.0493897
42	0x3f85aad7	1.0442761
43	0x3f80178a	1.0007184
44	0x3f88b3c5	1.0679861
45	0x3f897aa3	1.0740551
46	0x3f87c48c	1.0606856
47	0x3f8149a9	1.0100604
48	0x3f8df2e2	1.1089747
49	0x3f8a82b9	1.0821143
50	0x3f8f873f	1.1213149
51	0x3f9070f4	1.128447
52	0x3f885498	1.0650816
53	0x3f925520	1.1432228
54	0x3f86cf0d	1.0531937
55	0x3f904722	1.1271708
56	0x3f8a715a	1.0815842
57	0x3f845fcc	1.0341735
58	0x3f8652ad	1.0493981
59	0x3f887a67	1.0662354
60	0x3f871080	1.055191
61	0x3f8bee02	1.0932009
62	0x3f8d76d4	1.1051888
63	0x3f9d4a83	1.2288364
64	0x3f86b71f	1.0524634
65	0x3f84fca4	1.03896
66	0x3f840d91	1.031664
67	0x3f93313e	1.1499403
68	0x3f85026f	1.0391368
69	0x3f81ae47	1.013131
70	0x3f838baa	1.0276997
71	0x3f7f59fd	0.99746686
72	0x3f8b8e24	1.0902753
73	0x3f85c5da	1.0451005
74	0x3f8f9af2	1.121916
75	0x3f881403	1.0631107
76	0x3f952b3a	1.1653817
77	0x3f7b5b38	0.98186064
78	0x3f829ebc	1.0204692
79	0x3f848817	1.0354031
80	0x3f92da6b	1.1472906
81	0x3f8b6dc9	1.0892879
82	0x3f88400d	1.0644547
83	0x3f7fe1e9	0.99954087
84	0x3f8acb0c	1.0843215
85	0x3f8bbeed	1.0917641
86	0x3f872e14	1.0560937
87	0x3f84a0d9	1.0361587
88	0x3f86b950	1.0525303
89	0x3f7c4d3c	0.9855535
90	0x3f855b25	1.041844
91	0x3f8d979a	1.106189
92	0x3f7f07eb	0.99621457
93	0x3f939a7d	1.1531521
94	0x3f84ffbc	1.0390544
95	0x3f86fc54	1.0545754
96	0x3f913d4e	1.1346834
97	0x3f88c59a	1.0685303
98	0x3f8994fa	1.0748589
99	0x3f87f009	1.0620128
100	0x3f781e09	0.9692083
101	0x3f879b5d	1.0594288
102	0x3f885f01	1.0653993
103	0x3f8f2dca	1.1185849
104	0x3f882c60	1.0638542
105	0x3f837683	1.0270542
106	0x3f86d1dc	1.0532794
107	0x3f891db4	1.071219
108	0x3f85149c	1.0396914
109	0x3f89fb8d	1.0779892
110	0x3f8afc27	1.0858201
111	0x3f8acba3	1.0843395
112	0x3f8a6037	1.0810612
113	0x3f822f4e	1.0170686
114	0x3f87d6ca	1.0612423
115	0x3f8a0ffd	1.0786129
116	0x3f8e1d32	1.110266
117	0x3f824333	1.0176758
118	0x3f88ca3c	1.0686717
119	0x3f9149b9	1.1350623
120	0x3f906279	1.1280051
121	0x3f8cf0be	1.1010969
122	0x3f8d884b	1.1057218
123	0x3f8cf472	1.1012099
124	0x3f8ddb2f	1.1082515
125	0x3f84fcc1	1.0389634
126	0x3f8a01d9	1.0781814
127	0x3f806f10	1.0033894

mlp1.bn.bias f4 [128]
0	0x3c8b5795	0.017009536
1	0xbd8d66ff	-0.069044106
2	0x3d8c0f79	0.06838889
3	0x3c4b95f7	0.012425891
4	0x3c6b8e18	0.0143771395
5	0x3daabfa7	0.08337336
6	0xbd67a68a	-0.05655531
7	0xbe02ad85	-0.12761505
8	0x3dc2a215	0.09503571
9	0x3cfafd8d	0.03063848
10	0x3d1155e7	0.035482313
11	0x3d35c253	0.044374775
12	0xbc4b87a9	-0.012422481
13	0x3d7b2a12	0.06131942
14	0x3d9ecaa2	0.07753493
15	0xbc57ddcd	-0.01317544
16	0xbd46ae9b	-0.04850636
17	0x3d334f49	0.043776784
18	0xbc15c32a	-0.009140769
19	0x3d012e0f	0.031538066
20	0xbd28069c	-0.04102193
21	0xbc52607a	-0.012840385
22	0x3c2d3d04	0.010573629
23	0x3df7401b	0.12072774
24	0x3d1dbc0e	0.03850942
25	0x3d466b91	0.048442427
26	0xbbf48220	-0.007461801
27	0x3b8c35ed	0.0042788894
28	0x3e06e54d	0.13173409
29	0xbdc79b00	-0.09746361
30	0x3bdbb396	0.006704758
31	0x3e3c4404	0.18385321
32	0xbcd32dee	-0.025778737
33	0xbca9f4ac	-0.020746551
34	0x3d35d5ce	0.044393353
35	0xbce9d057	-0.028541727
36	0x3ca63590	0.020289212
37	0x3d06328f	0.03276306
38	0xbb968d80	-0.004594505
39	0x3d191c97	0.03738078
40	0x3c93af7f	0.018028019
41	0x3cd13b87	0.02554108
42	0x3bae92d3	0.0053275614
43	0x3de27309	0.110570975
44	0x3e1904f4	0.14943296
45	0x3c9febbf	0.019521592
46	0xbd8dca44	-0.06923345
47	0x3d2553bd	0.040363062
48	0x3d8278a9	0.0637067
49	0x3d853e0d	0.06505976
50	0x3c3fef4b	0.011714767
51	0x3d185fb1	0.037200633
52	0xb9a14df8	-0.00030766404
53	0xbbf1eb53	-0.007382789
54	0x3cb63244	0.022240765
55	0xbc518968	-0.012789108
56	0x3d2b5136	0.041825496
57	0x3dad3ae7	0.084585
58	0xbd1b6f24	-0.03794779
59	0x3ccb2349	0.024797099
60	0xbcaa85a9	-0.020815687
61	0x3d1610e7	0.036637213
62	0x3c9852b0	0.018594116
63	0x3e42f097	0.1903709
64	0x3d089f11	0.033354823
65	0xbcb3d561	-0.021952333
66	0x3d4309e8	0.04761687
67	0x3c3c0f6d	0.011478287
68	0x3d550a4f	0.052011784
69	0x3e160303	0.14649586
70	0x3df1a2da	0.117986396
71	0x3d71285f	0.05887639
72	0xbd6f51d9	-0.058427665
73	0xbb76c67a	-0.0037654922
74	0xbd9daaf7	-0.076986246
75	0x3d4cae06	0.04997065
76	0x3dd59f2c	0.1043075
77	0xbcbb08b2	-0.022831295
78	0xbd88d5e1	-0.06681419
79	0x3cdf8e72	0.027289603
80	0xbd125e3c	-0.0357344
81	0xbd1ab01a	-0.0377656
82	0x3b2fc821	0.0026822167
83	0xbd466602	-0.048437126
84	0x3cbbbf50	0.022918373
85	0x3c5f989c	0.013647225
86	0x3cb8d963	0.022564596
87	0x3c902c3f	0.017599223
88	0x3daef8f6	0.08543579
89	0x3cd51431	0.026010605
90	0x3da182ff	0.07886314
91	0xbdfbce1d	-0.12295172
92	0xbd8f02ea	-0.06982978
93	0x3cb9aa23	0.022664135
94	0x3d1927b5	0.037391383
95	0xbd932911	-0.07185567
96	0x3dcbfdbc	0.09960505
97	0x3d881ed8	0.06646508
98	0x3df1cb56	0.118063614
99	0xbc9f03ea	-0.019411046
100	0x3cd1b15f	0.025597272
101	0x3d006ddf	0.03135478
102	0xbc87bb11	-0.016568692
103	0x3b9afd5f	0.004729911
104	0xbd2340b5	-0.03985663
105	0x3cca4afa	0.024693955
106	0x3e1d6c79	0.1537341
107	0xbcee2486	-0.02907015
108	0x3dbb468f	0.09144317
109	0x3cde0144	0.027100213
110	0xbd483c60	-0.048885703
111	0x3c456a2d	0.01204924
112	0x3c079efe	0.008277653
113	0x3e41dcfb	0.18931954
114	0x3d14a0a5	0.036286015
115	0xbb9f8b57	-0.0048689055
116	0xbe0be310	-0.13660836
117	0x3cc7b301	0.024377348
118	0x3d2520a6	0.04031434
119	0xbc5ff510	-0.013669267
120	0x3db9b72a	0.09068139
121	0xbd55eeb6	-0.052229606
122	0x3b8ea241	0.0043528383
123	0xbd2f40df	-0.042786475
124	0xbd1311e7	-0.035905745
125	0x3b6af46a	0.0035851249
126	0x3d4f8afc	0.050669655
127	0x3e021c13	0.12706022

mlp1.bn.running_mean f4 [128]
0	0xbdb2c154	-0.08728281
1	0x3d85c4a6	0.06531648
2	0x3e64a559	0.223287
3	0x3e3746b0	0.17898059
4	0xbddc7823	-0.10765102
5	0x3eacc6c7	0.33745405
6	0x3d9aacf8	0.075525224
7	0xbdaff73f	-0.0859208
8	0x3e4a815e	0.19775912
9	0x3e1b9c57	0.15196358
10	0x3d318397	0.043338384
11	0x3df3be0e	0.119014844
12	0x3d6dd10d	0.058060694
13	0x3dbc2d94	0.09188381
14	0x3eb391e9	0.35072258
15	0x3e5d9200	0.21637726
16	0x3e17675d	0.14785524
17	0xbd176f57	-0.036971416
18	0x3e0a24c4	0.13490587
19	0x3e472c52	0.194505
20	0xbdaa5d61	-0.08318592
21	0x3e6c1635	0.23055346
22	0x3f076706	0.52891576
23	0x3f432f4e	0.76244056
24	0xbde9ea14	-0.114216
25	0x3f09eff1	0.53881747
26	0x3e3a78c9	0.18210138
27	0x3d826c18	0.063682735
28	0x3eae4c50	0.34042597
29	0x3d49c87f	0.049263474
30	0x3d72f58b	0.0593162
31	0x3edb01e2	0.42774874
32	0x3db75077	0.08950894
33	0x3e78df21	0.24303867
34	0xbd27ba2d	-0.040949035
35	0x3e2d2a25	0.16910608
36	0x3e58421d	0.2111897
37	0x3d60a354	0.05484326
38	0x3e6d56d4	0.23177654
39	0x3dedb5c9	0.116069384
40	0x3d13652c	0.035985157
41	0xbd4a4890	-0.049385607
42	0x3e4420c9	0.19153132
43	0x3ee30d8a	0.44346267
44	0xbdde1615	-0.108440556
45	0x3e0514f6	0.12996277
46	0x3eb07c93	0.34470043
47	0x3e1aac43	0.15104775
48	0xbd3130f8	-0.04325959
49	0xbe2cfe83	-0.16893964
50	0x3d16ce66	0.03681793
51	0x3e101ef2	0.14074305
52	0x3dd9ecf9	0.10640902
53	0x3d4aaacc	0.04947929
54	0x3e0c56aa	0.13704935
55	0x3e173fdc	0.14770454
56	0xbe00d076	-0.12579522
57	0x3efc3926	0.4926235
58	0x3dbb9823	0.09159877
59	0x3eaecfca	0.34142905
60	0xbb34a866	-0.0027566194
61	0x3e60facb	0.2197067
62	0x3e3ad7ac	0.18246335
63	0x3d16a3e6	0.0367774
64	0x3d31ddb6	0.04342433
65	0x3e0c47b2	0.13699225
66	0xbe0e8e10	-0.1392138
67	0x3dff5d49	0.124689646
68	0x3e972259	0.29518393
69	0xbdbebfe7	-0.09313946
70	0x3e090e9d	0.13384481
71	0x3d4094a9	0.047016773
72	0x3e8d8828	0.2764294
73	0x3e75cdfe	0.24004361
74	0x3dc7eae0	0.09761596
75	0xbd9f6888	-0.0778361
76	0x3d8d8554	0.06910196
77	0x3ea87ce8	0.32907796
78	0x3e587d19	0.21141471
79	0x3e857823	0.2606822
80	0x3d3e3e2a	0.046446003
81	0x3dcece8b	0.10097989
82	0x3e37ddfc	0.17955774
83	0x3e96ce6e	0.29454368
84	0x3df58def	0.11989962
85	0xbd8af07e	-0.067841515
86	0x3e974c11	0.29550222
87	0x3e7fc7a6	0.24978504
88	0x3ed02a7e	0.4065742
89	0x3e79f333	0.2440918
90	0x3e09273a	0.1339387
91	0x3dac5c2b	0.08416017
92	0x3ed0cf77	0.40783283
93	0xbc2d87c5	-0.010591452
94	0xbc6f98d9	-0.014623844
95	0xbd15b4d9	-0.036549423
96	0x3e7fc5e8	0.24977839
97	0x3eab971a	0.3351372
98	0x3eafd0e7	0.34339067
99	0x3d31e4a8	0.043430954
100	0x3e880b7c	0.26571262
101	0xbdc8dbb8	-0.09807533
102	0x3e5d3171	0.21600892
103	0x3dd23181	0.10263348
104	0x3daa15ba	0.08304925
105	0x3e4d75da	0.20064488
106	0x3e376f30	0.17913508
107	0x3d4d37af	0.050101932
108	0x3ee93440	0.45547676
109	0xbe74235f	-0.23841618
110	0x3d158114	0.03650005
111	0xbd81b27e	-0.06332873
112	0x3e21b74b	0.15792577
113	0x3e69102b	0.22760074
114	0x3f130305	0.5742648
115	0xbdc7c57b	-0.09754463
116	0x3ce9cd2e	0.02854022
117	0xbd883620	-0.066509485
118	0x3d71cc88	0.059032947
119	0xbb355bb8	-0.0027673077
120	0x3ccdbb0c	0.025113605
121	0x3d35b188	0.04435876
122	0x3d653d94	0.05596693
123	0x3e22c40d	0.158951
124	0xbdb1385e	-0.08653329
125	0x3e488c2b	0.1958472
126	0x3e4490c6	0.19195852
127	0x3ec1aed2	0.3782869

mlp1.bn.running_var f4 [128]
0	0x3e338d17	0.1753429
1	0x3ea41c8c	0.3205303
2	0x3ed4eb65	0.41585842
3	0x3f09e056	0.53857934
4	0x3e84bb39	0.2592409
5	0x3f06fb75	0.5272744
6	0x3ec00708	0.37505364
7	0x3df64ffa	0.12026973
8	0x3eee21ca	0.46510154
9	0x3ee8daa4	0.4547931
10	0x3e5145f3	0.2043684
11	0x3e5f6c0d	0.21818562
12	0x3f01364e	0.5047349
13	0x3eb97ee3	0.3622962
14	0x3f193363	0.59844035
15	0x3e8c5126	0.2740566
16	0x3e96d78d	0.29461327
17	0x3f184f0b	0.5949561
18	0x3ea10b4a	0.31453925
19	0x3e945481	0.2897072
20	0x3e0bc1cb	0.13648145
21	0x3f034f1d	0.5129259
22	0x3ebb4966	0.36579436
23	0x3f1d04c2	0.61335385
24	0x3e3d9075	0.18512137
25	0x3f8d791d	1.1052586
26	0x3e938444	0.28811848
27	0x3e3272a3	0.17426543
28	0x3eda568e	0.4264416
29	0x3e977311	0.29579976
30	0x3ec6d6d4	0.38835776
31	0x3f15d48b	0.5852744
32	0x3ededbf8	0.43527198
33	0x3f168ff6	0.58813417
34	0x3e980698	0.2969253
35	0x3ee9595c	0.45575988
36	0x3ef04d1e	0.46933836
37	0x3eb95596	0.3619811
38	0x3f2a4199	0.66506344
39	0x3e72d706	0.23714837
40	0x3e65cb70	0.22440886
41	0x3e6b2d36	0.22966465
42	0x3e9f35d0	0.31095743
43	0x3ec40f2b	0.38292822
44	0x3f024c2d	0.50897485
45	0x3f1dc5ec	0.6163013
46	0x3ed4b3f3	0.4154354
47	0x3efb0c16	0.49032658
48	0x3e29f245	0.16596325
49	0x3eb35c62	0.3503142
50	0x3ed8af3e	0.423212
51	0x3eea9e00	0.4582367
52	0x3f01c009	0.5068365
53	0x3e7ed2b9	0.24885072
54	0x3f4074c2	0.7517816
55	0x3e986455	0.29764047
56	0x3e685873	0.2268999
57	0x3efcd7ce	0.49383396
58	0x3f1c2e37	0.6100802
59	0x3ea310f3	0.3184887
60	0x3ea0e52e	0.3142485
61	0x3f06e2d7	0.5268988
62	0x3ed7aa64	0.42122185
63	0x3eba4bc0	0.36385918
64	0x3fbcbcd0	1.4745121
65	0x3e8796a8	0.2648213
66	0x3e9b4ae7	0.30330583
67	0x3e73a333	0.23792724
68	0x3ea2d87a	0.31805784
69	0x3f3ddc02	0.7416383
70	0x3e8da832	0.27667385
71	0x3eecb619	0.4623268
72	0x3ebf47c0	0.37359428
73	0x3f291450	0.6604662
74	0x3eafa8c3	0.34308442
75	0x3eb35bfd	0.3503112
76	0x3ea3b058	0.31970477
77	0x3eb96d4a	0.36216193
78	0x3f02ea9b	0.5113923
79	0x3e82dfe3	0.25561437
80	0x3ea5ad9c	0.32359016
81	0x3ec9bed1	0.39403394
82	0x3e9202b7	0.28517696
83	0x3eb9bcbb	0.36276802
84	0x3ea2305e	0.31677526
85	0x3efe1851	0.49627927
86	0x3f49433f	0.78618234
87	0x3ed45448	0.41470551
88	0x3fa54d1d	1.2914158
89	0x3f63ace9	0.88935715
90	0x3ec3b25d	0.38222018
91	0x3e6e686b	0.2328202
92	0x3e897925	0.26850238
93	0x3ec408f2	0.38288075
94	0x3e8dafd6	0.27673215
95	0x3e612e4f	0.21990322
96	0x3e61d39e	0.22053382
97	0x3ec64391	0.38723424
98	0x3f51bdd1	0.8193026
99	0x3e82beb3	0.25536117
100	0x3ebee711	0.37285665
101	0x3e28dad5	0.16489728
102	0x3ed36fd8	0.41296268
103	0x3ec77bb0	0.38961554
104	0x3e7ef9f6	0.2490004
105	0x3f139144	0.5764353
106	0x3f0c144a	0.5471846
107	0x3eb28691	0.3486829
108	0x3e85d899	0.26141813
109	0x3e454c38	0.19267356
110	0x3ed0f05f	0.4080839
111	0x3e5a9e90	0.2134955
112	0x3e865c03	0.26242074
113	0x3f3bf802	0.73425305
114	0x3ef83436	0.48477334
115	0x3e5d548e	0.21614286
116	0x3ed5e115	0.41773286
117	0x3e728b01	0.23685838
118	0x3e8c76b2	0.27434307
119	0x3e700760	0.23440313
120	0x3e8dc451	0.2768884
121	0x3eb146bb	0.34624276
122	0x3e8fc45b	0.28079495
123	0x3e88fd23	0.26755628
124	0x3ea7ac25	0.32748523
125	0x3ec3f13a	0.3826998
126	0x3f0361a3	0.51320857
127	0x3ef5a831	0.47979882

mlp2.fc1.weight f4 [128, 256]
0	0xbb61d9db	-0.0034462127
1	0x3dca58c2	0.098802105
2	0x3bac8656	0.0052650375
3	0x3c021ff5	0.007942189
4	0x3ceef508	0.029169574
5	0xbd2a53c5	-0.041583795
6	0xbdc717d1	-0.097213395
7	0x3db2dbfc	0.08733365
8	0xbe207201	-0.15668489
9	0xbd8269a2	-0.06367804
10	0x3ca5803f	0.020202754
11	0xbe0b10ec	-0.13580674
12	0xbe192a29	-0.14957489
13	0xbbfe01df	-0.007751688
14	0xbc944030	-0.018097013
15	0x3940687a	0.00018349467
16	0xbd551aa1	-0.05202735
17	0x3de2ab4b	0.11067828
18	0x3ca4c5c9	0.020113843
19	0x3d54d037	0.05195638
20	0x3d98ccc8	0.07460934
21	0x3d0ae005	0.033905048
22	0x3daf0334	0.08545533
23	0xbd008483	-0.031376373
24	0xbd903016	-0.07040422
25	0xbe258a11	-0.1616595
26	0xbd6a89b1	-0.05726022
27	0xbdff9ff2	-0.12481679
28	0x3daa78af	0.083238
29	0xbccc9544	-0.02497352
30	0xbe680be9	-0.22660793
31	0x3d82454a	0.06360872
32	0xbd74f330	-0.059802234
33	0x3d2cac63	0.04215659
34	0x3cec29a2	0.028828446
35	0xbd8ace9c	-0.06777689
36	0xbd5e1d59	-0.054227207
37	0x3d9a95dc	0.07548115
38	0xbd7b8974	-0.061410382
39	0x3ba44ee7	0.0050142887
40	0xbe0c6599	-0.13710631
41	0x3d5378d4	0.051628903
42	0xbde6d79c	-0.11271593
43	0xbd89e267	-0.06732636
44	0xbd009c35	-0.03139897
45	0x3ca1ae03	0.019736296
46	0x3d428da8	0.047498375
47	0xbe1a17ce	-0.15048143
48	0xbd2431e6	-0.04008665
49	0x3d7f8873	0.062385987
50	0xbdaecd15	-0.0853521
51	0xbd098927	-0.033578064
52	0x3d83febc	0.06445071
53	0xbdf1799c	-0.11790773
54	0xbd93d76f	-0.07218825
55	0xbe7be709	-0.24599852
56	0xbdf98b7f	-0.1218481
57	0x3be3b622	0.006949202
58	0x3c69d737	0.014272503
59	0xbc50b108	-0.01273752
60	0xbe3eb2e7	-0.18622933
61	0x3be7c75b	0.0070733256
62	0xbd2f6b1d	-0.04282676
63	0xbe8a1d55	-0.26975504
64	0x3de114b6	0.109902784
65	0x3c79cb55	0.015246232
66	0xbddea907	-0.10872083
67	0x3e265d85	0.16246612
68	0xbe3c25ab	-0.18373744
69	0xbc3a9ea2	-0.01139036
70	0xbc791db7	-0.0152048385
71	0xbd942e82	-0.07235433
72	0xbd79c8a7	-0.060982373
73	0xbd884868	-0.066544354
74	0x3d50c4d3	0.050968956
75	0xbcd4c47b	-0.025972595
76	0x3d6519b2	0.055932708
77	0x3d6bcd32	0.057568736
78	0x3ded9dbb	0.1160235
79	0x3d1ca438	0.03824255
80	0x3dd64a41	0.104633816
81	0xbcd5f10b	-0.026115915
82	0xbdb4a905	-0.088213004
83	0xbcc0d52d	-0.02353915
84	0x3aedaacc	0.0018132566
85	0x3d266feb	0.040634077
86	0xbd8b3688	-0.067975104
87	0xbdedd9bf	-0.116137974
88	0x3e20b26f	0.15693067
89	0xbe2faa65	-0.17154844
90	0xbdce03af	-0.10059296
91	0x3d1fb11a	0.038987257
92	0xbdfb6737	-0.12275546
93	0x3dc16a24	0.09444073
94	0xbcfbad50	-0.03072229
95	0x3e216b7d	0.1576366
96	0x3c564f58	0.01308044
97	0xbd8a2bd5	-0.067466415
98	0x3e0a4dd0	0.13506246
99	0x3c452c6c	0.012034517
100	0xbd25a7ce	-0.040443234
101	0xbe0facf8	-0.14030826
102	0x3d9d5c06	0.07683568
103	0xbd34e614	-0.044164732
104	0xbd91d9b3	-0.07121601
105	0xbc5f0907	-0.013612992
106	0xbe13c660	-0.14431143
107	0xbcc5ebb4	-0.024160244
108	0xbdb7f006	-0.08981328
109	0xbc1825a3	-0.009286317
110	0xbd738c0b	-0.059459727
111	0xbe212cb0	-0.15739703
112	0xba1c44bf	-0.00059611717
113	0xbd811fd0	-0.06304896
114	0x3bee21bc	0.007267205
115	0x3bbf5d55	0.0058399835
116	0x3c91f31b	0.017816117
117	0x3d575f11	0.052580897
118	0x3cb12300	0.021623135
119	0xbe0d1777	-0.13778482
120	0x3de66e08	0.112514555
121	0x3bcbea0f	0.0062229703
122	0x3e2efc21	0.17088367
123	0xbdf67baf	-0.120353095
124	0x3e99ef07	0.30065176
125	0xbe263787	-0.1623212
126	0xbc4fdae0	-0.012686461
127	0x3d9be8c3	0.07612755
128	0xbd9255c4	-0.07145265
129	0x3d22c07a	0.03973434
130	0xbd7429e4	-0.059610263
131	0xbd87deee	-0.06634317
132	0xbd404d04	-0.046948448
133	0xbdb65f6a	-0.089049175
134	0x3dc01f02	0.09380914
135	0x3c3bcd60	0.011462539
136	0x3dc7b89d	0.09752009
137	0xbdf1550d	-0.117838
138	0xbbf10852	-0.007355728
139	0x3c8a514e	0.016884472
140	0x3e03b902	0.12863544
141	0xbd306bc5	-0.043071527
142	0x3dca58e1	0.098802336
143	0xbcabf1d5	-0.020989338
144	0xbd69fb1b	-0.05712424
145	0xbbab31c4	-0.0052244384
146	0xbc40c74a	-0.011766264
147	0xbc560237	-0.0130620515
148	0xbe6fd061	-0.23419334
149	0x3dc44321	0.09583116
150	0xbe2e1349	-0.16999544
151	0x3de98479	0.1140222
152	0x3e0b7a95	0.1362098
153	0xbe0458af	-0.12924455
154	0x3d637d46	0.055539392
155	0xbd9853c5	-0.07437853
156	0x3cb8b5ab	0.022547564
157	0xbbf016d3	-0.0073269396
158	0x3dafdabb	0.085866414
159	0xbdc2dd82	-0.095149055
160	0xbc34ec22	-0.011042627
161	0xbdaad696	-0.0834171
162	0xbcb02926	-0.021503996
163	0xbe3243ab	-0.17408626
164	0x3e143607	0.14473735
165	0x3da77f47	0.08178573
166	0xbc426374	-0.011864532
167	0x3d168606	0.03674891
168	0x3b34babd	0.0027577125
169	0x3d8203c3	0.06348374
170	0x3ca7fbe9	0.020505862
171	0x3d8f40f7	0.06994813
172	0xbcd044b2	-0.025423381
173	0xbcdc8dde	-0.026923116
174	0x3d5443ad	0.051822353
175	0x3bccdd19	0.006251943
176	0xbda22478	-0.07917112
177	0x3dc5c442	0.09656574
178	0x3dc64758	0.096815765
179	0x3c8351ad	0.016030157
180	0x3c19fe17	0.009398959
181	0xbc5be25a	-0.013420666
182	0xbdc5d4ca	-0.09659727
183	0x3d9d5a8d	0.07683287
184	0xbe18f603	-0.14937596
185	0x3e07ab86	0.13249025
186	0x3e030bb7	0.12797438
187	0x3bce7b09	0.006301288
188	0x3e56b99c	0.20969242
189	0xbd9f152c	-0.0776771
190	0x3dcd7b29	0.100332566
191	0x3d4579d3	0.048211884
192	0x3e2a54d9	0.1663393
193	0xbc9cd5a3	-0.019144839
194	0xbd07047b	-0.032963257
195	0x3d691293	0.05690248
196	0xbafefacd	-0.0019453407
197	0x3cafb38b	0.021447917
198	0xbdd83d62	-0.10558583
199	0x3cc408fc	0.023930065
200	0xbb0a06d5	-0.00210612
201	0xbcccdb22	-0.025006834
202	0x3c35de77	0.011100403
203	0xbdfc35b1	-0.12314928
204	0x3dea5ed8	0.11443871
205	0xbe158205	-0.1460038
206	0x3c21ec54	0.009883005
207	0x3da5776f	0.08079421
208	0x3d1b50f7	0.03791901
209	0xbd8145f5	-0.06312171
210	0xbda4a1f9	-0.08038706
211	0xbd9cbaec	-0.0765284
212	0x3d0d54e4	0.034504786
213	0xbdd69087	-0.10476785
214	0xbccc0d59	-0.024908708
215	0xbb295cfc	-0.0025842777
216	0x3c88529b	0.016640952
217	0x3e1d4df7	0.15361772
218	0xbb858372	-0.0040745074
219	0x3c0506dc	0.008119311
220	0xbda4636f	-0.08026778
221	0xbe20db11	-0.15708567
222	0x3be68c98	0.007035803
223	0xbe04f492	-0.12983921
224	0xbd8fa6f4	-0.07014266
225	0xbcd5f7aa	-0.026119072
226	0xbdee85ec	-0.11646637
227	0x3d0e118a	0.034684695
228	0x3df722d7	0.12067192
229	0xbd93cbd8	-0.072166145
230	0xbb4bba26	-0.0031086295
231	0x3b67d9f2	0.0035377708
232	0x3d807257	0.062718086
233	0x3c928f15	0.017890492
234	0x3da803fe	0.082038864
235	0x3d9263c5	0.07147936
236	0x3ca787d6	0.020450514
237	0xbc9ad7f7	-0.018901808
238	0xbc3f091b	-0.011659886
239	0x3d27b0f7	0.04094025
240	0xbd6ccba1	-0.057811383
241	0xbe2c2277	-0.16810022
242	0xbdfba4c0	-0.12287283
243	0x3d33a5f5	0.04385944
244	0x3d1914fa	0.03737352
245	0xbe1a271c	-0.15053982
246	0x3ce34019	0.027740525
247	0xbdb11af5	-0.0864772
248	0xbe3c7360	-0.18403387
249	0x3d807d36	0.06273882
250	0xbdce6594	-0.10077968
251	0xbd63fd3f	-0.055661436
252	0xbded6977	-0.115923814
253	0x3e03037b	0.12794296
254	0xbe4620cc	-0.19348449
255	0xbc3db95e	-0.0115798395

mlp2.fc1.bias f4 [128]
0	0x3d2ed81b	0.042686563
1	0x3d10891e	0.035287015
2	0x3db55e17	0.08855837
3	0x3c8dfddb	0.017332962
4	0x3d353c05	0.044246692
5	0x3da3175e	0.07963441
6	0x3d4ad522	0.049519666
7	0x3d9f6f3b	0.077848874
8	0x3cf48c07	0.029851926
9	0x3e24266a	0.16030279
10	0x3e550597	0.20802914
11	0x3dbef793	0.09324565
12	0x3dc2d991	0.09514154
13	0x3c00fd4b	0.00787289
14	0x3e1c416c	0.15259331
15	0x3e164076	0.14673027
16	0x3d93870e	0.07203494
17	0x3d5e50ae	0.05427616
18	0x3d119086	0.03553822
19	0x3da544e7	0.08069783
20	0x3ddfad5f	0.1092174
21	0x3e260d59	0.16216029
22	0x3df77a90	0.12083924
23	0x3be9f38e	0.0071396297
24	0x3d781af4	0.06057258
25	0x3da8b6e1	0.082380064
26	0x3dcfa62b	0.10139116
27	0x3d99a1ff	0.075016014
28	0x3e2f2ba5	0.17106493
29	0x3d345799	0.044028852
30	0x3e25ea8a	0.16202751
31	0x3da56c58	0.080773056
32	0x3c416875	0.01180469
33	0x3e1d4ab7	0.15360533
34	0x3cc25954	0.023724236
35	0x3d88f356	0.06687038
36	0x3de11e5a	0.10992117
37	0x3d4aacc8	0.049481183
38	0x3e0d035a	0.1377081
39	0x3d87ceaa	0.06631215
40	0x3de66c11	0.11251081
41	0x3ccfa87b	0.025348892
42	0x3db9f606	0.09080128
43	0x3d97b365	0.07407264
44	0x3e1a41d0	0.15064168
45	0xba09eaab	-0.00052611035
46	0x3e22b362	0.15888742
47	0x3cd18b83	0.02557922
48	0xbd3322ce	-0.043734364
49	0x3da5f4b3	0.08103313
50	0x3d242652	0.040075608
51	0x3d500ba7	0.050792363
52	0x3c8a5c61	0.016889753
53	0x3dbba0e9	0.091615506
54	0x3d46c62f	0.048528846
55	0x3e0858bd	0.13315101
56	0x3d932202	0.07184221
57	0x3e3eb6d1	0.18624426
58	0x3c84b797	0.016200824
59	0x3d93513c	0.071932286
60	0xbd071a90	-0.032984316
61	0x3db059d9	0.08610887
62	0x3d9f53f0	0.07779682
63	0x3c96ab58	0.01839225
64	0x3b4581f4	0.0030137273
65	0x3d0f4d8b	0.03498606
66	0x3cc0ddd2	0.023543272
67	0x3e06fc07	0.13182078
68	0x3d711f75	0.05886789
69	0x3d1781be	0.036988966
70	0x3aa47239	0.0012546248
71	0x3da734c8	0.08164364
72	0x3d976af7	0.07393449
73	0x3dcd4676	0.10023205
74	0x3e178971	0.14798523
75	0x3deafcde	0.11474012
76	0x3ddf51e1	0.10904289
77	0x3da56276	0.080754206
78	0x3de8ed23	0.11373355
79	0x3b00cc9f	0.0019653214
80	0x3da0a1d1	0.07843364
81	0x3ca5868a	0.020205755
82	0x3cc4200e	0.023941066
83	0x3dbc3200	0.09189224
84	0x3cd02a36	0.025410753
85	0x3d93a627	0.072094254
86	0x3dc03c52	0.09386505
87	0x3d1a62b7	0.037691798
88	0x3daca6d2	0.08430256
89	0x3e2fa092	0.17151096
90	0x3d39f3ce	0.045398526
91	0x3e1c53e7	0.15266381
92	0xbe085283	-0.13312726
93	0x3da7c3b0	0.08191621
94	0x3cc255c6	0.02372254
95	0x3d991bf3	0.07476034
96	0x3d638175	0.05554338
97	0x3dba1436	0.09085886
98	0x3e2cdef0	0.16881919
99	0x3ce5c772	0.028049204
100	0x3da8c796	0.08241193
101	0x3d838249	0.06421334
102	0x3e0f3fef	0.13989232
103	0x3d58c957	0.052926388
104	0x3e45d99c	0.19321293
105	0x3d886ed4	0.06661764
106	0x3de58faa	0.11209042
107	0x3dadf6c1	0.0849433
108	0x3c9628a4	0.018329926
109	0x3d0833f1	0.03325266
110	0x3d8c4fa1	0.068511255
111	0x3e0052e5	0.12531622
112	0x3e10c061	0.14135887
113	0x3c1c5f17	0.009544156
114	0x3e167990	0.1469481
115	0x3d8023dc	0.0625684
116	0x3cc0ff91	0.023559364
117	0x3d011316	0.031512342
118	0x3de958a7	0.11393862
119	0x3e485244	0.19562632
120	0x3c1c589b	0.00954261
121	0x3d898081	0.06713963
122	0x3e340457	0.1757978
123	0x3d6424e5	0.055699248
124	0x3def8972	0.116961375
125	0x3c9c2354	0.019059815
126	0x3df96764	0.12177923
127	0x3e104ae3	0.14091067

mlp2.fc2.weight f4 [128, 128]
0	0x3d0cce56	0.034376465
1	0xbdb5df10	-0.088804364
2	0x3e024a98	0.12723768
3	0x3e12abc5	0.14323337
4	0x3d710184	0.058839336
5	0x3e03ccf6	0.12871155
6	0xbe835871	-0.25653413
7	0x3e224e3b	0.15850155
8	0x3d9d3cb9	0.076775976
9	0x3e0f32ab	0.13984172
10	0xbcc686d2	-0.02423421
11	0xbdd6f7b0	-0.104964614
12	0xbe43b9f8	-0.1911391
13	0xbcda7254	-0.026665844
14	0x3d266382	0.04062224
15	0xbdd5f23a	-0.10446592
16	0xbd17e96a	-0.037087835
17	0x3e041d43	0.12901787
18	0xbe2f4d1a	-0.17119256
19	0xbb28502f	-0.0025682559
20	0xbd7a6317	-0.061129656
21	0xbb64bfa5	-0.0034904268
22	0x3deb841d	0.11499808
23	0xbdb307ba	-0.08741708
24	0xbda0a031	-0.07843054
25	0x3e1ab313	0.15107374
26	0x3c2ff1d3	0.010738808
27	0x3d3859d7	0.045007553
28	0xbde7497f	-0.11293315
29	0xbd4d6609	-0.050146136
30	0xbdf0b0c2	-0.11752464
31	0x3d44dd3a	0.04806254
32	0xbe3454c3	-0.17610459
33	0xbd084625	-0.03327002
34	0xbe5a67fa	-0.21328726
35	0xbe2eddeb	-0.17076842
36	0x3d399944	0.04531218
37	0xbe2e122a	-0.16999117
38	0x3c1364ce	0.008996202
39	0x3d708cc5	0.058728
40	0xbe11a2e5	-0.14222296
41	0x3b6bd3df	0.003598444
42	0x3d1db68f	0.03850418
43	0xbc9e1f98	-0.019302174
44	0x3dbef702	0.09324457
45	0x3d8d380c	0.06895456
46	0xbb13a4c4	-0.0022528628
47	0xbc2b9fcc	-0.01047511
48	0x3e00232b	0.12513416
49	0xbe6a1de6	-0.22862968
50	0x3df95491	0.12174333
51	0x3dbbc8b6	0.09169142
52	0x3d3f796f	0.046746667
53	0xbc6657c0	-0.014059007
54	0x3e0e9dd2	0.13927391
55	0xbcf4f2a7	-0.029900862
56	0x3d0426f8	0.032263726
57	0xbe4174d8	-0.18892229
58	0xbd8635cc	-0.0655323
59	0xbc97c70e	-0.018527534
60	0xbd11f910	-0.035637915
61	0xbda7837b	-0.08179375
62	0xbc9e7c16	-0.019346278
63	0xbe2b93e7	-0.16755639
64	0xbd6655a7	-0.05623403
65	0x3dabf708	0.08396727
66	0xbde18324	-0.11011341
67	0x3cd9bcaa	0.02657922
68	0x3dfa158c	0.12211141
69	0xbcbb8dc4	-0.022894748
70	0xbd3525e4	-0.04422559
71	0x3e3c4d65	0.18388899
72	0xbb87a68f	-0.0041397284
73	0x3db1bdcb	0.08678778
74	0x3c6d5ff0	0.014488205
75	0x3dea7924	0.11448887
76	0x3d867c3d	0.06566665
77	0x3dbd4093	0.09240832
78	0xbdb18a78	-0.08668989
79	0x3bde00d8	0.006775003
80	0xbc659417	-0.014012358
81	0x3e6f4d57	0.23369347
82	0xbe9efe9a	-0.3105362
83	0x3d3a1d8f	0.045438346
84	0x3e0dcbe1	0.13847305
85	0x3e5f0692	0.2177985
86	0xbd26c267	-0.04071274
87	0xbe09c47a	-0.13453856
88	0x3e0104c1	0.1259947
89	0x3d4b9281	0.049700264
90	0xbdee239d	-0.116278864
91	0xbd59f602	-0.053213127
92	0x3e3236ca	0.17403713
93	0xbe73fc78	-0.23826778
94	0xbb8e883a	-0.0043497356
95	0xbd35af5a	-0.04435668
96	0x3dcd7318	0.10031718
97	0x3c273c19	0.0102071995
98	0xbdda20e6	-0.10650806
99	0x3cedcbbd	0.029027814
100	0xbd93aa14	-0.07210174
101	0x3e0a7123	0.1351972
102	0x3dccbe18	0.09997195
103	0x3d5e3d0d	0.05425744
104	0xbddc2ee7	-0.107511334
105	0xbc842aec	-0.016133748
106	0xbd960dd3	-0.073268555
107	0xbe2bf235	-0.16791613
108	0x3ddc4e30	0.107571006
109	0x3d97807b	0.073975526
110	0xbe80dccd	-0.25168458
111	0xbe2bdf4b	-0.16784398
112	0x3dd6812a	0.10473855
113	0xbd377bb9	-0.044795725
114	0x3d781a30	0.06057185
115	0x3d906da2	0.07052161
116	0xbca453ad	-0.020059431
117	0xbbf59784	-0.0074948687
118	0xbd93e4dd	-0.072213866
119	0xbe1add20	-0.15123415
120	0xbe66c68a	-0.22536674
121	0x3c82a12d	0.015945995
122	0xbcc6053e	-0.024172422
123	0xbe0fc59c	-0.14040226
124	0xbdd6548f	-0.10465347
125	0xbe2c3ef2	-0.16820887
126	0x3e81c0c7	0.2534239
127	0xbdbc37a0	-0.09190297
128	0x3da86528	0.08222419
129	0xbd7a006c	-0.06103556
130	0xbe06b03f	-0.1315317
131	0x3dd8c727	0.1058486
132	0xbc95e884	-0.018299349
133	0x3b024278	0.0019876044
134	0xbe1f95fa	-0.15584555
135	0x3d8757ef	0.06608569
136	0x3cebc539	0.028780567
137	0x3e514cbd	0.2043943
138	0x3d5b8618	0.05359468
139	0xbd658c74	-0.05604215
140	0x3d5d4908	0.054024726
141	0xbe1f1b45	-0.15537746
142	0x3bd5c397	0.0065235603
143	0x3bd62cc1	0.006536097
144	0xbd505cd5	-0.05086978
145	0x3c4eb1a6	0.012615597
146	0xbe3f41f3	-0.18677501
147	0xbd6bce69	-0.057569895
148	0xbcc192b0	-0.023629516
149	0x3caaaedd	0.020835334
150	0x3cf32205	0.029679308
151	0x3cdd9c4a	0.027052063
152	0xbda82d47	-0.08211761
153	0x3d745bbb	0.059657793
154	0xbd9f4848	-0.077774584
155	0xbe0994ab	-0.13435619
156	0x3a488031	0.00076484965
157	0xbdd2cece	-0.10293351
158	0xbe2e76bd	-0.17037483
159	0xbcec9820	-0.028881133
160	0xbe2de4bb	-0.16981785
161	0xbc9c0058	-0.019043133
162	0x3b5a1115	0.0033274342
163	0x3ddbdaf1	0.10735119
164	0x3c926680	0.017871141
165	0x3b8483c4	0.004044028
166	0x3d02b123	0.031907212
167	0xbd1a2980	-0.037637234
168	0x3d7ce628	0.06174293
169	0xbd89cd51	-0.06728614
170	0xbc8535ca	-0.016261
171	0xbd818ee3	-0.063260816
172	0x3bb24fed	0.005441657
173	0xbe1570ee	-0.1459386
174	0x3e26c188	0.16284764
175	0x3b4d339b	0.0031311277
176	0xbe14a658	-0.1451658
177	0xbddf2cd0	-0.10897219
178	0x3e57e0e7	0.21081887
179	0xbc87f009	-0.01659395
180	0xbd4faba6	-0.050700806
181	0xbe1af7ac	-0.15133542
182	0xbc36f657	-0.01116713
183	0x3b1dda91	0.0024086575
184	0x3c2b85aa	0.01046888
185	0xbdcc8870	-0.09986961
186	0xbd8744b4	-0.06604901
187	0xbd82c809	-0.0638581
188	0x3d0cd10f	0.03437906
189	0x3e07da04	0.1326676
190	0xbd8b678c	-0.068068594
191	0xbb3dd862	-0.0028968086
192	0x3d498c7a	0.049206235
193	0x3dbffbec	0.09374222
194	0x3dcd04e9	0.10010702
195	0xbd3e601d	-0.04647838
196	0xbdb11108	-0.086458266
197	0xbdbcbf91	-0.09216226
198	0x3dac8c32	0.08425178
199	0xbdf1445e	-0.11780618
200	0xbe0f4c24	-0.13993889
201	0x3d61a10f	0.055085238
202	0x3cdf3a40	0.027249455
203	0x3d1df0d4	0.03855975
204	0xbe1fbb22	-0.15598729
205	0xbe0376f6	-0.12838349
206	0xbd979c46	-0.07402854
207	0xbe29a314	-0.16566116
208	0x3db96d2e	0.090540275
209	0x3df1373e	0.11778115
210	0xbe931bd9	-0.28732184
211	0xbd754068	-0.059875876
212	0x3d0bf8a5	0.034172673
213	0xbd98ddc3	-0.07464173
214	0xbd8b162f	-0.067913406
215	0x3c0753ac	0.008259695
216	0xbd813d57	-0.06310528
217	0x3e11a35e	0.14222476
218	0xbde5dac4	-0.11223367
219	0x3dcc65e1	0.09980369
220	0xbabd01cf	-0.0014420095
221	0xbd2da6f5	-0.04239555
222	0x3d724895	0.05915125
223	0x3d988311	0.07446874
224	0xbdeeea1d	-0.11665747
225	0xbe0bafc7	-0.13641272
226	0xbb90a6f2	-0.0044144327
227	0x3cdf2972	0.027241442
228	0x3d97e230	0.07416189
229	0x3ce311f7	0.027718527
230	0x3d831be2	0.064018026
231	0xbe8c8704	-0.2744676
232	0x3ba3b4e6	0.00499593
233	0xbdd3c260	-0.103398085
234	0xbdf099b0	-0.117480636
235	0x3d8edb41	0.06975413
236	0xba69f565	-0.0008924811
237	0x3dd9435f	0.10608553
238	0xbe3eebc6	-0.18644628
239	0x3c5e95ce	0.013585521
240	0x3e3dae65	0.18523557
241	0x3cbf05c5	0.02331818
242	0x3dec73e6	0.115455434
243	0xbd9f9a6d	-0.07793126
244	0x3e33826f	0.17530225
245	0xbdd8ec85	-0.105919875
246	0xbdc48b60	-0.09596896
247	0x3e379b67	0.17930375
248	0xbe110d9b	-0.14165346
249	0x3e0ad80c	0.13558978
250	0xbd9c270b	-0.07624634
251	0x3d824fc2	0.06362869
252	0xbce8f972	-0.028439257
253	0x3d299827	0.04140487
254	0xbe2abdce	-0.16673967
255	0x3ccc0958	0.0249068
